onnx_model/2023_4_4_hj_num_1/2023_4_4_hj_num_1.onnx (onnx, 135172 bytes, 26 tensors)

block_neck1.block_neck.1.weight f4 [1, 1, 3, 3]
-0.30277675 -0.100114405 0.2197665 0.014283337 -0.059991457 0.67116064 -0.16544838 0.0069308532
1.0348002
00000000: 8e05 9bbe c808 cdbd 780a 613e a804 6a3c
00000010: 9ab9 75bd 2fd1 2b3f 4d6b 29be 361c e33b
00000020: 5574 843f

block_neck2.block_neck.0.weight f4 [16, 1, 1, 1]
0.48551545 0.6565906 -0.5139964 -0.763859 -0.9066264 -0.7727424 0.72827405 0.6497931
-0.27108762 -0.5567887 0.95280015 0.8175376 -0.5760091 -0.81441945 -0.6099087 -0.80176735
00000000: 7b95 f83e 5216 283f 4595 03bf 438c 43bf
00000010: ab18 68bf 72d2 45bf 2b70 3a3f d758 263f
00000020: ffcb 8abe b489 0ebf b6ea 733f 254a 513f
00000030: 5575 13bf cb7d 50bf fa22 1cbf a040 4dbf

block_neck2.block_neck.1.weight f4 [16, 1, 3, 3]
-0.165215 0.09429134 0.49669844 0.7992531 0.37357458 -0.42791566 -0.072364435 0.359327
-0.0120875845 -0.24334687 0.13120592 -0.031343102 0.09760155 0.7207348 -0.09789811 0.4944035
0.6954048 0.022687148 0.18232451 0.42434606 0.54201543 0.6333919 0.6477922 -0.2740871
0.41612276 0.15166171 -0.3888128 0.43077606 0.46035275 0.5328736 -0.06626198 0.03856468
-0.03230987 -0.173868 -0.73432267 -0.23556338 0.1544705 0.26617315 0.559518 -0.3245597
-0.5222689 -0.7366493 0.052482445 -0.054558735 -0.14833139 -0.11980522 0.2648393 0.44447175
-0.124329865 -0.5437237 -0.3052432 0.5377414 0.4086624 0.37621647 0.74682367 0.30602145
0.5576273 0.36169985 0.046702843 0.29587218 0.2332315 0.13851002 0.10578346 -0.32547724
-0.54785466 -0.12847687 0.39935657 0.09789859 0.23212811 0.7584852 -0.0759568 0.007846845
0.1272731 -0.44002602 0.120934345 0.58205897 -0.12633963 0.3801319 -0.46811542 0.2662928
0.18166618 0.005331374 -0.60828936 -0.140402 -0.07123811 0.16617793 0.79142106 -0.15675531
0.08301967 0.54395473 0.40782386 -0.3088327 -0.78571963 0.47307077 0.14330958 -0.31861836
0.30950874 0.2785001 0.07523851 0.4970755 0.0013793426 0.35355794 0.035278305 -0.09537844
0.012034136 -0.3288881 -0.33254695 -0.77159953 0.85448784 -0.022223648 -0.72402143 0.5738742
-0.18429703 -0.49235082 0.044094976 0.03201492 0.26875383 -0.1278551 0.6164098 0.5610762
-0.47063145 0.32695398 0.5642304 -0.2540586 -0.017531693 0.0909492 0.10928056 0.42420158
0.43588567 0.14789349 0.06666731 -0.35555357 0.33123147 -0.8637561 -0.0048843585 -0.052734796
-0.030937884 0.44216844 0.39088076 -0.27470875 0.24419081 0.8896892 0.21537763 -0.37512922
00000000: 1f2e 29be d11b c13d 424f fe3e da9b 4c3f
00000010: 2b45 bf3e c317 dbbe ce33 94bd b5f9 b73e
00000020: 010b 46bc ec2f 79be d85a 063e a061 00bd
00000030: 52e3 c73d 1382 383f ce7e c8bd 7522 fd3e
00000040: 0d06 323f 66da b93c 47b3 3a3e e343 d93e
00000050: 86c1 0a3f f925 223f b6d5 253f 2555 8cbe
00000060: 0b0e d53e 354d 1b3e 7912 c7be ae8e dc3e
00000070: 5bb3 eb3e 676a 083f 5cb4 87bd fff5 1d3d
00000080: 5b57 04bd 740a 32be 92fc 3bbf 8737 71be
00000090: 842d 1e3e d947 883e 923c 0f3f b02c a6be
000000a0: 6ab3 05bf 0c95 3cbf d5f7 563d fb78 5fbd
000000b0: 2fe4 17be 705c f5bd 0499 873e cd91 e33e
000000c0: a8a0 febd 7a31 0bbf d648 9cbe 6ca9 093f
000000d0: 333c d13e 729f c03e d62f 3f3f d8ae 9c3e
000000e0: aac0 0e3f b930 b93e 7b4b 3f3d 8f7c 973e
000000f0: 3dd4 6e3e 92d5 0d3e 00a5 d83d f4a4 a6be
00000100: 3440 0cbf 718f 03be 7778 cc3e 0e7f c83d
00000110: feb2 6d3e 162c 423f 3d8f 9bbd 0e90 003c
00000120: e153 023e 174b e1be 6dac f73d d101 153f
00000130: 2d5f 01be a6a0 c23e d3ac efbe 8857 883e
00000140: b306 3a3e ceb2 ae3b dab8 1bbf 8bc5 0fbe
00000150: 49e5 91bd 8c2a 2a3e 929a 4a3f 7784 20be
00000160: 3706 aa3d 9e40 0b3f 4ace d03e 521f 9ebe
00000170: ec24 49bf 5536 f23e bfbf 123e f221 a3be
00000180: ee77 9e3e 9197 8e3e a616 9a3d ae80 fe3e
00000190: 0fcb b43a 8c05 b53e fc7f 103d c655 c3bd
000001a0: d32a 453c 0564 a8be 9843 aabe 8c87 45bf
000001b0: b7bf 5a3f 5e0e b6bc 7859 39bf 6be9 123f
000001c0: 5cb8 3cbe 6815 fcbe ef9c 343d 1422 033d
000001d0: 1a9a 893e 73ec 02be 08cd 1d3f b1a2 0f3f
000001e0: 9bf6 f0be 8366 a73e 6771 103f f813 82be
000001f0: a09e 8fbc 9343 ba3d 7cce df3d f330 d93e
00000200: 682c df3e 6471 173e df88 883d 1e0b b6be
00000210: 2c97 a93e 1f1f 5dbf f80c a0bb 7100 58bd
00000220: 7271 fdbc e763 e23e 8621 c83e a0a6 8cbe
00000230: 280d 7a3e acc2 633f f48b 5c3e f010 c0be

block_neck3.block_neck.0.weight f4 [32, 1, 1, 1]
0.8153718 0.60972124 -0.812302 1.0021821 -0.35222432 -0.8178613 -0.63565475 1.049476
0.5675993 0.7650472 0.54116774 0.540457 0.76314306 1.141763 -0.9309847 -0.5535314
-0.4586349 -0.5233321 0.6650844 0.60283405 -0.6829895 0.37422076 -0.8779172 -0.60888314
-0.7140421 -0.4343103 -0.5165843 0.7905686 0.6094363 -0.5907646 -0.6409289 -0.76180637
00000000: 35bc 503f b116 1c3f 06f3 4fbf 8147 803f
00000010: bf56 b4be 5c5f 51bf 45ba 22bf 3b55 863f
00000020: 304e 113f 22da 433f f889 0a3f 645b 0a3f
00000030: 585d 433f 4a25 923f 0355 6ebf 3cb4 0dbf
00000040: 32d2 eabe 18f9 05bf f942 2a3f 5553 1a3f
00000050: 66d8 2ebf dd99 bf3e 2ebf 60bf c4df 1bbf
00000060: 77cb 36bf eb5d debe de3e 04bf b462 4a3f
00000070: 0404 1c3f 593c 17bf eb13 24bf be05 43bf

block_neck3.block_neck.1.weight f4 [32, 1, 3, 3]
-0.13058238 -0.5030385 -0.4769304 0.42485663 -0.4586855 -0.13235745 0.5331739 0.13486798
0.34570447 -0.6856164 -0.14382294 -0.14450681 -0.03560779 0.34866026 0.43963325 0.65997636
0.5427291 -0.25511232 -0.70826936 -0.7565659 0.74697185 -0.1619265 0.027162004 -0.010919348
0.51303816 -0.1998603 -0.4755679 -0.6110618 -0.3605965 -0.33302486 -0.7628541 -0.2875124
0.23996541 -0.29569885 -0.05172371 0.47690132 -0.6755059 -0.0411324 0.31772277 -0.5958334
-0.06156543 -0.30304977 -0.022742903 -0.18999952 -0.29559013 0.2518834 0.30989048 0.118367024
0.03338237 0.07514172 -0.22842665 -0.4284541 -0.42721927 -0.7840678 0.87337655 -0.19832313
-0.6739006 -0.5563804 -0.26751983 0.43640593 -0.19156858 -0.15942055 -0.14456172 0.31536776
-0.035843536 -0.42922837 -0.06328601 0.13936204 -0.57101405 -0.13848086 0.5506058 0.6066675
-0.08642922 -0.16444477 -0.049167212 0.21265393 0.5909101 0.42570424 -0.3567106 -0.17670998
-0.58649343 0.0072801216 0.03901161 -0.24952286 -0.49818316 -0.69352657 -0.10718738 -0.3797425
-0.7753788 -0.7265146 0.39324993 0.39370206 0.46047962 0.4110412 0.55481976 0.49824864
-0.34251326 0.18931523 -0.41974458 -0.26372004 -0.55820286 0.29431388 -0.16577972 -0.13738424
0.24840221 -0.2794088 0.45658374 0.65514785 0.48313802 0.22239457 -0.27684626 0.6417324
0.054167114 -0.55623156 0.24504246 0.007837642 -0.26360252 -0.25758356 0.3926231 0.44209996
-0.1898687 0.6398845 0.593556 -0.38032305 0.42971832 0.62202936 -0.16608123 -0.4587034
-0.22852159 0.3611987 -0.32220778 0.39955378 -0.25360692 -0.66255367 0.11067805 -0.5544107
0.034469426 0.77816653 -0.6869645 -0.41725516 0.36753985 0.26632646 -0.23802873 0.23683207
-0.22511935 -0.12836814 0.04525099 -0.19001801 -0.6491895 -0.92990303 0.3522721 0.05401416
0.14933044 0.41939774 -0.091964886 -0.43884718 -0.5014284 -0.049199216 0.6578853 0.44168591
0.19960801 -0.2331036 0.6511963 -0.3168093 -0.39930856 0.46216136 0.25583875 -0.31540853
0.12880234 -0.205405 -0.27618533 -0.19562903 -0.124217845 -0.46350598 0.08880191 -0.036851946
-0.6549352 0.83166337 0.4133651 -0.11218483 -0.5470216 -0.5284916 -0.5109559 0.4538016
0.063776664 -0.14335273 0.069452465 0.25451878 0.23297572 0.6387867 0.5519191 -0.0346038
-0.39021012 -0.28800443 -0.58002096 -0.22930917 -0.5456868 -0.021801626 -0.034529675 0.63660365
-0.54704213 0.31309524 -0.4810134 -0.3181727 -0.10150751 -0.48818022 -0.26722655 -0.55081886
0.091020174 0.045943394 0.58301705 0.21253803 -0.40110254 -0.4242546 0.08202993 0.3574235
-0.2227828 0.37255225 -0.16069515 0.044985753 0.49201858 -0.19399832 -0.8758038 0.05810551
-0.24154499 -0.15866037 0.37204602 0.5409474 0.037301086 -0.3908697 -0.4242107 -0.36771503
0.2670543 0.46419072 -0.30184257 0.31323892 0.5092411 0.049568903 -0.21917945 0.45606858
-0.07383108 -0.096598566 -0.008720654 -0.31478724 -0.017530125 0.6457838 0.064617455 0.29735342
0.30686536 0.10401891 0.4106047 -0.118633546 0.33891687 -0.27920327 -0.93514514 -0.3697709
00000000: 63b7 05be 22c7 00bf 3930 f4be cf86 d93e
00000010: d3d8 eabe b688 07be 167e 083f d51a 0a3e
00000020: 2d00 b13e 8e84 2fbf 5246 13be 98f9 13be
00000030: 79d9 11bd 9983 b23e 9c17 e13e 36f4 283f
00000040: 4bf0 0a3f 159e 82be 2451 35bf 4eae 41bf
00000050: 8c39 3f3f 0fd0 25be da82 de3c 11e7 32bc
00000060: 7856 033f 2ea8 4cbe a37d f3be 8c6e 1cbf
00000070: 1ba0 b8be 3c82 aabe 684a 43bf d334 93be
00000080: 7eb9 753e d765 97be 3edc 53bd 692c f43e
00000090: f4ed 2cbf 737a 28bd 8fac a23e 8a88 18bf
000000a0: 082c 7cbd 5729 9bbe 534f babc 3c8f 42be
000000b0: 9757 97be dcf6 803e f7a9 9e3e 696a f23d
000000c0: f4bb 083d e7e3 993d ade8 69be 565e dbbe
000000d0: 7cbc dabe abb8 48bf 9b95 5f3f 3815 4bbe
000000e0: c084 2cbf f26e 0ebf 5cf8 88be 9970 df3e
000000f0: 8e2a 44be 243f 23be fd07 14be e277 a13e
00000100: acd0 12bd d2c3 dbbe 189c 81bd ecb4 0e3e
00000110: fa2d 12bf edcd 0dbe 80f4 0c3f 904e 1b3f
00000120: ce01 b1bd 3664 28be 8f63 49bd f4c1 593e
00000130: e245 173f e8f5 d93e c6a2 b6be 76f3 34be
00000140: 6f24 16bf 168e ee3b a3ca 1f3d ec82 7fbe
00000150: dd11 ffbe f58a 31bf 0f85 dbbd 9c6d c2be
00000160: 3a7f 46bf dcfc 39bf 0e58 c93e 5193 c93e
00000170: fcc3 eb3e fe73 d23e ab08 0e3f 721a ff3e
00000180: e65d afbe dadb 413e c3e8 d6be 5006 87be
00000190: 62e6 0ebf 4fb0 963e 29c2 29be 74ae 0cbe
000001a0: 265d 7e3e ac0e 8fbe 58c5 e93e c5b7 273f
000001b0: de5d f73e 67bb 633e cbbe 8dbe 9348 243f
000001c0: 56de 5d3d 3165 0ebf 69ec 7a3e 7469 003c
000001d0: e9f6 86be fee1 83be e505 c93e ed5a e23e
000001e0: f16c 42be 78cf 233f 49f3 173f b4b9 c2be
000001f0: 0a04 dc3e 513d 1f3f 3311 2abe 2cdb eabe
00000200: 9001 6abe 09ef b83e 6bf8 a4be 5092 cc3e
00000210: c4d8 81be 1e9d 29bf 2cab e23d dced 0dbf
00000220: d02f 0d3d ec35 473f e8dc 2fbf 78a2 d5be
00000230: 2f2e bc3e f15b 883e cebd 73be 1b84 723e
00000240: b085 66be f072 03be 1a59 393d 1594 42be
00000250: 4831 26bf 200e 6ebf 025d b43e f43d 5d3d
00000260: 14ea 183e 4dbb d63e 1658 bcbd 94b0 e0be
00000270: 9d5d 00bf 1e85 49bd 2c6b 283f a824 e23e
00000280: 0b66 4c3e b6b2 6ebe cdb4 263f d434 a2be
00000290: 2c72 ccbe 6aa0 ec3e 4cfd 823e 3a7d a1be
000002a0: c3e4 033e b055 52be 2a68 8dbe fa52 48be
000002b0: ed65 febd a850 edbe c7dd b53d 11f2 16bd
000002c0: d5a9 27bf e4e7 543f 97a4 d33e 29c1 e5bd
000002d0: 9c09 0cbf 3a4b 07bf 02ce 02bf af58 e83e
000002e0: 579d 823d 0fcb 12be 183d 8e3d 4950 823e
000002f0: 3091 6e3e 8687 233f 924a 0d3f b7bc 0dbd
00000300: 9fc9 c7be 5175 93be 417c 14bf 06d0 6abe
00000310: 21b2 0bbf 5399 b2bc fd6e 0dbd 75f8 223f
00000320: f40a 0cbf 054e a03e 6347 f6be 88e7 a2be
00000330: 2be3 cfbd c2f2 f9be ebd1 88be 7702 0dbf
00000340: c968 ba3d 242f 3c3d 9b40 153f 92a3 593e
00000350: 505d cdbe e637 d9be 4fff a73d 3700 b73e
00000360: 2d21 64be 2bbf be3e 458d 24be fb42 383d
00000370: dce9 fb3e 7fa7 46be ae34 60bf 0b00 6e3d
00000380: 9257 77be dd77 22be d17c be3e 877b 0a3f
00000390: 06c9 183d 1320 c8be 2532 d9be 2545 bcbe
000003a0: 57bb 883e 68aa ed3e 1c8b 9abe da60 a03e
000003b0: a05d 023f c308 4b3d 9470 60be d281 e93e
000003c0: c034 97bd 78d5 c5bd 13e1 0ebc cb2b a1be
000003d0: 569b 8fbc 1652 253f 2856 843d b53e 983e
000003e0: 751d 9d3e de07 d53d c73a d23e 25f6 f2bd
000003f0: 8386 ad3e bbf3 8ebe ac65 6fbf 9d52 bdbe

onnx::Conv_121 f4 [16, 1, 1, 1]
-1.0917053 -2.9946158 -1.2067995 3.5600183 3.033988 -1.8172637 -0.8048794 -2.511279
-1.4366072 -2.8282385 -2.0128913 -1.6885668 3.1117423 1.3382581 -2.803672 4.489112
00000000: 00bd 8bbf c9a7 3fc0 6878 9abf 57d7 6340
00000010: dc2c 4240 199c e8bf 940c 4ebf ccb8 20c0
00000020: bfe2 b7bf dc01 35c0 36d3 00c0 f522 d8bf
00000030: c926 4740 0b4c ab3f 5d6f 33c0 cea6 8f40

onnx::Conv_122 f4 [16]
-0.01879403 -0.8583474 -0.6179946 1.0414633 1.5553894 0.028731227 -0.6891801 -0.4927225
0.13269961 -0.87227166 -0.80323005 -0.036613584 0.9048143 1.1099017 -0.77320457 1.4875419
00000000: f0f5 99bc a8bc 5bbf e534 1ebf ab4e 853f
00000010: 0017 c73f c05d eb3c 1b6e 30bf 2046 fcbe
00000020: 68e2 073e 324d 5fbf 7ca0 4dbf 20f8 15bd
00000030: e9a1 673f 4211 8e3f bcf0 45bf c667 be3f

onnx::Conv_124 f4 [16, 1, 1, 1]
2.0058768 -1.4874442 -4.955516 2.2632322 -0.82241195 2.216878 2.8436618 2.1027942
1.6499853 -1.8506944 2.07183 2.43725 2.5532143 -2.2382984 1.3400781 1.2841966
00000000: 4960 0040 9264 bebf 9693 9ec0 ccd8 1040
00000010: 9789 52bf 54e1 0d40 8efe 3540 2e94 0640
00000020: b832 d33f 8ee3 ecbf dd98 0440 e7fb 1b40
00000030: dd67 2340 4840 0fc0 ae87 ab3f 8e60 a43f

onnx::Conv_125 f4 [16]
-0.6221778 0.5565014 2.143602 -0.092255175 0.54488146 -0.049049318 -1.2424767 0.22559273
-1.1757256 0.6919898 -0.85425556 -0.38052338 -0.9201506 2.0584764 -0.49477154 -0.0035896301
00000000: 0b47 1fbf e076 0e3f c630 0940 48f0 bcbd
00000010: 5a7d 0b3f f0e7 48bd 7a09 9fbf c801 673e
00000020: 2d7e 96bf 3e26 313f 7eb0 5abf f6d3 c2be
00000030: fd8e 6bbf 14be 0340 b252 fdbe 0040 6bbb

onnx::Conv_127 f4 [32, 16, 1, 1]
-0.34029716 -0.12835476 -0.21115558 -0.13829598 0.0152814165 0.03540964 -0.29385456 -0.10475537
-0.11371575 -0.21713853 0.013015593 -0.0075036115 -0.1385032 -0.27494037 0.20475604 -0.050421108
0.768086 0.045935098 0.12727977 -0.15890664 0.27415887 -0.37775618 0.13905898 0.14744449
0.16006503 0.53940976 0.13069685 -0.22355217 0.6215789 -0.28991508 -0.4789855 -0.3659776
0.799645 0.43554592 -0.3523201 0.3507647 -0.080884345 0.062125854 0.29310432 0.25821435
-0.20329602 0.27906588 -0.28353587 0.086735964 0.6052504 0.3852486 -0.35915792 0.29920772
0.44337413 0.03967932 0.19510691 -0.05914531 -0.22528163 -0.07070492 0.560934 -0.006366458
-0.4050967 -0.026713926 0.08636976 -0.08390313 0.025868312 0.18128958 0.05689197 0.031129934
-0.23461175 -0.36555836 -0.016568197 0.078492686 -0.08008082 0.0497359 -0.009452968 0.16831718
0.13030574 -0.2414587 -0.0727026 0.14256097 -0.051858068 -0.2336438 -0.23429742 -0.2737464
-0.20096698 0.38428873 -0.45176753 -0.31726813 -0.015397081 -0.3454502 0.13257599 0.008178728
-0.0049341912 -0.12428612 -0.29244646 -0.33091065 0.45155603 0.3088091 0.108405724 0.15850092
0.104303785 -0.20557763 -0.035899475 -0.12002696 -0.0017411499 0.1876321 0.31513533 -0.22262484
-0.29599467 -0.27973902 -0.47321305 0.16996877 0.10270892 0.5722932 -0.42108008 0.23068477
0.3806802 -0.006391075 0.3388969 -0.19524325 -0.01661093 -0.23723507 -0.0061544194 0.26869714
-0.2195583 0.107328735 0.6151238 -0.031927854 -0.18705226 -0.4053301 0.35767555 0.37385166
-0.10531616 0.11884038 -0.09374798 -0.36672643 0.16335632 -0.4519788 -0.15706101 0.10552457
0.36502448 0.11463963 0.05417431 -0.5762287 0.31086665 -0.17095155 -0.12843227 -0.35648483
-0.3190043 0.29907793 -0.36886722 0.46801022 -0.18865828 -0.012689306 -0.07170509 0.18251455
0.13092844 -0.315066 -0.070998915 -0.16036172 -0.077121325 -0.11168933 0.30445793 0.23606601
-0.07455865 0.437659 -0.26491776 -0.020971712 0.0589646 -0.025974834 -0.3117084 -0.6083631
0.18745205 0.08608741 -0.32186 -0.41267386 -0.291154 0.18723622 0.17780168 -0.9975015
-0.13824973 0.058954712 0.42140794 -0.14882241 0.09506136 -0.22483674 0.43367502 0.3684876
0.10781267 -0.30965814 0.4517989 0.14347121 -0.61292106 -0.32362315 -0.5964542 -0.47237584
-0.017779006 -0.02551462 -0.06487659 -0.20049405 0.039245576 -0.89657 -0.097970806 0.023517158
0.19947794 -0.09263041 0.068390116 -0.36111727 -0.23755556 -0.2327722 0.043872308 0.068001695
-0.0036804609 -0.15407832 -0.17608695 -0.24191788 0.22421576 0.2512429 -0.03458663 -0.30274191
0.19914535 0.28162214 -0.15932138 0.33191183 0.21436714 0.045542873 -0.24603677 0.16111253
-0.04563509 -0.038751666 -0.29598644 -0.2094105 0.0076092263 -0.026904043 -0.066684835 -0.22657913
0.31150234 0.1259939 -0.23358019 0.08181087 -0.011616843 -0.053127818 -0.08742883 -0.01626139
-0.0057491623 -0.15049857 0.13030516 -0.07877485 0.2086 -0.05522785 -0.20669374 -0.3806178
0.09070368 0.17249106 -0.34132874 0.09824455 0.48709732 -0.14215918 0.05611959 0.16672574
00000000: 6e3b aebe 6e6f 03be 2b39 58be 769d 0dbe
00000010: e85e 7a3c b309 113d 1b74 96be fc89 d6bd
00000020: cee3 e8bd 9059 5ebe 5b3f 553c dbe0 f5bb
00000030: c8d3 0dbe fcc4 8cbe 91ab 513e 5d86 4ebd
00000040: 49a1 443f 7126 3c3d a155 023e 6cb8 22be
00000050: 8d5e 8c3e 4269 c1be 7a65 0e3e b0fb 163e
00000060: 16e8 233e c216 0a3f 65d5 053e dcea 64be
00000070: cb1f 1f3f c06f 94be 963d f5be 6a61 bbbe
00000080: 89b5 4c3f e0ff de3e 4d63 b4be 6e97 b33e
00000090: b1a6 a5bd ae77 7e3d c511 963e ac34 843e
000000a0: d52c 50be b9e1 8e3e 9d2b 91be a0a2 b13d
000000b0: b1f1 1a3f 4e3f c53e 8ce3 b7be c131 993e
000000c0: ef01 e33e c886 223d 1bca 473e 5a42 72bd
000000d0: 3ab0 66be becd 90bd 5f99 0f3f b89d d0bb
000000e0: d668 cfbe 2ad7 dabc a1e2 b03d 67d5 abbd
000000f0: c8e9 d33c faa3 393e 8e07 693d 3404 ff3c
00000100: 103e 70be 772a bbbe 07ba 87bc c6c0 a03d
00000110: 6a01 a4bd dfb7 4b3d 9fe0 1abc 575b 2c3e
00000120: de6e 053e f340 77be 1ae5 94bd 81fb 113e
00000130: 2069 54bd 5240 6fbe aaeb 6fbe 7d28 8cbe
00000140: 4aca 4dbe 7ec1 c43e 134e e7be f870 a2be
00000150: 0a44 7cbc d9de b0be 00c2 073e 1200 063c
00000160: ffae a1bb b989 febd 8bbb 95be 1f6d a9be
00000170: 5a32 e73e 3a1c 9e3e d203 de3d 114e 223e
00000180: 399d d53d f182 52be 540b 13bd b2d0 f5bd
00000190: 4c37 e4ba a122 403e 6b59 a13e c4f7 63be
000001a0: 9d8c 97be f439 8fbe fb48 f2be 4b0c 2e3e
000001b0: 0e59 d23d cf81 123f cf97 d7be a138 6c3e
000001c0: 84e8 c23e 396c d1bb e583 ad3e d9ed 47be
000001d0: a513 88bc c0ed 72be 03ab c9bb ac92 893e
000001e0: e4d3 60be 2bcf db3d c178 1d3f c8c6 02bd
000001f0: a18a 3fbe 6d87 cfbe 4021 b73e 7c69 bf3e
00000200: 00b0 d7bd 9662 f33d f1fe bfbd 91c3 bbbe
00000210: e146 273e c469 e7be 9ad4 20be 441d d83d
00000220: 7de4 ba3e 2fc8 ea3d e2e5 5d3d b983 13bf
00000230: ea29 9f3e ec0d 2fbe c083 03be 2e85 b6be
00000240: 8854 a3be be20 993e 2adc bcbe 099f ef3e
00000250: a32f 41be cfe6 4fbc 1eda 92bd 18e5 3a3e
00000260: 1b12 063e 5550 a1be e167 91bd dd35 24be
00000270: c9f1 9dbd 60bd e4bd e9e1 9b3e 4abb 713e
00000280: 35b2 98bd d714 e03e 4da3 87be decc abbc
00000290: dd84 713d 2dc9 d4bc 3e98 9fbe afbd 1bbf
000002a0: 6ef3 3f3e 994e b03d d5ca a4be fd49 d3be
000002b0: 2312 95be daba 3f3e a511 363e 425c 7fbf
000002c0: 5691 0dbe 7f7a 713d c8c2 d73e e764 18be
000002d0: 88af c23d 9a3b 66be a70a de3e 68aa bc3e
000002e0: e4cc dc3d 838b 9ebe 2f52 e73e 1eea 123e
000002f0: 65e8 1cbf efb1 a5be 39b1 18bf 3fdb f1be
00000300: 47a5 91bc 0904 d1bc 05de 84bd 504e 4dbe
00000310: f8bf 203d 9d85 65bf eba4 c8bd 0ea7 c03c
00000320: f243 4c3e 03b5 bdbd 1e10 8c3d 5de4 b8be
00000330: c441 73be d65b 6ebe 73b3 333d 7944 8b3d
00000340: e333 71bb b5c6 1dbe 2350 34be 52b9 77be
00000350: d198 653e e9a2 803e b6aa 0dbd fd00 9bbe
00000360: c2ec 4b3e c730 903e 2525 23be 59f0 a93e
00000370: 0f83 5b3e 2a8b 3a3d 10f1 7bbe affa 243e
00000380: dceb 3abd 11ba 1ebd 898b 97be b56f 56be
00000390: d156 f93b de65 dcbc 0f92 88bd 5c04 68be
000003a0: 3c7d 9f3e 8b04 013e a52f 6fbe 758c a73d
000003b0: 9254 3ebc 8e9c 59bd e30d b3bd 9b36 85bc
000003c0: 7863 bcbb 4c1c 1abe b76e 053e b554 a1bd
000003d0: 3d9b 553e 9936 62bd 86a7 53be 56e0 c2be
000003e0: dac2 b93d 7fa1 303e a4c2 aebe 7034 c93d
000003f0: d264 f93e 2d92 11be a8dd 653d 27ba 2a3e

onnx::Conv_128 f4 [32]
-0.23332906 -3.2761104 -0.9025531 -0.54232746 0.13966927 -1.6272371 1.7519524 -0.49727884
-2.189512 -1.3682773 -2.1292105 -2.356353 -2.2359924 0.88194263 0.33239576 0.96562755
-1.3241001 0.68657255 -0.07812551 -1.1508355 0.18939367 -2.8237329 1.8050791 -1.0385698
2.4922388 0.11852324 -2.772281 0.1305381 0.8425367 -0.38182104 1.9373946 -1.7129934
00000000: d0ed 6ebe cbab 51c0 b80d 67bf f9d5 0abf
00000010: 7605 0f3e 4e49 d0bf fa3f e03f 559b febe
00000020: f720 0cc0 b623 afbf fc44 08c0 7dce 16c0
00000030: 801a 0fc0 fec6 613f c72f aa3e 5e33 773f
00000040: 1d7c a9bf 38c3 2f3f 4400 a0bd 944e 93bf
00000050: 6af0 413e 0ab8 34c0 d50c e73f dbef 84bf
00000060: d780 1f40 50bc f23d 0d6d 31c0 c8ab 053e
00000070: 7cb0 573f 0c7e c3be 8cfc f73f 5e43 dbbf

onnx::Conv_130 f4 [32, 16, 1, 1]
-0.1432301 -0.09498819 0.10694815 -0.065951616 0.035297293 -0.058290847 -0.09283652 -0.1340711
-0.021756241 -0.13261303 -0.08281857 -0.08553088 -0.0045513096 0.04305438 -0.09228248 -0.11020466
-0.0053601186 -0.032233782 -0.23825987 0.5411705 0.024694987 -0.052733146 0.028374262 0.117755935
-0.08969888 -0.000786432 -0.08568743 0.015918294 0.13598093 -0.13262968 0.06852634 0.21314597
0.3204215 -0.11109808 0.25627524 -0.03417048 0.099457435 -0.56025964 0.46898803 -0.58805466
-0.07467486 0.17589574 0.48020145 -0.31224734 0.44177693 -0.0460152 0.48899043 -0.2780065
0.043886915 -0.027452612 -0.024540048 -0.04405569 -0.22218235 0.04863416 0.08035397 0.06665091
0.14423138 -0.12477411 0.10581766 0.020399405 0.11850049 -0.32859194 -0.013401845 0.01876874
0.03863018 -0.03404102 0.038364824 0.07437188 0.07456661 -0.07075143 0.043183923 -0.09436168
-0.11678346 -0.11183992 -0.0031258515 -0.07441351 0.0940874 0.15300192 -0.02993362 0.045292575
0.01869993 0.032227058 0.067028135 0.032667644 0.00942436 0.054706942 -0.004118916 0.05607564
0.0417894 0.04105763 -0.026760696 0.07145246 0.026408806 0.028651772 0.04538402 0.018903712
0.0011099275 0.022510922 0.09942166 -0.14510912 -0.064420745 -0.062455256 -0.046394877 -0.045224216
0.014222668 0.019127142 -0.03282538 -0.0038213234 -0.07118938 -0.033636913 -0.031562343 -0.12042368
0.05858237 -0.033887744 -0.12280546 -0.009314915 -0.14081839 -0.0022636708 0.04901165 0.017942721
0.037009075 0.030311124 -0.032165863 0.084357515 -0.07955183 -0.13377641 0.050084207 -0.07214794
0.040761244 0.18945076 0.0096170595 0.097621925 -0.063808925 0.016216638 -0.08699643 0.1578747
0.0004514391 0.17367126 -0.14796354 0.08379895 -0.07489387 -0.11224459 0.018374262 0.09972828
-0.010972645 -0.11049188 -0.015886912 0.0051207603 -0.0004935428 -0.02780218 0.0032332635 -0.035817806
0.0024477323 -0.12692209 -0.005881765 -0.01798681 -0.022777382 -0.01387773 -0.020008111 0.0030460719
-0.02887525 0.20516871 -0.0526229 0.11624972 -0.14919502 0.19905387 -0.16530497 0.15602803
0.10825105 0.17831591 -0.10991748 -0.007760561 -0.045071207 -0.0719272 0.09315941 0.04344817
-0.006299189 -0.119155206 -0.24128094 0.14535092 -0.001266787 -0.044110946 -0.033511184 -0.098161645
-0.10624395 -0.08185381 -0.008815489 -0.027703801 0.16233678 -0.029829608 -0.055310737 0.24455862
0.010624941 0.059075747 0.1392856 -0.02103868 -0.03811077 -0.019910697 -0.053148255 -0.0037506511
0.0128812 0.02777241 -0.047157202 0.03328761 -0.095546246 0.043769788 -0.042253003 -0.073391534
0.0066903187 0.009799937 0.07202317 -0.08701171 0.026803846 -0.0545933 -0.102591604 -0.03992958
-0.0626174 0.026979055 -0.031441305 -0.07143395 -0.06169784 0.127176 -0.038841743 -0.12329904
0.0109616965 0.02078602 0.10127408 -0.11286746 0.02470265 -0.043233484 -0.17376475 -0.064258195
-0.03787985 0.019354686 -0.093390666 -0.02965076 -0.091913186 0.33727452 -0.11724332 -0.044502277
-0.055978607 -0.008950973 -0.054260403 -0.43955186 0.039255656 -0.014330714 -0.1646448 -0.12438689
0.031838644 -0.040843662 -0.018639335 -0.053659488 -0.1844807 0.12135904 -0.05064032 -0.22354835
00000000: e9aa 12be 2b89 c2bd a207 db3d a411 87bd
00000010: e593 103d 62c2 6ebd 1321 bebd ef49 09be
00000020: 253a b2bc b6cb 07be c89c a9bd d02a afbd
00000030: 2723 95bb ca59 303d 99fe bcbd fbb2 e1bd
00000040: efa3 afbb 9207 04bd 65fa 73be 268a 0a3f
00000050: 244d ca3c b6fe 57bd 2471 e83c 062a f13d
00000060: 0cb4 b7bd 8f28 4eba e47c afbd 1567 823c
00000070: 963e 0b3e 13d0 07be 8a57 8c3d f042 5a3e
00000080: 490e a43e 6487 e3bd 8236 833e 58f6 0bbd
00000090: 57b0 cb3d 2d6d 0fbf 331f f03e c08a 16bf
000000a0: 22ef 98bd 031e 343e f7dc f53e e2de 9fbe
000000b0: 9630 e23e 6f7a 3cbd f45c fa3e de56 8ebe
000000c0: c4c2 333d 4de4 e0bc 3608 c9bc bd73 34bd
000000d0: c583 63be 9d34 473d 9f90 a43d 4680 883d
000000e0: 64b1 133e 9289 ffbd eeb6 d83d a71c a73c
000000f0: 63b0 f23d 343d a8be 6993 5bbc e7c0 993c
00000100: ae3a 1e3d 996e 0bbd 6f24 1d3d 4950 983d
00000110: 61b6 983d 20e6 90bd a0e1 303d b240 c1bd
00000120: 2b2c efbd 540c e5bd 16db 4cbb 1c66 98bd
00000130: e5b0 c03d 89ac 1c3e 5a37 f5bc b584 393d
00000140: 9830 993c 8500 043d 0c46 893d 82ce 053d
00000150: a168 1a3c 6314 603d f9f7 86bb 92af 653d
00000160: 5d2b 2b3d 0c2c 283d 3f39 dbbc ab55 923d
00000170: 4857 d83c 1fb7 ea3c 98e4 393d f5db 9a3c
00000180: fd7a 913a d368 b83c 959d cb3d 7c97 14be
00000190: 06ef 83bd 15d1 7fbd 8e08 3ebd 073d 39bd
000001a0: 3106 693c 86b0 9c3c e873 06bd 2b6f 7abb
000001b0: bdcb 91bd dcc6 09bd 8447 01bd b1a0 f6bd
000001c0: 11f4 6f3d e0cd 0abd 6e81 fbbd 969d 18bc
000001d0: b232 10be 185a 14bb 71c0 483d 9dfc 923c
000001e0: d496 173d 094f f83c 5ac0 03bd a2c3 ac3d
000001f0: 12ec a2bd affc 08be 1925 4d3d 4dc2 93bd
00000200: 43f5 263d 61ff 413e df90 1d3c 01ee c73d
00000210: 41ae 82bd c1d8 843c 2f2b b2bd e8a9 213e
00000220: 21af ec39 e1d6 313e c183 17be c99e ab3d
00000230: f561 99bd 7ee0 e5bd 9f85 963c 573e cc3d
00000240: 9cc6 33bc 9149 e2bd 4525 82bc 0dcc a73b
00000250: 1961 01ba 66c1 e3bc 29e5 533b b1b5 12bd
00000260: 226a 203b ddf7 01be d2bb c0bb 1359 93bc
00000270: a297 babc 6b5f 63bc 0de8 a3bc 9ba0 473b
00000280: ca8b ecbc bf17 523e 1c8b 57bd 5514 ee3d
00000290: 94c6 18be c7d4 4b3e b545 29be d0c5 1f3e
000002a0: bab2 dd3d 7298 363e 6a1c e1bd 4e4c febb
000002b0: 969c 38bd 914e 93bd 5cca be3d b5f6 313d
000002c0: 6d69 cebb a507 f4bd 5a12 77be dfd6 143e
000002d0: 510a a6ba aead 34bd 0643 09bd f908 c9bd
000002e0: 6e96 d9bd f8a2 a7bd d76e 10bc 15f3 e2bc
000002f0: 9d3b 263e 395d f4bc 838d 62bd 936d 7a3e
00000300: 3c14 2e3c 69f9 713d e2a0 0e3e 4f59 acbc
00000310: 0a1a 1cbd c21b a3bc fcb1 59bd 7ccd 75bb
00000320: ab0b 533c f782 e33c e927 41bd 9758 083d
00000330: c0ad c3bd f347 333d 7c11 2dbd 4d4e 96bd
00000340: 763a db3b ea8f 203c e280 933d 3233 b2bd
00000350: bd93 db3c 399d 5fbd 8c1b d2bd 338d 23bd
00000360: 8d3d 80bd 2e03 dd3c 99c8 00bd f64b 92bd
00000370: e0b6 7cbd 6d3a 023e 8518 1fbd 3584 fcbd
00000380: b098 333c 7247 aa3c c968 cf3d 0e27 e7bd
00000390: 365d ca3c 9815 31bd 63ef 31be cd99 83bd
000003a0: e727 1bbd b88d 9e3c 9b43 bfbd 27e6 f2bc
000003b0: fb3c bcbd 3faf ac3e 441d f0bd 0548 36bd
000003c0: d349 65bd 1aa7 12bc 2840 5ebd f10c e1be
000003d0: 8aca 203d 5fcb 6abc a598 28be 8ebe febd
000003e0: 3d69 023d af4b 27bd 85b1 98bc 0dca 5bbd
000003f0: 82e8 3cbe 178b f83d 396c 4fbd dce9 64be

onnx::Conv_131 f4 [32]
1.1337534 -0.2786042 0.21786147 0.20756406 0.3851222 -0.6851194 0.32605022 0.7945415
0.121957004 0.12994224 -0.4642938 0.23611513 -0.045761045 0.48827752 0.39943808 2.0348368
0.24116665 0.7859258 0.36570296 0.106756985 -2.595865 -0.90000576 -1.3714486 -0.61928815
0.80173135 -0.60576326 -0.4885484 -0.15459266 0.6775018 -1.0048438 -0.6821486 0.0953491
00000000: d51e 913f 36a5 8ebe 1417 5f3e ac8b 543e
00000010: bd2e c53e fc63 2fbf 0ef0 a63e 1267 4b3f
00000020: 98c4 f93d 940f 053e ebb7 edbe 2ac8 713e
00000030: ef6f 3bbd 83ff f93e 2683 cc3e c43a 0240
00000040: 64f4 763e 6f32 493f 6b3d bb3e 68a3 da3d
00000050: a722 26c0 c766 66bf a18b afbf ab89 1ebf
00000060: 443e 4d3f 4d13 1bbf 0423 fabe 8a4d 1ebe
00000070: c270 2d3f b99e 80bf 4aa1 2ebf 6446 c33d

onnx::Conv_133 f4 [64, 32, 1, 1]
0.0057876925 0.2237597 -0.14044751 0.2861842 -0.123519994 0.0035824573 -0.16829658 -0.01931782
-0.24076636 -0.065456614 -0.05318707 0.09382836 -0.25098085 -0.16576207 0.10297541 0.035668425
0.20554586 -0.010854418 -0.07980164 0.05304847 -0.25633845 0.044691555 -0.05798841 -0.032530136
0.13398696 0.057702415 0.0029286386 -0.04722359 -0.24672873 -0.29637572 0.0716457 -0.057549786
0.006824859 -0.06647168 -0.2056426 0.058973815 -0.13615192 -0.21778525 -0.24598433 -0.012285507
0.014122215 0.10221772 -0.07128173 -0.010732932 0.31261986 0.018806044 0.053596836 0.059589896
-0.095646165 -0.14544998 0.048341043 0.24619934 0.092039846 0.29071376 -0.3045728 0.21372025
0.18975396 -0.15220109 0.16076145 -0.024070917 -0.119100556 0.0017761771 0.056681562 0.14496577
-0.08160937 0.0655696 -0.083636224 -0.05956888 0.11788166 -0.08008146 0.042483006 0.027405651
-0.0104999 0.21822956 -0.07120682 0.0022173994 -0.0078078783 -0.16088367 0.1239141 0.0802814
0.0077893576 -0.11373487 -0.042076457 0.023463625 0.031824734 0.025146281 -0.010890575 -0.04552248
-0.09584816 -0.009623613 -0.12273392 -0.057515863 0.034792777 0.1958692 0.05128771 0.033770904
0.085289426 0.06843573 -0.13951285 -0.13323498 -0.084412925 -0.07488021 -0.1462165 0.1432166
-0.2468369 0.16700105 -0.18694139 -0.035057068 -0.15017596 -0.05424407 -0.16579103 0.039585464
-0.2580659 0.14273608 0.03974333 0.08288694 -0.02908824 -0.076893985 -0.23262893 0.006997266
-0.071464814 -0.030390535 -0.10198756 -0.13779436 0.118939236 0.14565702 -0.011683743 0.20369655
-0.14317602 -0.22602509 0.19577312 -0.047604807 -0.123121 0.0059559923 0.034559194 -0.03364317
0.18175937 -0.25741613 -0.109438255 -0.03519657 0.11107804 0.04200104 0.12009755 -0.26525941
0.26148143 0.015699042 0.28043404 -0.07061552 0.11820108 -0.21502638 -0.14942688 0.024657212
-0.02756599 0.10777116 0.1383975 0.2160971 0.10028463 -0.17877589 0.015699169 0.02941555
0.06856179 -0.07791219 0.012981012 -0.12332269 -0.0995435 -0.021007197 0.1476991 0.13544789
0.011815416 0.04377723 0.0112271 0.101428784 0.06282589 -0.037195664 0.05304521 0.05954275
0.37444046 -0.18586367 -0.00792134 0.15231496 0.2853141 0.3618319 0.0049889255 -0.21632938
0.022835683 -0.13963611 -0.08847676 0.112921976 -0.08816249 -0.0573754 -0.09813805 -0.13874872
-0.10740958 -0.084270455 -0.054936174 0.39624733 -0.22193255 0.2552381 -0.16171414 -0.018490393
-0.10997563 0.18004489 0.10361908 -0.080865145 0.10545469 -0.17469257 0.043395877 -0.15674931
-0.0928569 0.08839866 -0.23196787 0.081839725 0.050306637 0.24751991 0.049084697 -0.033393428
0.010699221 0.005640205 -0.038594134 -0.1674551 -0.01650059 0.055964317 0.068742506 0.33476794
-0.006174302 0.07904378 0.001570641 0.025358235 0.18870096 -0.017882612 -0.28000322 -0.12454211
-0.021425903 0.06380086 -0.066930465 0.03952677 0.06460122 0.03791033 -0.04378529 0.1606192
-0.07711597 -0.062611856 -0.010828086 -0.04216809 0.08228222 -0.13976257 0.025126182 0.1177986
0.116775535 0.060137387 0.11944406 0.0051496965 -0.16320114 -0.074897036 0.10479982 0.10487623
00000000: afa6 bd3b 4321 653e 79d1 0fbe bc86 923e
00000010: 0df8 fcbd a9c7 6a3b f055 2cbe 6840 9ebc
00000020: 758b 76be 1e0e 86bd afda 59bd 1529 c03d
00000030: 9080 80be 88bd 29be c6e4 d23d 0e19 123d
00000040: 9d7a 523e bbd6 31bc 0b6f a3bd 5a49 593d
00000050: cb3e 83be 7e0e 373d 4185 6dbd 523e 05bd
00000060: e133 093e 5e59 6c3d 67ee 3f3b 866d 41bd
00000070: 75a6 7cbe 8fbe 97be fbba 923d 53b9 6bbd
00000080: 11a3 df3b 4e22 88bd f993 52be 878e 713d
00000090: 696b 0bbe 1903 5fbe 51e3 7bbe 2749 49bc
000000a0: dd60 673c 8657 d13d 28fc 91bd 2ed9 2fbc
000000b0: b60f a03e 220f 9a3c 5b88 5b3d 8914 743d
000000c0: 23e2 c3bd d7f0 14be 4201 463d ae1b 7c3e
000000d0: 637f bc3d 6fd8 943e f7f0 9bbe 7bd9 5a3e
000000e0: dd4e 423e 9ada 1bbe a69e 243e 5f30 c5bc
000000f0: feea f3bd 9dce e83a ed2a 683d e871 143e
00000100: d022 a7bd 5b49 863d 7849 abbd 7ffe 73bd
00000110: f16b f13d c001 a4bd a902 2e3d d181 e03c
00000120: c607 2cbc 9277 5f3e e2d4 91bd ca51 113b
00000130: 3bd9 ffbb b0be 24be adc6 fd3d 936a a43d
00000140: de3d ff3b d4ed e8bd 5d58 2cbd ca36 c03c
00000150: a75a 023d 93ff cd3c 626e 32bc c875 3abd
00000160: 0a4c c4bd 5cac 1dbc ec5b fbbd c195 6bbd
00000170: df82 0e3d f091 483e 1013 523d 5c53 0a3d
00000180: 39ac ae3d 0828 8c3d 75dc 0ebe c06e 08be
00000190: afe0 acbd cc5a 99bd c7b9 15be 5fa7 123e
000001a0: d0c2 7cbe 5302 2b3e 906d 3fbe 0098 0fbd
000001b0: bac7 19be 082f 5ebd 20c5 29be 5e24 223d
000001c0: 3721 84be 6829 123e e7c9 223d a1c0 a93d
000001d0: 764a eebc 987a 9dbd 4736 6ebe 5249 e53b
000001e0: 255c 92bd 92f5 f8bc dbde d0bd f719 0dbe
000001f0: 6a96 f33d 1d27 153e 2c6d 3fbc d495 503e
00000200: bc9c 12be 1f73 67be c078 483e 42fd 42bd
00000210: dd26 fcbd 7c2a c33b f18d 0d3d 6ccd 09bd
00000220: 211f 3a3e 0ccc 83be 2a21 e0bd 472a 10bd
00000230: e27c e33d 4809 2c3d b4f5 f53d 15d0 87be
00000240: e5e0 853e 479b 803c 0d95 8f3e df9e 90bd
00000250: 6813 f23d e02f 5cbe 5c03 19be ecfd c93c
00000260: 12d2 e1bc 20b7 dc3d 13b8 0d3e 8f48 5d3e
00000270: 0762 cd3d 0711 37be 8b9b 803c e1f8 f03c
00000280: 206a 8c3d 6d90 9fbd 50ae 543c 9b90 fcbd
00000290: 76dd cbbd 4917 acbc 6f3e 173e dab2 0a3e
000002a0: 7295 413c c14f 333d dff1 373c e5b9 cf3d
000002b0: dcaa 803d 7b5a 18bd ef45 593d 19e3 733d
000002c0: a9b6 bf3e 0c53 3ebe 82c8 01bc 74f8 1b3e
000002d0: b114 923e 0842 b93e 247a a33b 7385 5dbe
000002e0: e611 bb3c c5fc 0ebe 4e33 b5bd a343 e73d
000002f0: 898e b4bd 7802 6bbd 9afc c8bd 2514 0ebe
00000300: 8ef9 dbbd fd95 acbd c104 61bd eee0 ca3e
00000310: 4942 63be 91ae 823e 6498 25be 2a79 97bc
00000320: e73a e1bd b05d 383e 3d36 d43d a09c a5bd
00000330: a1f8 d73d 9ce2 32be e0bf 313d e482 20be
00000340: c22b bebd 5b0a b53d fc88 6dbe 969b a73d
00000350: 550e 4e3d dc75 7d3e 090d 493d 8cc7 08bd
00000360: c94b 2f3c 78d1 b83b e214 1ebd 5a79 2bbe
00000370: 3f2c 87bc d73a 653d dfc8 8c3d b466 ab3e
00000380: cd51 cabb b5e1 a13d f7dd cd3a 13bc cf3c
00000390: d33a 413e 8e7e 92bc 955c 8fbe ef0f ffbd
000003a0: 6085 afbc 06aa 823d d712 89bd d3e6 213d
000003b0: a54d 843d dd47 1b3d 3458 33bd 5c79 243e
000003c0: faee 9dbd a53a 80bd 4968 31bc 72b8 2cbd
000003d0: 9583 a83d eb1d 0fbe 6cd5 cd3c 6440 f13d
000003e0: 0328 ef3d 9f52 763d 169f f43d c9be a83b
000003f0: 331e 27be 9e63 99bd 4aa1 d63d 59c9 d63d

onnx::Conv_134 f4 [64]
1.161423 0.947902 0.75077325 2.2142549 -0.65024185 -1.1418462 2.2825668 0.08476406
1.1463257 1.1591194 -0.54903746 -0.42134187 0.61584395 0.24362776 0.93975794 -0.729338
0.66757464 1.2473317 -0.0028287526 0.3143981 0.3174223 0.8107282 -0.45737976 0.48831296
-0.57840514 0.55537593 0.17998174 0.5984207 1.0597817 0.47039193 0.5012401 0.6506066
1.5940353 -0.027443293 1.5103506 -0.51502115 0.7370434 0.18253973 -0.29139 -0.151755
0.16994637 -0.74799454 -0.07919511 -0.54068506 -0.07909703 1.1015437 -0.37562484 0.037513655
0.19020534 -0.31541848 1.4875051 0.7880161 0.5630263 0.5577525 0.055440575 1.1162382
0.11547981 0.35011303 0.89877397 -0.69471043 -0.06540346 1.3008012 0.15495484 0.6278251
00000000: 82a9 943f b5a9 723f ad32 403f 5ab6 0d40
00000010: 4076 26bf 0428 92bf 9315 1240 c898 ad3d
00000020: cdba 923f 065e 943f b88d 0cbf 1fba d7be
00000030: f3a7 1d3f 8e79 793e fa93 703f e5b5 3abf
00000040: 2ce6 2a3f 91a8 9f3f 9862 39bb caf8 a03e
00000050: 2d85 a23e e28b 4f3f ae2d eabe 2804 fa3e
00000060: 5c12 14bf 1e2d 0e3f 224d 383e 1932 193f
00000070: eda6 873f 36d7 f03e 4551 003f 278e 263f
00000080: 5909 cc3f c2d0 e0bc 2b53 c13f 6dd8 03bf
00000090: e0ae 3c3f b2eb 3a3e 1231 95be aa65 1bbe
000000a0: 6c06 2e3e 927c 3fbf 0c31 a2bd 566a 0abf
000000b0: a0fd a1bd 62ff 8c3f e651 c0be eba7 193d
000000c0: 30c5 423e 887e a1be 9166 be3f 6cbb 493f
000000d0: 7e22 103f dec8 0e3f a815 633d e5e0 8e3f
000000e0: ae80 ec3d 0442 b33e 0d16 663f 8bd8 31bf
000000f0: 40f2 85bd a780 a63f 7bac 1e3e 25b9 203f

onnx::Conv_136 f4 [64, 1, 1, 1]
-0.45365372 -0.6876556 0.78125477 -0.5715362 -0.53588057 -0.8664537 0.09945666 -0.815826
0.7215573 0.64249086 0.5021425 -0.88145363 -0.75136936 -0.696122 0.46471432 0.8316557
0.7852584 -0.48479056 1.4034457 -0.6827853 -0.41589054 -0.2787632 -0.7212653 0.3803131
0.70327055 0.68058383 -0.6946558 -0.86953974 -0.22665425 0.61020833 -0.57480353 0.70882016
-0.34475896 0.61439246 0.7361406 0.605144 0.59480864 -0.6407233 0.63678914 -0.6291762
-0.7907931 0.34402412 0.0031794903 0.4509809 1.0602243 -0.91382813 -1.2370577 1.0999165
0.6926846 -0.0069751465 -0.2883015 -0.13202791 0.21186247 -0.60650307 -0.36486706 -0.19031253
-0.27501264 0.22126451 -0.23865367 -0.56731623 -0.40250993 0.5990719 -0.67638004 -0.7891712
00000000: 4d45 e8be 330a 30bf 5000 483f 3250 12bf
00000010: 782f 09bf e9cf 5dbf efaf cb3d f9d9 50bf
00000020: fbb7 383f 487a 243f 698c 003f f2a6 61bf
00000030: be59 40bf 0d35 32bf 09ef ed3e 63e7 543f
00000040: b206 493f 7836 f8be 1ca4 b33f 04cb 2ebf
00000050: 9bef d4be 0dba 8ebe d8a4 38bf 66b8 c23e
00000060: 8a09 343f be3a 2e3f f6d4 31bf 289a 5ebf
00000070: 0d18 68be 9d36 1c3f 5326 13bf 3d75 353f
00000080: 3f84 b0be d348 1d3f b673 3c3f b8ea 1a3f
00000090: 6145 183f 7106 24bf 9d04 233f b111 21bf
000000a0: 6b71 4abf ee23 b03e ff5e 503b f8e6 e63e
000000b0: 6eb5 873f a4f0 69bf e857 9ebf 10ca 8c3f
000000c0: c753 313f c58f e4bb 419c 93be 5332 07be
000000d0: 7af2 583e c943 1bbf dbcf babe 4ae1 42be
000000e0: 75ce 8cbe 2a93 623e a161 74be a33b 11bf
000000f0: c815 cebe c75c 193f 3e27 2dbf 2007 4abf

onnx::Conv_137 f4 [64]
0.4855191 1.3238369 -1.8205482 0.9342309 1.4495335 0.88996893 0.538991 0.6119897
-1.281313 -1.1246331 -0.66061985 1.3614177 0.9131304 0.76928496 -0.52853215 -1.4201145
-1.5393717 1.8769567 -0.6262801 0.59755635 0.90147126 -0.18527997 0.98118305 -0.7083721
-0.6045805 -0.95592886 0.7877564 1.8024716 0.48197955 -0.5497403 1.0152711 -1.3837302
1.1267508 -0.7654757 -1.3666441 -0.58259845 -0.925267 0.30319977 -0.29584882 1.1042778
1.068904 -0.67752993 -0.0380442 -0.5390294 -0.7363111 0.5831501 1.5881127 -0.8742994
-1.0868086 -0.11973141 1.0188053 -0.052194104 0.000428617 0.66851014 0.205347 1.1153129
0.392837 0.06089154 -0.27538142 0.9907622 0.4668529 -0.90961665 0.5233825 0.9003264
00000000: f695 f83e 7d73 a93f b907 e9bf c229 6f3f
00000010: 508a b93f 01d5 633f 50fb 093f 5bab 1c3f
00000020: 1002 a4bf faf3 8fbf 621e 29bf ef42 ae3f
00000030: eac2 693f dcef 443f e24d 07bf 50c6 b5bf
00000040: 220a c5bf 1e40 f03f e553 20bf 74f9 183f
00000050: d2c6 663f 08ba 3dbe d02e 7b3f e057 35bf
00000060: cac5 1abf c1b7 74bf 67aa 493f 64b7 e63f
00000070: 06c6 f63e c8bb 0cbf 67f4 813f 121e b1bf
00000080: 5f39 903f 37f6 43bf 32ee aebf 2c25 15bf
00000090: 4cde 6cbf 003d 9b3e 7f79 97be fa58 8d3f
000000a0: d9d1 883f 9a72 2dbf 3cd4 1bbd d5fd 09bf
000000b0: e27e 3cbf 5349 153f 4747 cb3f 16d2 5fbf
000000c0: 8b1c 8bbf be35 f5bd 3668 823f 7cc9 55bd
000000d0: 00b8 e039 7b23 2b3f 7c46 523e 93c2 8e3f
000000e0: ee21 c93e 6869 793d cbfe 8cbe 97a2 7d3f
000000f0: 5807 ef3e a3dc 68bf 65fc 053f ca7b 663f

onnx::Conv_139 f4 [64, 1, 1, 1]
-1.6039397 -1.2933236 -1.3672099 -1.0849751 -2.0726545 -2.1015332 -1.6088301 0.42896575
-0.8601488 0.10285807 0.3745137 -1.9066454 0.3818801 -0.10745414 0.6129139 0.06723255
-1.5772779 -1.7977791 -1.2851292 -0.074819155 -1.5316375 -2.7207172 0.41135588 -1.0675088
-1.1706662 -1.6112581 -1.414871 -1.2419964 -2.0601714 -3.3539567 -0.022555934 -1.0877624
0.22673662 -0.9857104 -0.09962775 0.48030782 -0.059240222 -0.6798341 -1.5004226 -1.061975
-2.642201 -1.0383792 -1.7276512 -1.118494 -1.227557 0.1612409 -0.07937469 0.41014373
-2.946334 -1.2369405 0.98334324 -1.2708784 -2.1887548 -1.8217316 -0.90245616 -1.9273195
-1.2352884 0.3190194 0.31698385 -1.5588223 -2.2113156 0.37936765 0.4613491 -4.4568353
00000000: e54d cdbf a18b a5bf bc00 afbf 77e0 8abf
00000010: 5fa6 04c0 857f 06c0 25ee cdbf 66a1 db3e
00000020: b632 5cbf 40a7 d23d 42c0 bf3e f50c f4bf
00000030: ca85 c33e eb10 dcbd ede7 1c3f 38b1 893d
00000040: 3ee4 c9bf a01d e6bf 1d7f a4bf c93a 99bd
00000050: b30c c4bf 3b20 2ec0 3d9d d23e 21a4 88bf
00000060: 64d8 95bf b53d cebf 7e1a b5bf bdf9 9ebf
00000070: d9d9 03c0 3aa7 56c0 39c7 b8bc cc3b 8bbf
00000080: a52d 683e 8457 7cbf a209 ccbd e8ea f53e
00000090: e0a5 72bd 9c09 2ebf d90d c0bf ccee 87bf
000000a0: d219 29c0 9ce9 84bf ad23 ddbf d02a 8fbf
000000b0: 9620 9dbf 561c 253e 338f a2bd 5cfe d13e
000000c0: bc90 3cc0 1154 9ebf 62bc 7b3f 25ac a2bf
000000d0: 8f14 0cc0 802e e9bf 5e07 67bf 68b2 f6bf
000000e0: ee1d 9ebf 8356 a33e b54b a23e 7d87 c7bf
000000f0: 3286 0dc0 7a3c c23e f335 ec3e 659e 8ec0

onnx::Conv_140 f4 [64]
1.4916286 1.0567864 0.7547341 0.5437851 1.5746571 0.95961285 2.064384 -0.044157922
0.89756614 -0.060168438 -0.32525933 1.4959449 -0.5663962 -0.0137348175 -1.0489813 -0.43341616
1.2277249 1.7788243 1.0642668 -0.08167598 0.7508323 1.9267213 -0.21946616 0.57893294
0.74095935 1.3230237 1.1962291 1.5864775 1.5861647 3.4139109 -0.04572399 0.6954684
-0.12557304 0.90716845 -0.23081432 -1.0001259 -0.08479223 0.41805512 1.0938177 1.2314893
2.649638 0.49421424 0.8993549 0.8644049 0.928393 -0.06438623 -0.040697552 -1.2197084
0.89669776 0.6544499 -1.2748525 0.80321777 1.6375021 0.84341234 0.52863955 2.2161818
0.7111256 -0.72344947 -0.21325605 1.1700443 1.5399882 -0.3490271 -0.38037196 4.388894
00000000: b0ed be3f c744 873f 4136 413f 8035 0b3f
00000010: 5d8e c93f 30a9 753f de1e 0440 f0de 34bd
00000020: e5c6 653f 2e73 76bd 6488 a6be 1f7b bf3f
00000030: 57ff 10bf 0008 61bc 0545 86bf b9e8 ddbe
00000040: 1726 9d3f 84b0 e33f e539 883f bc45 a7bd
00000050: 8c36 403f ce9e f63f bdbb 60be f334 143f
00000060: 83af 3d3f d758 a93f 091e 993f b211 cb3f
00000070: 7207 cb3f 847d 5a40 1449 3bbd 380a 323f
00000080: 3896 00be 313c 683f 975a 6cbe 2004 80bf
00000090: 8ca7 adbd 520b d63e 3802 8c3f 71a1 9d3f
000000a0: ab93 2940 a609 fd3e 1f3c 663f a449 5d3f
000000b0: 2aab 6d3f eedc 83bd 7ab2 26bd 681f 9cbf
000000c0: fc8d 653f 078a 273f 5e2e a3bf ae9f 4d3f
000000d0: ab99 d13f dfe9 573f ec54 073f ecd5 0d40
000000e0: 540c 363f fc33 39bf cb5f 5abe 03c4 953f
000000f0: 551e c53f aeb3 b2be 1dc0 c2be d271 8c40

onnx::Conv_142 f4 [64, 1, 3, 3]
-0.053185996 0.11289682 0.4930548 -0.24372332 0.095546305 0.008187991 -0.46284333 0.38591507
0.26632252 -0.15689947 0.3245523 -0.07864752 0.09205926 0.42494464 -0.1925588 0.16985318
0.45636174 -0.22841902 -0.28586224 -0.96482885 -0.46143016 -0.08410052 -0.5227537 0.4052647
0.90718216 -0.5354595 -0.8457866 0.15826797 0.31365672 0.20792818 -0.007181987 -0.26845694
0.007947229 -0.050017636 -0.024496546 0.19069578 -0.15731326 0.102395095 0.47015628 0.6857039
0.21795392 0.3259619 0.954446 0.12856916 0.5684575 -1.1428357 0.42471078 -0.070074454
-1.138472 0.30045733 -0.021690998 0.008362901 -0.87831193 0.27946514 -0.3301951 -0.7632115
-0.12852862 -0.33976194 0.48123047 0.48130596 0.42495623 0.60961616 -0.0077457316 -0.19470838
-0.7954008 -0.111511886 0.5942935 0.26168346 0.19690531 -0.007417068 0.23730351 0.17183429
0.38533464 -0.06307803 0.11979118 0.6228366 0.013036513 0.70739806 -0.787771 -0.65408593
-0.5816099 0.3503382 -0.012989319 0.493295 -0.20690624 -0.4602844 -0.050320152 -0.36143702
-0.21739447 0.6090433 -0.17567573 0.016630163 0.623726 -0.15851462 -0.14366867 0.18978444
0.6433261 0.5981794 -0.13151774 -0.18983306 -0.101870194 -0.15190385 0.49914944 0.20898223
-0.41846687 0.12649937 -0.08214446 -0.48153397 -0.3595372 -0.47606137 -0.86602604 -0.06135259
-0.3188389 0.26928362 -0.19858451 -1.1599468 -1.3775493 0.25732446 0.2842806 -0.28708968
-0.24498005 -0.0032622563 -0.8386816 -0.5304829 -0.038813315 -0.39502728 -0.70950836 -0.2509739
-0.11661708 0.031838764 0.27702615 0.14058706 -0.0694198 0.54166055 0.25025347 -0.0772887
0.32930645 -0.17281559 0.051657267 0.29638585 0.56825185 0.5862653 -0.2737792 -0.08600475
0.32766917 -0.06462415 0.002190409 0.568134 -0.02819346 0.31831762 -0.44647473 -0.24259141
-0.02022046 0.054480977 0.07403452 0.14776243 -0.38026524 0.6235558 0.19597334 -0.053414073
0.31962055 0.3917599 0.43541926 0.57655704 0.41942078 -0.24821116 -0.19265352 -0.7391734
-0.14184225 -0.8127209 -0.33914557 -0.52154166 -1.0952959 -0.6028409 -0.17825156 0.5933902
-0.17444324 -0.79837286 0.55405086 -0.46875852 -1.770155 -0.8954421 -0.92502445 -0.78447723
0.1115357 0.38677186 1.5549321 -0.2528457 0.8364501 0.44988474 0.27014136 0.5535454
0.18240388 0.10722243 0.36095023 0.35629803 -0.34661445 0.6152458 0.2806036 0.41718128
-0.16932294 0.1135687 0.50548476 -0.5488975 -0.661879 -0.9111319 -0.24073781 -0.30903602
-0.028017081 0.19641833 0.032480765 0.07323498 0.61716485 0.53326434 0.35066053 0.20326349
0.17124027 -0.10914129 0.020890947 -0.33121338 0.29737332 0.10874352 0.24179551 -0.13742943
-0.27565855 0.08601347 0.36182377 -0.45655733 -0.1349791 -0.0664885 -0.5916071 -0.4362418
-0.77013135 -0.072416335 0.30424568 0.02294188 0.20560956 0.15695886 0.0770845 0.2809985
0.20598947 -0.09971391 -0.4665799 0.6455753 -0.50496083 -0.44936034 -0.090791866 -0.20900781
0.6183421 -0.1304723 -0.34467307 0.38287124 0.44726562 0.3363938 0.33605635 0.4234867
00000000: 8fd9 59bd 7336 e73d ae71 fc3e 9b92 79be
00000010: c8ad c33d ec26 063c cdf9 ecbe a996 c53e
00000020: 6d5b 883e 41aa 20be b82b a63e f311 a1bd
00000030: 9189 bc3d 5892 d93e 222e 45be feed 2d3e
00000040: 3fa8 e93e ade6 69be 895c 92be 06ff 76bf
00000050: 9340 ecbe e53c acbd 30d3 05bf db7e cf3e
00000060: 173d 683f e013 09bf 7885 58bf 0011 223e
00000070: 9d97 a03e 20eb 543e e056 ebbb 3073 89be
00000080: 1835 023c 4bdf 4cbd fbac c8bc c145 433e
00000090: ba16 21be 85b4 d13d 53b8 f03e 4a8a 2f3f
000000a0: 502f 5f3e 7ae4 a63e 9356 743f a2a7 033e
000000b0: 6e86 113f 7148 92bf b173 d93e 3283 8fbd
000000c0: 73b9 91bf 8bd5 993e 52b1 b1bc 8d04 093c
000000d0: 0dd9 60bf 0e16 8f3e 550f a9be d461 43bf
000000e0: 029d 03be 47f5 adbe d763 f63e bc6d f63e
000000f0: dd93 d93e ce0f 1c3f e8cf fdbb a261 47be
00000100: 639f 4bbf 5860 e4bd 9e23 183f 60fb 853e
00000110: 8ca1 493e e00a f3bb b1ff 723e 54f5 2f3e
00000120: 954a c53e 0e2f 81bd 1455 f53d 3872 1f3f
00000130: 1997 553c 0a18 353f 5cab 49bf 2d72 27bf
00000140: 63e4 14bf 875f b33e 27d1 54bc 2a91 fc3e
00000150: 3bdf 53be 66aa ebbe 811c 4ebd 460e b9be
00000160: a89c 5ebe 43ea 1b3f 57e4 33be fb3b 883c
00000170: 82ac 1f3f a851 22be e11d 13be da56 423e
00000180: 05b1 243f 4922 193f 96ac 06be 9963 42be
00000190: 52a1 d0bd af8c 1bbe 8490 ff3e 70ff 553e
000001a0: 4a41 d6be 0d89 013e 5b3b a8bd 9f8b f6be
000001b0: 4315 b8be 51be f3be e2b3 5dbf da4c 7bbd
000001c0: da3e a3be 8bdf 893e bd59 4bbe 2379 94bf
000001d0: 8953 b0bf 08c0 833e 3a8d 913e 6bfd 92be
000001e0: 0ddc 7abe 94cb 55bb d6b3 56bf bacd 07bf
000001f0: b6fa 1ebd 0441 cabe 57a2 35bf a77f 80be
00000200: f0d4 eebd 5d69 023d 5fd6 8d3e 0ef6 0f3e
00000210: f82b 8ebd 44aa 0a3f 3921 803e 8a49 9ebd
00000220: db9a a83e 92f6 30be 9296 533d e3bf 973e
00000230: f478 113f 7c15 163f ca2c 8cbe 4223 b0bd
00000240: 41c4 a73e ab59 84bd f78c 0f3b 3b71 113f
00000250: f9f5 e6bc 87fa a23e 5698 e4be e269 78be
00000260: 61a5 a5bc 7227 5f3d 699f 973d 094f 173e
00000270: 20b2 c2be 5aa1 1f3f 3cad 483e b7c8 5abd
00000280: 4ea5 a33e c194 c83e 46ef de3e 3e99 133f
00000290: 52be d63e 112b 7ebe f746 45be 783a 3dbf
000002a0: 183f 11be 7a0e 50bf 7da4 adbe c183 05bf
000002b0: a832 8cbf c853 1abf 9487 36be 6ce8 173f
000002c0: 40a1 32be 2a62 4cbf 47d6 0d3f 1e01 f0be
000002d0: 7094 e2bf b23b 65bf 67ce 6cbf 80d3 48bf
000002e0: d46c e43d f606 c63e 0408 c73f fe74 81be
000002f0: 9821 563f 4b57 e63e f84f 8a3e 27b5 0d3f
00000300: 15c8 3a3e 6f97 db3d 78ce b83e b26c b63e
00000310: 7377 b1be c080 1d3f 46ab 8f3e c998 d53e
00000320: fe62 2dbe b596 e83d 7367 013f 8c84 0cbf
00000330: e770 29bf f13f 69bf f983 76be f839 9ebe
00000340: 1484 e5bc e321 493e 8d0a 053d 39fc 953d
00000350: 84fe 1d3f 0384 083f c789 b33e 4e24 503e
00000360: 9c59 2f3e 7885 dfbd 7e23 ab3c cd94 a9be
00000370: 5141 983e ecb4 de3d 3e99 773e 4dba 0cbe
00000380: 1e23 8dbe d527 b03d f740 b93e e2c1 e9be
00000390: f637 0abe 1f2b 88bd 9073 17bf 165b dfbe
000003a0: 5427 45bf 044f 94bd 17c6 9b3e 9cf0 bb3c
000003b0: 508b 523e d3b9 203e 7ade 9d3d 09df 8f3e
000003c0: e7ee 523e ce36 ccbd 90e3 eebe 6c44 253f
000003d0: 1d45 01bf 8f12 e6be 16f1 b9bd 2506 56be
000003e0: ab4b 1e3f 889a 05be fd78 b0be b307 c43e
000003f0: 0000 e53e cf3b ac3e 940f ac3e 40d3 d83e

onnx::Conv_143 f4 [64]
-0.3438582 -0.6541453 1.5937957 -0.25604966 -3.3090556 0.85946214 -0.3552606 -0.25278002
-0.027831592 -0.11894056 -1.160804 0.4665932 2.740168 1.2902576 -0.21962744 -1.1685041
-0.2428717 -2.1839404 0.9753078 0.89117646 0.33998376 -1.3241458 0.48489788 -1.2009866
0.17941388 1.6291115 -0.44943783 0.24822143 -0.8529285 2.5617917 0.08782658 -0.17312264
-0.66342354 -0.9597167 1.8392202 1.5111651 0.43830103 0.20240223 0.6188929 0.6633017
-1.6334107 -0.4797623 -0.27495256 0.7706995 0.8157234 0.60043323 1.146937 -1.1011722
-1.0571826 -0.30851495 0.6788913 0.48930064 -1.8370802 -0.18294126 -0.7692428 0.6163754
0.115736246 -0.8673758 -0.5924777 0.5267231 1.5244666 0.88463813 -2.194757 -1.0345918
00000000: 2f0e b0be 1176 27bf 7f01 cc3f f118 83be
00000010: 91c7 53c0 b605 5c3f b8e4 b5be 626c 81be
00000020: 14ff e3bc 1c97 f3bd 3a95 94bf 4ee5 ee3e
00000030: ea5e 2f40 2927 a53f 04e6 60be 8b91 95bf
00000040: 5cb3 78be aec5 0bc0 c6ad 793f 2424 643f
00000050: 5a12 ae3e 9c7d a9bf 8944 f83e eeb9 99bf
00000060: 46b8 373e ba86 d03f b71c e6be c22d 7e3e
00000070: 8659 5abf 65f4 2340 6cde b33d 1047 31be
00000080: 20d6 29bf feaf 75bf 916b eb3f dc6d c13f
00000090: fe68 e03e 8842 4f3e c46f 1e3f 24ce 293f
000000a0: 9a13 d1bf 67a3 f5be 95c6 8cbe 904c 453f
000000b0: 40d3 503f feb5 193f d5ce 923f 36f3 8cbf
000000c0: c251 87bf acf5 9dbe d2cb 2d3f 9d85 fa3e
000000d0: 7225 ebbf f454 3bbe 19ed 44bf c7ca 1d3f
000000e0: 2007 ed3d 570c 5ebf 9eac 17bf 53d7 063f
000000f0: b921 c33f a577 623f e676 0cc0 816d 84bf
