onnx_model/2023_3_14_hj_num_1.onnx (onnx, 126085 bytes, 26 tensors)

block_neck1.block_neck.1.weight f4 [1, 1, 3, 3]
000000 9e 73 d4 be f7 46 a5 be 92 2e c4 be 35 20 01 bd
       -0.4149446 -0.32280704 -0.3831678 -0.031524856
000010 9b e7 bc 3d 01 7f 43 be 15 16 8b 3e c0 25 3d 3e
       0.09223863 -0.19091417 0.27165285 0.18471432
000020 96 6c 3c 3e
       0.18400797

block_neck2.block_neck.0.weight f4 [16, 1, 1, 1]
000000 94 09 d0 be f0 61 42 3f e0 57 33 3f b9 e4 93 be
       -0.40632308 0.7593069 0.7005596 -0.2888544
000010 be 52 cf 3e 4c b9 d7 be 0b 96 eb be 84 84 9c 3e
       0.40492815 -0.42133558 -0.4601291 0.3056985
000020 c6 8f 48 3f a3 0f 95 be d5 45 e6 3e c7 e9 27 3f
       0.7834438 -0.29113492 0.44975153 0.6559109
000030 34 08 d5 be 13 1f 35 3f 83 df 74 3e c1 c7 21 bf
       -0.4160782 0.7075054 0.23913388 -0.63195425

block_neck2.block_neck.1.weight f4 [16, 1, 3, 3]
000000 ad 8c b5 be 2e d6 a6 be 2c d6 b6 3e 5d 37 19 be
       -0.3545889 -0.3258528 0.35710275 -0.14962526
000010 b6 cd 57 3e f6 03 df bb 3a 89 12 3e a1 85 43 3e
       0.21074566 -0.006805892 0.1431016 0.19093944
000020 11 e6 b8 3d a9 21 1e bc 18 20 c0 bc 20 8d c2 3d
       0.09028257 -0.00965158 -0.023452803 0.09499574
000030 6c bd dd bd 14 35 c5 bd 07 5a b6 bd 04 0e 0f bf
       -0.10827145 -0.096292645 -0.0890389 -0.5588076
000040 f1 7e 8e bd e3 54 84 3e d0 dd d9 3d 68 da f5 3c
       -0.06957806 0.25846013 0.106380105 0.03001137
000050 d2 3f 75 be 92 00 82 bd 31 8e e0 be e5 6f 45 3e
       -0.23950127 -0.06347765 -0.43858483 0.19280966
000060 09 ad 91 3e f7 3b 9d be 61 98 7f be 1d 3e bb be
       0.28452328 -0.30709812 -0.24960472 -0.36570826
000070 29 35 e5 3e d7 5f e5 3e 72 0e b3 be ae cb 88 bd
       0.4476712 0.44799682 -0.34971958 -0.06679474
000080 e9 ea 25 bd c2 56 ec bc 6a 44 99 be 92 75 1b 3e
       -0.04050723 -0.028849963 -0.29935008 0.15181568
000090 9c 99 f1 bd 2a a3 9b be 7e db 84 be d5 9a c9 be
       -0.11796877 -0.30397922 -0.2594871 -0.3937594
0000a0 50 ba db be 48 f9 dc bd ae b4 9b bd be 5f 84 3c
       -0.42915583 -0.10789734 -0.07602821 0.016158935
0000b0 74 2e ce 3e 7b 9d ef bd f1 f8 98 3d 7c 57 6a 3e
       0.40269816 -0.11699959 0.07469357 0.22884935
0000c0 ce fc e8 3d 2d 56 39 3e dc ae 7b be eb 2c 1f bf
       0.11376344 0.1809928 -0.24578422 -0.62177914
0000d0 df a0 96 be f9 e2 99 3e 2a 0c 7e be 48 74 c8 3e
       -0.2941961 0.3005598 -0.24809328 0.39151216
0000e0 24 bf 9d be e7 63 40 3d c3 a3 05 be 1c b9 00 3f
       -0.3080989 0.046970274 -0.13050751 0.50282454
0000f0 5f 4f e3 3d 58 f9 28 be ec 22 d8 3d bc 8d 2c be
       0.11099123 -0.16501367 0.10553536 -0.16850942
000100 56 bc 61 3e 7d 7a 7e 3e ff 46 0d bf 92 fe 3f 3e
       0.220445 0.24851413 -0.55186456 0.18749455
000110 e4 b3 e5 be ef 82 34 be 32 31 32 3e 4f c8 8e b9
       -0.44863808 -0.17628072 0.17401579 -0.00027233592
000120 d9 12 ed be 9c 89 22 bd c5 9f 57 3d 73 3e 39 bd
       -0.46303442 -0.039682016 0.052642602 -0.04522557
000130 ce 75 a2 3e fc 4b 1a be 32 2b a3 3e 2d 6c 1e 3d
       0.31730503 -0.15068048 0.31868893 0.038677383
000140 eb 58 94 3e 88 07 74 3d d9 b3 b9 3d b4 35 59 3e
       0.2897409 0.059577495 0.09067506 0.21211892
000150 24 4e bd 3e a9 73 df bd 94 86 de be bf 51 22 3e
       0.3697368 -0.10910732 -0.4346205 0.15851496
000160 ca 94 d6 3c b3 7b 12 3c 03 02 39 be 07 f6 5c be
       0.026193995 0.008940625 -0.18067174 -0.21578227
000170 a5 07 2e bd 22 68 7f bd 4c c6 8f 3e 62 25 ab 3e
       -0.04248776 -0.06235517 0.28080976 0.33426958
000180 de 85 03 be 73 8e 41 be fe e6 47 be a6 7b 31 be
       -0.12844035 -0.18901996 -0.1952171 -0.17332324
000190 13 8a 4f 3e 4b ed b4 3e 16 58 14 be d8 4d 41 3e
       0.20267515 0.3533729 -0.14486727 0.18877351
0001a0 ed 2d 92 be 54 fa 47 3e 89 dc 40 3d ab bc b7 be
       -0.28550664 0.19529086 0.04708532 -0.3588613
0001b0 1f 33 96 bc 03 b8 58 3d 2c 5f a2 3e bc a8 e7 3e
       -0.018334923 0.052909862 0.31713235 0.45245922
0001c0 00 94 db 3d 35 31 dd 3d b5 ed 29 3e 69 f7 05 bf
       0.10721588 0.10800401 0.16594584 -0.5233064
0001d0 71 7f 57 bd 9a 68 9a be fd c6 fe 3d 2c a9 ec 3e
       -0.052611772 -0.3015793 0.12440298 0.46222818
0001e0 a6 0e 79 be 3b d3 0e 3e 0e 6d 24 be 7e 86 98 bd
       -0.24321994 0.13947766 -0.16057226 -0.07447527
0001f0 5f 68 59 3e f3 e9 82 be 84 b9 04 3c eb 57 23 be
       0.2123122 -0.25569114 0.008100871 -0.15951507
000200 95 df ab be d6 fc 92 bc a5 a3 a8 be 26 2b 90 3c
       -0.33569017 -0.017942827 -0.3293735 0.0175987
000210 ff 63 da be 43 a7 ab be 94 8f 0b 3f 8e 89 b9 3e
       -0.42654416 -0.33526048 0.5451596 0.36237758
000220 ed 72 02 3e c6 2e 39 bd 98 65 11 3f f2 22 2a 3e
       0.12739153 -0.045210622 0.56795645 0.16614893
000230 e8 3d ea be 82 d0 4e be 80 38 cc 3e 1d c9 02 3e
       -0.45750356 -0.20196727 0.39886856 0.12772031

block_neck3.block_neck.0.weight f4 [32, 1, 1, 1]
000000 66 20 2a bf af c3 3f bf 52 89 77 be 27 1a d2 be
       -0.66455686 -0.74907964 -0.24173477 -0.41035578
000010 08 a9 5e 3f 8f d5 c2 be 00 db c1 3e 17 b0 e6 be
       0.8697667 -0.38053557 0.37862396 -0.4505622
000020 ee 99 f7 3e f4 3a ca be 6c 65 99 3e b5 2d 0d bf
       0.48359627 -0.39498103 0.2996019 -0.5514787
000030 8b e3 a7 be 7e bc d7 be 06 92 5b 3e 21 c7 3e 3f
       -0.3279079 -0.42135996 0.21442422 0.74522597
000040 4e 21 2a 3f 0a a1 2b 3f 6c 9b 2b bf c6 73 e1 be
       0.6645707 0.670426 -0.6703403 -0.4403364
000050 93 59 c9 be 1c 7c 0b 3f 3d 8c 04 3f 9d 72 bd 3e
       -0.39326152 0.5448625 0.51776487 0.37001505
000060 ec 33 ef be 80 5f a6 be f7 2b 19 3f d5 fc 54 bf
       -0.467193 -0.32494736 0.5983271 -0.8319829
000070 ed 68 c0 3e 51 eb f8 3e 3d 97 0a bf 6d 1d cd 3e
       0.37580052 0.48617032 -0.5413702 0.40061513

block_neck3.block_neck.1.weight f4 [32, 1, 3, 3]
000000 9c 86 a0 3e 52 f2 8f 3e 18 dd 76 3e c4 25 c6 3e
       0.313527 0.28114563 0.24107778 0.38700688
000010 af 5a b8 3e c5 11 35 3e 22 a3 79 3d c2 cf de bc
       0.36006686 0.1768256 0.06094659 -0.027198676
000020 69 bc 8a be 8a a0 3a be 60 bf db bd df aa 64 bd
       -0.2709687 -0.18225303 -0.10729861 -0.055827018
000030 7f 62 3a 3e 21 ed 2c bb f7 0e 0a be d3 a3 dd 3e
       0.18201636 -0.0026386457 -0.13482271 0.4328905
000040 fb ec 2b 3e 7c 10 a3 be c9 0d eb 3e 27 c2 51 3e
       0.1678962 -0.31848514 0.45908955 0.2048422
000050 f3 f8 47 3e 91 77 87 3e b6 8e 62 be b7 20 e4 bd
       0.1952856 0.2645841 -0.22124752 -0.11139052
000060 30 53 30 bd a3 01 6a be 7e 9a fb bc f4 2f b8 be
       -0.043048084 -0.22852187 -0.030713316 -0.35974085
000070 d3 d0 28 be a3 29 8f be f8 fd 42 3e ce 7b 23 3c
       -0.1648591 -0.27961454 0.19042194 0.009978248
000080 6e e8 af be 60 e3 e6 3e 0e 8f 9f 3e c0 8b d6 bd
       -0.34357017 0.45095348 0.3116383 -0.10475874
000090 72 b2 03 bf a4 8b b8 be 6e f8 99 be e6 a7 e0 3c
       -0.5144416 -0.36044037 -0.3007235 0.02742381
0000a0 01 7d 34 3d 81 bf a2 bd 3e 40 c0 3c 90 5f 49 3d
       0.044064526 -0.07946683 0.023468133 0.0491634
0000b0 d3 fe 60 be 9b 39 82 3d 27 98 c8 3d 5b be 17 3c
       -0.21972208 0.063586436 0.09794646 0.009261693
0000c0 c8 55 10 bf e8 65 ac be 1c d3 fe bd f1 e9 61 be
       -0.5638089 -0.33671498 -0.1244261 -0.22061898
0000d0 b6 57 f9 bc 10 c0 a8 3e e2 2e 39 be 42 b4 06 be
       -0.030437332 0.32959032 -0.1808429 -0.131547
0000e0 2b 1d 06 be e1 3e 01 be 8d ed 02 bd 26 fe ef be
       -0.13097064 -0.12621643 -0.031964827 -0.46873587
0000f0 4c 9a f2 3d 7d 9c ac bc 38 dc 24 bf d4 bb 26 be
       0.11845836 -0.021070713 -0.6439853 -0.16282588
000100 ec 3e 92 bd f6 69 38 3c 53 e4 b3 be 2f 3c 01 be
       -0.07140908 0.011255732 -0.35135135 -0.12620614
000110 d2 8b 83 be 0c 5f 1b be 70 4c b4 bd d4 d1 c2 be
       -0.25692612 -0.15172976 -0.08803642 -0.3805071
000120 f7 f0 a7 3e 52 da ef 3e cc 76 fb 3e 4c 56 6e 3d
       0.3280103 0.46846253 0.49114072 0.058187768
000130 72 31 38 3d bc f7 3c 3e d5 c4 8c bd b8 b0 23 be
       0.04496903 0.18453878 -0.0687348 -0.15985382
000140 41 c0 3d 3d 64 1c 31 3d 09 d1 46 3e 35 8e be bc
       0.046325926 0.043239966 0.19415678 -0.023261169
000150 84 c6 a5 3e 5c f6 ed 3e 74 90 73 3e b8 68 9f 3e
       0.32378018 0.4647702 0.23785573 0.31134582
000160 99 37 cc 3e 60 6a 5f 3e 42 3b b2 bd 8f a8 b0 3d
       0.39886168 0.21817923 -0.08702709 0.086259
000170 e4 09 d3 3e a0 87 5c bd 84 ab 4b be a9 68 27 3f
       0.41218483 -0.05384028 -0.19889647 0.65394074
000180 9b df 2a 3e 3a 7c d3 3d 2c c5 e2 3e 98 e3 47 3c
       0.16686861 0.10326429 0.44291055 0.012200259
000190 e6 60 af bd 2e f2 86 bd bd 98 37 bd b9 3e e0 bd
       -0.08563404 -0.06589161 -0.044823397 -0.109494634
0001a0 0f 51 7a 3d 14 99 f8 be b5 c7 a7 be da 10 85 be
       0.06111246 -0.4855429 -0.32769552 -0.2598942
0001b0 47 c6 09 be bf ca c3 be 86 11 87 be ba 0a d3 3c
       -0.13454543 -0.3824062 -0.26380557 0.02576195
0001c0 d4 50 40 bd 9d 34 d1 3e d6 30 91 bd b6 a0 a8 3c
       -0.046952084 0.40860453 -0.07089393 0.020584445
0001d0 1a 09 f1 3e 13 1b ac 3e dc 0e f0 bc 5a e8 92 be
       0.47077256 0.33614406 -0.02930396 -0.28692895
0001e0 ed 67 9d 3e 0c 08 b0 3b 29 12 a0 be 70 0c 91 3d
       0.30743352 0.005372053 -0.31263855 0.070824504
0001f0 e5 87 ca 3d b0 5b 21 3e 52 88 a2 be 0c ba f1 be
       0.09889201 0.15757632 -0.3174463 -0.47212255
000200 3d b8 dc bd 33 5a 50 3e ac 7d c9 3e 7b 73 9c 3e
       -0.10777328 0.20346908 0.39353693 0.30556855
000210 92 36 57 be d2 8f 7c 3d 61 3d ed bc 4c 25 5a be
       -0.2101691 0.061660595 -0.028959932 -0.2130329
000220 ef 9b 7a bd 5d ef 1b be dd 2d 45 be 07 9d a2 be
       -0.061183866 -0.15228029 -0.19255777 -0.31760427
000230 9a e3 83 be 10 d5 29 be 8c 31 4c be 10 f6 c1 be
       -0.25759584 -0.16585183 -0.19940776 -0.37883043
000240 f5 9d 52 3d f4 b4 36 be d1 46 da bd 13 a6 67 3c
       0.05142017 -0.17842466 -0.106580384 0.014138716
000250 d2 82 81 3d 1f cc a2 3e 58 fc be 3e c7 1c 4e 3e
       0.0632378 0.31796357 0.37301898 0.20128165
000260 0e 12 3c 3e da 7e 36 3e ac f5 b2 3e 38 ea 1a 3e
       0.18366262 0.17821828 0.34953058 0.1512841
000270 17 cd 29 bd a2 35 53 3e 83 52 d6 3e 66 f2 6f be
       -0.041455355 0.20625928 0.41859826 -0.23432311
000280 61 17 13 be b4 b9 b1 3e 84 b6 f8 3e 0d 30 38 3e
       -0.14364387 0.34711993 0.48576748 0.1798708
000290 0b e1 77 3d 9a fb 70 3e 34 ff 14 be 67 54 0b bf
       0.060517352 0.23533478 -0.14550477 -0.5442566
0002a0 dc ee da 3d 96 e7 d5 bd 15 1f a9 bd ae c5 fe 3d
       0.1069009 -0.10444562 -0.082578816 0.12440048
0002b0 96 77 fd be e6 77 02 3e 92 f2 7a bd aa ed 21 bf
       -0.495053 0.1274105 -0.06126649 -0.6325327
0002c0 46 3e 49 3d 3b be 20 3d 10 6b 6d be 67 95 28 3e
       0.049131654 0.039243918 -0.23185372 0.16463242
0002d0 2a 6a 96 be 37 d0 4f be ff c2 6a be 9b d7 36 bf
       -0.29377872 -0.20294271 -0.22925948 -0.7142274
0002e0 89 50 a6 be 4f 74 d8 bd 69 09 89 be 00 1b d6 bd
       -0.32483318 -0.10569059 -0.26764992 -0.104543686
0002f0 8c 62 63 3e 5d fa 72 3e 24 52 65 bd b1 6b 3e be
       0.22205561 0.23728319 -0.05598654 -0.18595769
000300 89 35 01 3f 34 5f 72 3d cb 67 52 bd 80 db ec be
       0.50472313 0.059172824 -0.051368516 -0.46261215
000310 d0 b2 d5 be 0b c0 28 be ac af 67 be c4 a7 0e be
       -0.41737986 -0.16479509 -0.22625607 -0.13931185
000320 80 9a 19 3d c0 6d 88 be 4e 53 56 be 04 56 18 3e
       0.03750086 -0.26646233 -0.20930216 0.14876562
000330 d1 30 69 be 87 c9 ba be 19 37 e9 bd 9b 49 43 3e
       -0.22772528 -0.36481878 -0.11387462 0.19071047
000340 7e 1c 53 3d 91 88 0b 3e be e0 bd 3d 8b df 6b be
       0.051540844 0.13626315 0.09271382 -0.23034494
000350 f3 6a bd be ec 2e 7c be ec 26 d7 be 32 b0 03 bf
       -0.36995658 -0.24627274 -0.42021883 -0.5144073
000360 be 41 01 be d4 a5 b2 be 26 5e d2 bd 68 3b bb be
       -0.12622735 -0.34892142 -0.10271864 -0.3656876
000370 b4 79 e2 be 59 78 71 be a8 de 05 bf ab 34 cc be
       -0.44233477 -0.23581065 -0.5229287 -0.39883932
000380 61 80 b5 bd 45 42 7c be b7 65 fe bd a0 06 a0 3d
       -0.08862377 -0.24634655 -0.12421744 0.078137636
000390 db 0a 0f 3f 43 23 d7 3e 45 f4 f6 3e c9 1f 99 3d
       0.5587594 0.4201909 0.48233238 0.07476766
0003a0 69 ea 4b 3e 44 0b a6 bd 5e 48 31 3e b8 38 91 bd
       0.19913639 -0.081076175 0.17312762 -0.07090896
0003b0 fc 5a b8 be dc ac 6f bd a9 f2 92 be 91 0c 09 bf
       -0.36006916 -0.05851446 -0.2870076 -0.535348
0003c0 22 87 e2 be d8 6d 86 be 7d 47 a5 bd 37 c4 58 be
       -0.44243723 -0.2625568 -0.08070276 -0.211686
0003d0 ce 0c c7 bd 69 04 8d 3b 68 0b 4a be 77 cd 54 be
       -0.09719239 0.0043035042 -0.19730914 -0.20781504
0003e0 56 ff 07 be 79 da 79 be c3 58 ac be 55 4b a6 be
       -0.13280997 -0.24399747 -0.3366147 -0.3247935
0003f0 9c 12 17 bf b5 49 d2 be 4f a9 e3 be cc 71 d6 be
       -0.5901277 -0.4107186 -0.4446511 -0.41883695

onnx::Conv_117 f4 [16, 1, 1, 1]
000000 d0 72 84 40 0d 91 52 c0 59 33 2d 40 1f 25 92 40
       4.139015 -3.2901032 2.706259 4.5670314
000010 86 54 03 c0 c7 ef 0b 40 6c 88 1f 40 c2 5d 4c c0
       -2.052034 2.1865098 2.4927015 -3.1932225
000020 3b c2 63 c0 6b 95 3a 40 dc 61 d2 bf e5 f2 1a 40
       -3.55873 2.9153697 -1.6436114 2.421075
000030 4b 0c 2d 40 55 e1 37 c0 23 6d 59 c0 66 e0 65 c0
       2.7038753 -2.8731282 -3.3972862 -3.5918212

onnx::Conv_118 f4 [16]
000000 5f 23 2f bf 93 2d fc 3e 5f c4 cc be 20 c6 a3 bd
       -0.68413347 0.4925352 -0.3999357 -0.07996774
000010 6f d4 87 3e f2 4d 59 bf 1b c7 b0 3e 18 96 c5 3e
       0.2652926 -0.8488456 0.34526905 0.38591075
000020 74 68 9c 3e 09 21 35 bf a2 0d 1d 3f 08 aa 3e 3e
       0.3054844 -0.7075353 0.6134893 0.1861955
000030 84 8b 28 bf 96 20 32 3f 80 ad 12 3f 84 98 43 3f
       -0.65837884 0.6958097 0.5729599 0.76404595

onnx::Conv_120 f4 [16, 1, 1, 1]
000000 b2 13 c8 3f 14 7c 89 bf 53 1b ea 3f b3 83 63 bc
       1.563101 -1.0740991 1.8289589 -0.01388638
000010 2f 56 51 c0 56 c7 28 40 86 bf b7 3f 29 d9 f7 3f
       -3.2708852 2.6371665 1.4355323 1.9363147
000020 b7 57 b5 be 62 b3 cb 3f d9 e2 14 40 95 21 de 3f
       -0.35418484 1.5914118 2.3263457 1.7353998
000030 2a d0 10 40 ad 0f e1 bf 3c 12 04 40 eb d4 e2 bf
       2.2627053 -1.7582909 2.063613 -1.7721227

onnx::Conv_121 f4 [16]
000000 4a 57 98 bf 74 0a da bd 88 3e e4 be 85 42 a9 bd
       -1.1901639 -0.10646525 -0.44578958 -0.08264641
000010 94 c1 95 3f 48 8a a4 bf 86 09 a5 be ea 3b 8c bf
       1.16997 -1.28547 -0.32233828 -1.0955784
000020 1d 63 4a be 6a d7 35 bf c0 0d 19 3c f6 bb 0f be
       -0.19764371 -0.7103182 0.009341657 -0.14036545
000030 80 7a 2f bf aa 41 82 3f 72 ef 0a bf 64 e5 ae 3e
       -0.68546295 1.0176289 -0.54271615 0.34159386

onnx::Conv_123 f4 [32, 16, 1, 1]
000000 b7 c8 01 40 7a 20 92 3e a4 86 5b 3f cb 80 ac 3e
       2.0278757 0.28540403 0.8575232 0.3369201
000010 4f e7 3f bf d7 89 ca be 22 53 59 bd d8 b5 e0 be
       -0.74962324 -0.39558288 -0.053057797 -0.43888736
000020 2b e4 ea be 23 db a0 3e 78 3e e7 3e cd 49 8e bf
       -0.45877203 0.31417188 0.45164847 -1.1116272
000030 78 a8 3d 3f e7 4f 42 3e 48 ca 82 bb 0b af 80 be
       0.7408519 0.18975793 -0.003991399 -0.25133547
000040 4d e3 73 3e cf dc ce 3e a8 84 4f bf 3f 79 f9 be
       0.23817177 0.4040284 -0.8106179 -0.48725316
000050 fb 47 71 3f fd 34 99 3f 5e 17 71 bf b9 2c cb be
       0.9425046 1.1969296 -0.9417628 -0.39682558
000060 6a 8c 3a be 5e 39 82 bf f1 03 3c bf b8 44 0c 3e
       -0.18217626 -1.0173757 -0.73443514 0.13698089
000070 8d 57 93 be 7c 7e ba bf 4f bc 29 3d 4d 71 8c 3f
       -0.28777733 -1.456985 0.04143935 1.0972077
000080 38 c8 ed be 45 a2 f8 be 4c 08 2a 3f 2d 81 a8 be
       -0.46441817 -0.48561302 0.6641891 -0.32911053
000090 4c 37 05 c0 ab be 92 bf d5 15 43 be f5 10 15 c0
       -2.0815 -1.1464437 -0.19051297 -2.32916
0000a0 5d fa 12 c0 4d 65 95 bf 54 ae 07 3e 35 44 c2 3e
       -2.296531 -1.167154 0.13250095 0.37942663
0000b0 ec 68 7e bf 4b 03 a1 be 2c 29 f1 3e f7 2d 80 bf
       -0.9937885 -0.31447825 0.47101724 -1.0014027
0000c0 8d b3 a7 3f e1 70 53 bf d7 c1 bd 3e 72 7f c5 3e
       1.310167 -0.82594115 0.3706195 0.38573796
0000d0 19 f2 50 3e 70 23 2d bf e2 f7 5a bf 5f 20 0b 40
       0.20404853 -0.676322 -0.8553449 2.1738508
0000e0 11 b3 8a 3f 31 81 fc be c0 9e c3 bf 71 a9 e3 3d
       1.0835897 -0.49317315 -1.5282822 0.11116303
0000f0 5f b0 14 3f a8 13 30 bf 16 ef 93 bf 36 86 b1 bf
       0.5808162 -0.68779993 -1.1557338 -1.3869083
000100 7a f7 87 3e f5 9b ae be 85 0f c3 be f2 3b 7f 3f
       0.26555997 -0.3410336 -0.38097778 0.99700844
000110 3d d5 4d 3e a2 fd 35 3f 5e 56 46 be 6e 9b 60 bd
       0.20100875 0.7109014 -0.19368884 -0.05483573
000120 3f 4c 87 bd 8e b7 e0 be 9d 30 19 bf 6c d6 9b be
       -0.0660634 -0.4389004 -0.59839803 -0.30437028
000130 21 1e 80 3d d5 e5 47 3f b3 0f 20 bf 6d 7b 29 3f
       0.06255747 0.7808507 -0.62523955 0.6620396
000140 0f 46 53 bf 6e 0f cb bf 98 24 94 3f 7f af 1d 3f
       -0.82528776 -1.5864084 1.1573668 0.6159591
000150 21 1c 4c 3f e6 7b af 3e fd 45 a7 3e 64 fc cb 3d
       0.7973042 0.34274215 0.32670584 0.09960249
000160 e7 43 e4 3f 8b cd 03 3f 7e a9 f9 be b2 c2 81 be
       1.7833222 0.5148551 -0.48762125 -0.25343853
000170 fa 57 e4 be 82 1e 98 be 3e bb c2 3e 56 50 c6 be
       -0.4459837 -0.29710776 0.3803348 -0.38733166
000180 3d 3c 7a bf 32 b3 8d 3f 52 e3 ac bf e0 52 58 bf
       -0.97748166 1.1070311 -1.3506873 -0.8450146
000190 62 f0 0b bd 48 b9 eb bf e5 80 32 3e b4 b3 86 3f
       -0.034164794 -1.8415918 0.17431982 1.0523591
0001a0 b1 86 51 3e f8 4a 46 3e 27 0d a6 bd d0 a0 de be
       0.20461537 0.19364536 -0.08107977 -0.43482065
0001b0 3c 51 73 3f 6a ac 6f be 6e 47 dd 3f b9 12 01 3f
       0.9504583 -0.23405614 1.7287424 0.50419194
0001c0 3e b4 a9 bf 76 f2 7f bf c1 32 46 3d d9 49 22 bf
       -1.325813 -0.9997934 0.048388246 -0.6339393
0001d0 63 19 3d bf ff f9 8c 3c a3 ee 5c bf 3f 1c 28 bf
       -0.7386686 0.017209051 -0.8630163 -0.656681
0001e0 56 30 4d be 7f 57 9f 3e 1f d1 90 3f c2 ed 49 bf
       -0.2003797 0.31121442 1.1313819 -0.78878415
0001f0 2b e2 7b be c5 a2 82 be b4 d3 41 bc 2d b0 07 bf
       -0.24597995 -0.25514808 -0.011830259 -0.530032
000200 05 59 b4 be 99 20 35 bf e4 57 81 3f f8 0e 44 3f
       -0.35224167 -0.70752865 1.0104947 0.7658534
000210 95 a9 02 bf 5d e4 db 3f bd 21 22 bd e7 0c 0a bf
       -0.5104001 1.7179066 -0.039582957 -0.5392594
000220 68 c5 6b 3f 08 89 4f 3e 38 c8 65 3f da 5b 01 3f
       0.92098093 0.20267117 0.89758635 0.5053078
000230 57 5f 57 3f d3 6e 48 be e0 ce 38 be 18 ad 7d 3f
       0.8412985 -0.19573526 -0.18047667 0.99092245
000240 d9 b5 4d 3f 47 c3 6b 3f 1b a5 0e be 9b 99 2c be
       0.803556 0.92094845 -0.1393017 -0.16855471
000250 b8 57 09 40 fe 99 c4 3e b3 ba ad bd 8d e2 b4 3d
       2.145979 0.38398737 -0.08482876 0.08832274
000260 96 f2 75 bf 63 2b 82 be f2 ec e3 3e fa b6 4d 3f
       -0.9607328 -0.25423726 0.44516712 0.80357325
000270 f2 4e a0 3f 04 0a be be 49 f0 fb 3d e7 23 88 3f
       1.2524092 -0.37117016 0.1230169 1.0635957
000280 e4 a9 4c be d7 f3 20 bf ec d4 43 3d c1 bb 72 3d
       -0.19986683 -0.6287207 0.04781048 0.059261087
000290 e5 fd 79 be 38 bf 24 bf 80 5e 28 be 9c b2 a2 be
       -0.2441326 -0.64354277 -0.16442299 -0.31776893
0002a0 80 d5 11 3f c7 da f7 3e f5 b4 23 3f 5a d7 3a bf
       0.569664 0.484091 0.63947994 -0.7298485
0002b0 45 75 54 3f c2 18 2e 3e cc c2 70 3f e6 2b 18 40
       0.8299144 0.17001632 0.94047236 2.3776793
0002c0 f8 ad d1 bd 75 12 a7 bf 2f db 14 be ae 88 50 bf
       -0.1023826 -1.3052508 -0.14536737 -0.81458557
0002d0 51 62 ab be 2e b1 9d 3f 04 d3 3a be 41 65 11 3f
       -0.33473447 1.2319696 -0.18244559 0.56795126
0002e0 b9 87 b7 3e c7 90 f1 3f 65 8f c3 be 89 50 23 bf
       0.35845736 1.8872308 -0.3819534 -0.6379476
0002f0 5d 7d a8 3f 7b 89 9c 3d 47 26 82 bf 83 88 63 ba
       1.3163258 0.0764341 -1.0167931 -0.00086797046
000300 fa 38 a1 be 76 81 7b bd 8b df 1f 3e 66 33 45 bf
       -0.31488782 -0.06140276 0.15612619 -0.7703155
000310 cb a8 98 3e c0 60 b4 bd bc 19 80 3f d6 75 15 40
       0.2981628 -0.08807516 1.0007854 2.3353171
000320 b9 93 b1 3e 94 83 8c 3d 07 66 93 bf 86 c5 d1 3f
       0.34683016 0.06861034 -1.1515511 1.6388404
000330 d0 19 cb 3e 54 e4 17 bf 0b 8b 38 3e d0 9c f6 bd
       0.3966813 -0.59332776 0.1802179 -0.12041628
000340 ed 87 bc 3f d1 99 b7 be 0b 6e 86 be a1 ec 05 be
       1.4728981 -0.3585954 -0.2625583 -0.13078548
000350 40 f9 29 3f 85 29 9f be f1 19 4b bf 58 5b ac bd
       0.6639595 -0.31086364 -0.7933646 -0.0841586
000360 f4 6c 2e bf 7d a5 82 bf 22 c2 0f bf 62 e9 4d be
       -0.68135 -1.0206753 -0.561556 -0.2010856
000370 ef f1 f3 bf 98 3d 85 3e e8 5c 41 bf 70 7c 0c bf
       -1.9058207 0.26023555 -0.7553239 -0.54877377
000380 aa 00 82 bf f6 96 33 40 70 ee a0 3f 4d 52 fb 3f
       -1.0156453 2.806089 1.2572765 1.9634491
000390 b9 32 a5 3f e9 b6 38 3f 43 50 4c 3f e4 18 71 be
       1.2906104 0.721541 0.7980997 -0.23544651
0003a0 1a 9a fb be 5c 7a 96 3e fc 6a 2e bf c8 11 39 3f
       -0.49141008 0.29390228 -0.68131995 0.7229276
0003b0 e8 b4 22 3f 14 ce 3c bf 43 62 f8 3e ca dd 9d bf
       0.6355729 -0.7375195 0.48512468 -1.233331
0003c0 ab 67 0e bd 09 2f 8e 3e d8 42 62 3f 82 83 a6 bf
       -0.034766834 0.2777026 0.88383245 -1.3008883
0003d0 76 c6 df 3e ae 00 05 3f 96 13 cc 3f 93 b7 d6 be
       0.437061 0.5195416 1.5943477 -0.4193693
0003e0 26 96 92 3e 08 f2 59 bf 48 c3 74 bf 69 a4 38 3e
       0.2863018 -0.85134935 -0.95610476 0.18031467
0003f0 0a 20 1a 3f 3d 29 02 3f 26 52 b7 3e ff f1 1d 3e
       0.6020514 0.50844175 0.35804862 0.15424345

onnx::Conv_124 f4 [32]
000000 c0 a1 14 bd b0 5e 8b 3e 48 d0 b2 bf c7 2b 9e bf
       -0.03628707 0.27220678 -1.3969812 -1.235711
000010 d2 e4 4c bf 0e b3 fe bd d7 f2 52 3f 58 6a 9a bf
       -0.8003665 -0.12436496 0.82401794 -1.2063704
000020 10 49 19 bd 86 66 14 40 68 e5 e2 3f e7 36 94 bf
       -0.037423193 2.3187575 1.7726259 -1.1579255
000030 40 91 7f 3d 95 0b 8f bf bf 91 a8 3f 8a 32 fa 3e
       0.06239438 -1.117541 1.3169478 0.48866683
000040 2a 46 ec 3e 44 ca 91 bd 32 c8 e1 3e 2a 60 84 3f
       0.4614728 -0.07118657 0.4409805 1.0341847
000050 a4 fe 46 be 93 df 40 bf 5f 63 75 bf 16 55 f4 bf
       -0.19433075 -0.7534115 -0.95854753 -1.9088466
000060 12 ed 0b bf 59 06 a2 bf 28 2a a9 bf 0e 32 87 bf
       -0.54658616 -1.2658187 -1.321599 -1.056215
000070 e1 20 e9 bf ae 56 52 3f e3 bd 37 3f b0 27 1e bf
       -1.8213159 0.8216351 0.7177412 -0.6177931

onnx::Conv_126 f4 [32, 16, 1, 1]
000000 4a 99 fb ba bf 93 15 3d d8 73 de bd 42 b0 09 3d
       -0.0019195464 0.036517855 -0.10861939 0.03361536
000010 6f 79 70 3d 69 a0 57 be e2 8c 6f 3d 53 70 b5 bd
       0.058709558 -0.21057285 0.058483966 -0.08859315
000020 8c 17 9b 3d e9 c0 dc bd a7 54 48 be e4 c2 0f 3e
       0.075728506 -0.10778982 -0.19563542 0.14039189
000030 3a 95 b0 bc 00 f1 d5 3d a7 36 ac bd c2 b7 a0 3d
       -0.021555532 0.10446358 -0.084088616 0.07847549
000040 36 9e 0e bc 08 0d 9e bc b3 9c d9 3d b3 7d 99 bc
       -0.008704713 -0.019293323 0.10625591 -0.018736696
000050 7f 30 fc 3b 44 a0 22 3c 58 d9 6d 3d 2f ab 22 bc
       0.007696211 0.009925906 0.058068603 -0.009928509
000060 77 78 27 bd e5 26 9d 3b 2e 65 19 bc 3b 7a 05 3e
       -0.04088637 0.0047958964 -0.009362502 0.13034908
000070 d4 5c 3b 3d 0f 7a 74 bd 3a 37 5d 3d b9 12 0e bd
       0.045742825 -0.059686717 0.054007746 -0.034685824
000080 a3 56 62 be 8c b8 9d 3d 48 d9 00 3e a5 e2 9c 3e
       -0.22103362 0.07701215 0.12582886 0.30641666
000090 75 8b ff 3e 00 19 d9 bd e0 d9 1c bd 57 4f 70 bc
       0.49911085 -0.106004715 -0.03829372 -0.014667354
0000a0 51 49 43 3e 62 0e 9c 3d 19 36 b7 3d 02 57 3c bd
       0.19070937 0.07619931 0.08945865 -0.045981415
0000b0 9e ce 1c be a7 86 4c 3e 98 d3 99 bd 9d 62 8e 3d
       -0.15313193 0.19973241 -0.075110614 0.06952403
0000c0 5e 41 58 be 1a 42 b9 3d 72 10 b4 bd e1 fe ec bd
       -0.21118686 0.09045811 -0.08792199 -0.11572052
0000d0 96 d6 32 be f0 d6 eb 3d b0 1e 67 be 7d 54 79 3e
       -0.1746467 0.115156054 -0.225703 0.24348636
0000e0 4b 93 12 3e 0d 6c 11 3e 3a fa b1 3e 38 36 3d 3c
       0.14314 0.14201374 0.3476122 0.011548571
0000f0 5c d4 cd bd 9f fc 2c be ac 89 ce 3e 83 65 5e be
       -0.1005027 -0.16893242 0.4033941 -0.21718411
000100 1c f4 9c be b5 87 29 be c4 04 bd 3d a2 6f e4 3d
       -0.3065499 -0.16555674 0.092294246 0.11154105
000110 99 32 24 be cf 31 16 3e 9f ae 45 3e 11 a9 d5 3d
       -0.16034926 0.14667438 0.19304894 0.104326375
000120 3e f3 34 3c 33 ff a3 be 81 8c 0d bf ca 23 df bd
       0.011044322 -0.3203064 -0.55292517 -0.10895498
000130 7b f5 b8 be 48 ca 20 be 0b 5c 74 3d 4a 6d 22 3e
       -0.36124787 -0.15702164 0.05965809 0.15862003
000140 c3 71 2e 3e 2b e1 c2 be 34 15 17 be d4 57 e4 3e
       0.17035584 -0.38062415 -0.14754182 0.44598258
000150 47 b7 b5 bd 55 d0 93 be 6b 17 c7 3c 17 48 21 be
       -0.08872848 -0.28869882 0.024303159 -0.15750156
000160 26 80 98 be cb dd a6 be 0f dc d1 3e 51 20 d5 bc
       -0.2978527 -0.3259109 0.40988204 -0.026016386
000170 b6 cd 17 be cd d1 c8 3c 5a 6a 62 3e b9 96 02 bf
       -0.14824566 0.024514103 0.22110882 -0.51011235
000180 ac ac 26 3c 77 5b 84 be a5 56 65 be 3c 71 5d be
       0.010173004 -0.25851032 -0.22396334 -0.21625227
000190 66 ce 01 3e 3a f6 2e 3e 16 a8 dc 3c 8a e2 58 be
       0.12676391 0.17086115 0.026935618 -0.21180168
0001a0 ea f8 31 be 86 85 de bd 79 d8 5a be fe 91 0b be
       -0.1738011 -0.10865311 -0.2137164 -0.1362991
0001b0 98 a4 4f 3e 38 4e aa bd 43 82 3d bd 41 9b c7 3d
       0.20277631 -0.083157 -0.046266805 0.09746409
0001c0 58 23 13 3d 17 bb 5f 3e 37 e8 e9 3d e2 cc 38 be
       0.03592238 0.21848713 0.114212446 -0.18046907
0001d0 81 c5 62 bc 3e 2e fb bd 25 72 31 3c 4b 1e 41 3e
       -0.013841034 -0.12264679 0.010830437 0.18859212
0001e0 7f 00 d3 3e ac 6e b0 3d 17 ed 49 bd aa 46 20 3c
       0.41211316 0.08614859 -0.049298372 0.009782473
0001f0 e3 ad e0 bd 86 91 43 bd 61 08 2e 3d 8b 9e 0c 3e
       -0.10970666 -0.047746204 0.04248846 0.13732354
000200 52 9a 77 bc a8 b9 56 be 09 11 12 3b fd c4 c0 bd
       -0.015112476 -0.2096926 0.0022287986 -0.094125725
000210 c3 c7 06 be 33 51 3e 3d 24 f6 29 3c f3 8d 9a be
       -0.1316214 0.046464156 0.010373626 -0.30186424
000220 63 4b aa bd c3 f3 9b 3b 99 15 51 3d cf 92 5b bd
       -0.0831516 0.0047592833 0.051045988 -0.053606804
000230 c1 81 9a bd 0a c7 ca bd 4f 20 4d be 1b 39 5f be
       -0.0754428 -0.09901245 -0.20031856 -0.21799128
000240 24 e5 91 be 92 ac ee 3c 51 5f ab bd ad b2 ba bd
       -0.28495133 0.029135022 -0.083677895 -0.09116111
000250 6b 70 d2 be b9 15 0d be 61 b0 2c 3e 0c 23 cc 3c
       -0.41101393 -0.13777818 0.16864158 0.024919055
000260 be 1a 9a be 46 8b 97 bd 27 af 65 3e 53 90 bd bc
       -0.30098528 -0.07399611 0.22430097 -0.023140108
000270 e9 e0 f6 bc 35 e2 4b be b4 50 21 bd 0c 81 b9 be
       -0.030136542 -0.1991051 -0.039383605 -0.36231267
000280 8a 27 c5 3d b6 8d 2e be b3 ed 3a be 84 94 57 be
       0.09626682 -0.17046246 -0.18254738 -0.21052748
000290 d7 19 a7 bc 60 98 15 3e 03 a0 80 be 3e c3 3b bd
       -0.020398064 0.14608908 -0.2512208 -0.045840494
0002a0 64 e3 0d be 2e 29 1d 3c a7 e1 4b be 03 2f 40 bd
       -0.13856274 0.0095923375 -0.19910298 -0.046919834
0002b0 f1 a1 e9 bd d1 b6 5f bd 85 27 79 bd ec 50 70 bd
       -0.11407841 -0.054617707 -0.060828704 -0.058670923
0002c0 d9 e9 7e 3b 78 39 2d bb 2b 13 d9 3d eb 15 8d be
       0.0038896708 -0.002643196 0.10599359 -0.27555785
0002d0 a1 de ae bb 76 8a 0e 3d 90 f9 af bd 30 35 1d 3e
       -0.005336598 0.034800015 -0.08592522 0.1535232
0002e0 2f 09 29 bd 8f c9 ef 3d 58 78 5d 3e 59 f3 15 3d
       -0.041268524 0.11708366 0.21627939 0.036609028
0002f0 e6 9f 14 bd 6d 8e b1 3d 2a f2 45 3e c3 11 3d 3e
       -0.036285304 0.08669744 0.1933066 0.18463807
000300 79 ab 54 bb e7 f9 ec 3e e8 f9 c6 bd 52 17 d5 bd
       -0.0032450838 0.4628441 -0.097156346 -0.104048386
000310 7e dd dc 3d c9 df 5a 3d 3d 11 07 be 42 81 e0 3d
       0.10784434 0.053436074 -0.1319017 0.10962154
000320 00 1d d9 3e c7 0b 8e ba 32 39 6b 3d ab e4 53 3d
       0.42404938 -0.001083725 0.057427593 0.051731747
000330 2b 20 f2 bc 7b 56 09 be 59 5b be 3d 33 97 f4 3d
       -0.029556355 -0.13411896 0.09294767 0.119429015
000340 4f 41 8e 3e 60 3f 47 be 4e ba c4 bc db 9e 38 3e
       0.27784202 -0.1945777 -0.024014618 0.18029349
000350 a7 b6 b5 3c 0d 01 04 3d c4 ed cf 3c 4d eb bd bd
       0.022181822 0.032227565 0.02538193 -0.09273396
000360 81 f2 f9 bd 83 85 f3 3c d2 fc 3e bd f0 08 ba 3d
       -0.12204457 0.02972675 -0.046627827 0.09083736
000370 13 3b bb bd 6f 8b 86 bd d4 58 e1 bb 73 3f 15 be
       -0.09142127 -0.065695636 -0.006877044 -0.14574985
000380 16 0a 31 3d af ab 8c bc 7a 38 9b 3d e2 d1 b3 bd
       0.04322251 -0.017171709 0.075791314 -0.08780266
000390 24 78 f9 bd 30 55 2e be 71 46 21 3c 8f 86 26 3e
       -0.12181118 -0.17024684 0.009843455 0.16262268
0003a0 b6 ec e4 bd 26 0d 92 bc f8 3b c8 3e 8a f1 d1 3d
       -0.111779615 -0.017828535 0.39108253 0.10251148
0003b0 59 1d 49 bb af f4 cb bd 8d 53 a0 3d ea df c2 3c
       -0.0030687659 -0.09958779 0.07828436 0.023788411
0003c0 7f a5 74 be 8c 2c 9b bd cc 05 d3 3a 13 c1 df be
       -0.23891257 -0.07576856 0.001609975 -0.4370199
0003d0 43 53 07 bd 86 a5 8b 3d 9c d2 25 3e 0d f3 10 bd
       -0.03303839 0.068186805 0.16193622 -0.03538804
0003e0 0d 8f 7a b9 03 2e 85 bd db a7 a4 3d f1 9d 07 3e
       -0.00023895148 -0.06502917 0.080398284 0.13243844
0003f0 b8 b2 a7 3d c9 09 92 3d d2 74 06 be 86 97 ee bd
       0.08188385 0.071307726 -0.13130501 -0.116499946

onnx::Conv_127 f4 [32]
000000 c0 04 3d be d3 3f 58 be f1 b8 89 bf ae 2b 26 bf
       -0.18458843 -0.21118097 -1.0759565 -0.649104
000010 a8 2f a8 3f f4 53 8d 3e 49 7d 53 3f ae d5 1f bf
       1.3139544 0.27603114 0.82613045 -0.62435424
000020 84 aa 70 3f ff fe 88 3f 56 6b af 3f 06 b3 8d bf
       0.94010186 1.0702819 1.3704631 -1.1070259
000030 8e eb 4a bf bc 0f 7f be 9a b3 0c bf 37 39 2f 3e
       -0.7926568 -0.24908346 -0.5496155 0.1711167
000040 f3 21 08 3e f0 f9 9a bf b8 41 c6 bd 07 09 08 3f
       0.132942 -1.2107525 -0.096805036 0.53138775
000050 5c e1 ac bf 4a 46 3a 40 02 ad 47 3f e3 82 11 3f
       -1.3506274 2.91054 0.77998364 0.5684034
000060 82 bd 55 bf 79 84 51 3e 52 a6 14 bf f6 c5 81 3e
       -0.8349229 0.2046069 -0.58066285 0.25346345
000070 b5 5e 37 3f 7a e3 65 3f 78 49 12 3f d4 aa db 3e
       0.71628886 0.89800227 0.57143354 0.4290377

onnx::Conv_129 f4 [64, 32, 1, 1]
000000 59 5b 13 bf 7a 4b ec be eb 3f de be 2d 61 13 bd
       -0.5756126 -0.46151334 -0.4340814 -0.035981346
000010 e8 5d a7 3d e0 5f 9b bc bb 65 e5 be 7f 4a a1 be
       0.08172208 -0.018966615 -0.44804177 -0.31502149
000020 66 11 9c 3d cd 4e 62 3f b7 90 c9 bd fd 7a 1e be
       0.07620506 0.8840149 -0.09842055 -0.15476604
000030 19 5b 6f be d5 21 7c be 35 00 8a 3a 25 2e 03 bf
       -0.23374595 -0.24622281 0.0010528626 -0.51242286
000040 c9 f3 a8 3b ba 1c e8 3e d8 4f 6e bc a5 53 5e 3d
       0.0051560146 0.45334417 -0.014545403 0.05427899
000050 03 9a 02 3e f6 06 68 be 04 83 2c 3e fa c0 93 3e
       0.12754063 -0.22658905 0.16846853 0.28858167
000060 bd 27 4e bf 5e 25 4d be 43 a5 01 bf d1 9e e4 3e
       -0.80529386 -0.20033786 -0.50642794 0.44652417
000070 07 f8 3d bd d7 ad 8d 3d 53 86 8b bd b1 97 f1 bd
       -0.046379115 0.06917923 -0.0681273 -0.11796511
000080 5c 2c 93 3e 7b 72 86 3e ac 13 e0 3d dc 0e aa 3e
       0.2874478 0.26259217 0.10941252 0.33214462
000090 50 46 c2 bd b3 1f 4d be 76 64 55 3e 79 10 dd 3c
       -0.09486067 -0.20031624 0.20839104 0.026985394
0000a0 64 72 c6 bd ab b7 56 3e 6c 14 bd 3e 98 63 46 be
       -0.09689787 0.20968501 0.36929643 -0.1937393
0000b0 1c 8d f9 bc 20 15 ec bd a4 d9 e5 3c f4 9d 1e be
       -0.030462794 -0.11527467 0.02805788 -0.15489942
0000c0 f8 6a 27 3e 3e 10 89 bd 24 74 01 be 5d cd d5 be
       0.16349399 -0.06692551 -0.1264196 -0.41758242
0000d0 c7 aa 7f 3e c9 ce a6 be 4f c4 c5 bd 26 12 0d be
       0.2496749 -0.3257964 -0.096565835 -0.13776454
0000e0 cf f7 54 be a7 3f b5 3e 14 33 de bd 50 b9 20 be
       -0.20797656 0.35400125 -0.10849586 -0.15695691
0000f0 52 81 32 be eb ee 24 be f0 01 7e bb b3 a8 6d 3d
       -0.17432144 -0.16106765 -0.003875848 0.058022212
000100 89 48 b1 be 55 a6 9c 3b 51 73 b7 bc bc 32 ba be
       -0.34625652 0.0047805705 -0.022393854 -0.36366832
000110 4d 16 df bd 25 06 b8 bd e1 c2 07 bc 82 eb df bb
       -0.108929254 -0.08985547 -0.008286209 -0.0068334946
000120 99 9f 82 3d 98 73 cf bc c8 92 3e 3e ee d2 0c 3e
       0.06378097 -0.025323674 0.1861068 0.13752338
000130 0f 15 a1 bd 8a 1c d9 3d a9 0a 1c bd 4f 6c f7 3d
       -0.07865345 0.106011465 -0.038096104 0.12081205
000140 6c ad 59 be 41 97 d7 be f1 db 8a 3e e4 97 ef 3d
       -0.21257561 -0.42107585 0.27120927 0.11698893
000150 9e 14 ed be 42 d7 16 be f2 cb df bd 17 f8 8c be
       -0.46304792 -0.14730552 -0.10927571 -0.27533028
000160 f1 a6 77 3e 2d 27 b9 3e d6 fa c3 3d 8b 04 4c 3e
       0.24184777 0.361627 0.095693275 0.19923608
000170 9a 91 fe bc 52 b5 0f 3e 6f b4 5b bc 47 f0 ba 3d
       -0.031075288 0.14034012 -0.013409718 0.091278605
000180 32 d8 d3 3d 77 e1 8d 3e ec 39 84 3e 95 98 eb bd
       0.1034397 0.2771108 0.2582544 -0.11503712
000190 6c 86 14 be 64 6b fa bd 2f d1 8d bd 59 aa eb bd
       -0.14504403 -0.122275144 -0.06924664 -0.115071006
0001a0 3c 62 13 3e 7a 51 7c 3d d3 28 1e 3e d8 f2 7e be
       0.14392942 0.06160114 0.1544526 -0.24897325
0001b0 30 24 64 bc 68 a5 43 3d cf 42 a9 bd 00 f4 60 bd
       -0.013924643 0.047765166 -0.08264696 -0.054920197
0001c0 0a d6 0a be 8a c5 b9 3d 9e 1c 06 be a5 08 11 be
       -0.13558212 0.09070881 -0.13096854 -0.14163454
0001d0 aa 75 b9 3d b8 de fb 3d 16 b9 2c 3e 1c fb 81 3e
       0.09055646 0.122983396 0.1686748 0.25386894
0001e0 35 9c 80 be 75 9b 6e be 28 13 14 be 47 29 88 be
       -0.25119177 -0.2330149 -0.14460433 -0.26593992
0001f0 85 97 e4 bc a7 17 48 bd 55 46 6d 3d 76 67 47 bd
       -0.027904281 -0.04885068 0.057928402 -0.048682652
000200 d3 27 cb be ff b6 77 bb 98 38 fc 3e 0a 3f b5 3d
       -0.3967882 -0.0037798283 0.49261928 0.08849914
000210 13 4b 15 bf d1 69 26 3e c1 a3 c7 be 29 98 85 bf
       -0.5831768 0.16251303 -0.38992122 -1.043706
000220 f4 39 25 bf 9b 14 14 3e d1 91 0d 3e 88 3d aa be
       -0.64541554 0.14460985 0.13825156 -0.3325007
000230 8d 8c 88 be 7c 75 b0 3e a2 ef a8 be ca 5e 62 3f
       -0.26669732 0.34464633 -0.32995325 0.88425887
000240 e5 7b 56 3f aa 6c 48 be 9b 44 31 bf 7c d5 b6 bb
       0.837828 -0.19572702 -0.6924531 -0.0055796485
000250 94 b1 1c bf de b5 6b be b1 0f 85 3e 76 f9 0b bf
       -0.6120846 -0.23018596 0.25988534 -0.5467752
000260 27 f1 40 3e 9c 9a 87 3e c0 d0 c9 3d 8e 43 e7 3e
       0.18841992 0.26485145 0.09854269 0.45168728
000270 7b 49 ba 3b 59 b3 51 3e 44 28 a4 3d 4a ca 47 be
       0.005685029 0.20478572 0.080154926 -0.19510761
000280 d8 da 1d be d7 f4 86 be 5d 41 97 be 73 18 de bc
       -0.15415514 -0.26358673 -0.29542056 -0.027111268
000290 a1 21 03 3e 1a ee bd 3e e9 3e 31 3e d4 b8 3f bd
       0.12805797 0.3709572 0.17309155 -0.046807125
0002a0 76 77 33 bd a3 49 45 3f 60 9a 96 bd 92 d5 89 3d
       -0.0438151 0.77065486 -0.073536634 0.067301884
0002b0 bb c1 4f 3e ee 50 06 be ee e5 9f 3d 8c 9d 94 be
       0.20288746 -0.1311681 0.078075275 -0.2902645
0002c0 6a 8c ae 3d 90 f5 57 3e 13 22 00 3e 69 b0 00 bd
       0.085228756 0.21089768 0.12512998 -0.031418238
0002d0 fe cd 5f 3d 90 92 5c 3e 99 d1 ad bd b4 36 81 bd
       0.05463981 0.21540284 -0.08487243 -0.06309262
0002e0 d1 29 06 be fc 9e 94 be e3 d2 f5 be 8c e3 04 3e
       -0.13101889 -0.29027545 -0.48012456 0.12977427
0002f0 97 c8 aa bc 56 74 13 be a1 68 71 3d ff 5f 82 3c
       -0.020847602 -0.14399847 0.058937673 0.015914915
000300 27 7d ea 3e 44 8a 04 3d 51 95 88 be aa 44 28 be
       0.4579861 0.032358423 -0.2667642 -0.16432443
000310 5a 3b 6a bf 0f 58 22 bd 06 b2 73 be a0 0d c5 be
       -0.91496813 -0.03963476 -0.2379838 -0.38486958
000320 63 e7 82 be db f3 3b 3e 9a b1 1e 3e 20 27 7e bc
       -0.2556716 0.18354742 0.15497437 -0.015512258
000330 16 d0 af be cb e4 78 3e be 83 35 bf 80 13 04 3f
       -0.34338444 0.24306028 -0.7090415 0.51592255
000340 8c c8 00 3e 4b 8b ec be 7a 9c f8 3e ce e4 60 be
       0.12576503 -0.46200022 0.48556882 -0.21962282
000350 4c a1 36 3e 51 7e 96 be 5c 3b 07 bf b6 c2 51 3e
       0.17834967 -0.29393247 -0.5282495 0.20484433
000360 fe b6 b2 3b 0a f2 73 3f 70 21 25 be 84 f5 a6 3e
       0.0054539433 0.952912 -0.16126037 0.3260919
000370 31 f1 fc 3e e1 39 80 3d c4 29 dd 3e df b9 67 be
       0.49402764 0.062610395 0.43195927 -0.22629498
000380 46 85 fc 3e 65 18 ed 3e e1 13 73 3d 4d a0 60 3e
       0.4932043 0.46307674 0.05934513 0.2193615
000390 1d 75 f4 be 23 bc 79 bd 60 79 49 3e a2 71 77 3e
       -0.477456 -0.060970437 0.19675207 0.24164441
0003a0 b2 e8 f4 3d da 51 ac bd a5 e3 c4 be 06 2a 19 3e
       0.119584456 -0.084140494 -0.3845493 0.14957437
0003b0 52 c5 bb 3e d3 ff 62 bd 58 90 88 be 1a c4 10 bd
       0.3667398 -0.055419754 -0.26672626 -0.035343267
0003c0 0d 09 f6 3d be b3 81 3d 36 83 a8 bd 5a 03 ac be
       0.12013445 0.06333111 -0.082281515 -0.33596307
0003d0 55 06 6a 3e 83 3d 0f bf 91 76 8c bd 40 2d d4 be
       0.22853978 -0.55953234 -0.06858552 -0.41440773
0003e0 00 67 ab be 56 65 a7 3e 03 02 4a 3d bf 82 b7 be
       -0.3347702 0.326945 0.049318325 -0.3584194
0003f0 2d 0c c6 3e 41 e7 86 bd ef 0e db be 90 d4 7b 3e
       0.38681164 -0.06587077 -0.4278483 0.24592805

onnx::Conv_130 f4 [64]
000000 31 77 72 bf 4d 3b c9 be d6 cd c7 be 1e 43 2d be
       -0.9471312 -0.39303055 -0.39024228 -0.16920134
000010 e0 9c aa be ee 63 4b bf 41 77 96 be d8 d4 e0 3d
       -0.3332281 -0.79449356 -0.2938786 0.10978097
000020 58 34 59 bd 60 bf 25 be aa 39 9e be 58 63 8e be
       -0.053028435 -0.16186285 -0.3090337 -0.27810168
000030 24 66 27 be 54 7e 9f bf d3 90 68 bf 4e c7 27 bf
       -0.16347557 -1.2460427 -0.90845984 -0.6553849
000040 63 d9 90 be 4c c3 49 bf d8 bb 30 be c8 82 2c be
       -0.28290853 -0.78813624 -0.17259157 -0.16846764
000050 d9 4b 88 be c0 c0 b7 bc d4 0f 1a be 75 09 d2 be
       -0.26620367 -0.022430778 -0.150451 -0.4102284
000060 b2 8a 6b be 42 43 07 be 24 89 0a be cc 03 d5 be
       -0.23002127 -0.1320925 -0.13528877 -0.4160446
000070 33 45 2a bf 47 a5 b8 bf c0 b9 1f be 79 45 22 bf
       -0.6651184 -1.4425439 -0.15598202 -0.63387257
000080 f4 34 07 3e 74 e0 41 bf 9e bf c0 be 7e 8c fb be
       0.13203794 -0.75733113 -0.37646192 -0.49130625
000090 ef 2a 09 bf 74 c7 42 be 3b cf dd be 50 42 f8 bd
       -0.53581136 -0.19021398 -0.43322167 -0.12122023
0000a0 f8 cd aa bd c6 a8 35 bf 4f ce cd be f0 85 0c bf
       -0.08340067 -0.7096065 -0.40196463 -0.5489187
0000b0 ff 19 06 bf 6c a2 97 bd 99 0d b3 3e 00 6d 3e be
       -0.52383417 -0.074040264 0.34971312 -0.18596268
0000c0 84 a2 b2 be a6 b9 12 be 9b 3d 89 3e 92 4b 47 bf
       -0.34889615 -0.14328632 0.26804814 -0.77849686
0000d0 9c 01 82 bf 79 eb a7 be e7 14 29 bf 64 9f b5 be
       -1.0156741 -0.3279684 -0.6604752 -0.35473168
0000e0 3d f4 7d bf ec 2d 4a be 00 28 7b 3c 6a 77 e1 be
       -0.99200803 -0.1974408 0.015329361 -0.44036418
0000f0 43 48 d9 be 7e 72 03 bf ef cd 76 bf f0 9a 9b bc
       -0.42437944 -0.51346576 -0.9640798 -0.018994778

onnx::Conv_132 f4 [64, 1, 1, 1]
000000 43 60 be 3e 81 04 f2 be 83 03 86 be 68 f6 84 be
       0.37182817 -0.4726906 -0.26174554 -0.25969243
000010 97 10 b3 3d c6 c9 4d be 8e 17 60 3e b3 ea ab 3d
       0.08743399 -0.20096502 0.21883985 0.08394375
000020 87 25 4f 3f 0e 1e a5 3e 5e 11 0a 3e de 67 86 be
       0.8091664 0.32249492 0.13483188 -0.2625112
000030 70 05 9b be d3 6a 67 3e b2 97 a0 be 2b 0d a3 be
       -0.30277586 0.22599344 -0.31365734 -0.31845984
000040 69 f3 1b bf 07 60 ac 3e fe b7 85 3d 52 d8 a5 be
       -0.6091829 0.33667013 0.06529234 -0.32391602
000050 91 b5 5c be c9 3b 94 be 47 a8 70 3e 1e 5e 88 be
       -0.21553637 -0.28951862 0.23501693 -0.26634306
000060 73 80 a3 be 13 38 15 3e 40 54 7d be 9e 41 86 be
       -0.31933936 0.14572172 -0.2473917 -0.26221937
000070 64 10 47 be 7e 5f 58 be f9 eb 0c 3f 3f e7 04 3f
       -0.19439846 -0.21130177 0.55047566 0.51915354
000080 f7 0f 1b 3e 71 fc 81 be aa ea be be 7e 37 e1 be
       0.15142809 -0.2538791 -0.3728841 -0.4398765
000090 28 b0 04 bf ae e8 eb be 49 3e 7e be de 5c 95 3d
       -0.51831293 -0.46075958 -0.24828447 0.07293104
0000a0 d1 6c 91 3e c8 64 32 3e 62 80 aa 3e a9 9b 01 3f
       0.28403333 0.17421257 0.33301073 0.50628144
0000b0 5d 95 f5 be 95 33 ed be f8 5b d4 3e a7 25 06 bf
       -0.47965518 -0.46328416 0.41476417 -0.524012
0000c0 5d 09 7e 3e 68 52 11 bd ce 86 90 be 1f 76 8c be
       0.2480826 -0.03547898 -0.28227848 -0.2743387
0000d0 66 80 17 bf 1d 94 0a bf ff e3 04 bf 57 d6 15 bf
       -0.59180295 -0.5413225 -0.51910394 -0.5853018
0000e0 34 2f aa 3e 92 67 10 be a7 39 7c 3e a1 c3 9e be
       0.33239138 -0.14102009 0.24631368 -0.31008628
0000f0 fc 64 cd be 27 2e 2c 3e d2 1d 9b 3d 68 26 87 bd
       -0.40116107 0.1681448 0.07574047 -0.06599122

onnx::Conv_133 f4 [64]
000000 e8 d1 f4 be ea 26 06 be e8 35 a5 bd 70 98 89 bd
       -0.47816396 -0.13100782 -0.080669224 -0.06718528
000010 98 37 47 bf 90 c0 6f bd 30 b1 7b bf 89 4b 5d bf
       -0.77819204 -0.05853325 -0.9831724 -0.8644338
000020 52 8b b5 bf f0 47 5f bf 14 f5 4b bf 7c 11 87 bd
       -1.4183142 -0.8721914 -0.79670835 -0.06595132
000030 64 80 f5 bd 8c e0 37 bf 54 10 c2 bd 18 ae c8 bd
       -0.11987379 -0.71827006 -0.094757706 -0.09798831
000040 cd e7 12 be 14 01 17 bf 1d 6c 61 bf 00 f0 cb bd
       -0.14346237 -0.5898602 -0.8805559 -0.09957886
000050 14 65 d1 bd 28 95 6a 3d c5 3d 5e bf 59 bd 14 be
       -0.10224357 0.057271153 -0.86813 -0.14525355
000060 d4 36 bd bd cd 6d 1b bf 4c a2 9d bd a0 ac 88 3c
       -0.09238973 -0.6071442 -0.07696971 0.016683877
000070 d0 ea 2c be b2 28 70 be 67 c2 3e bf 8d 7f 43 bf
       -0.16886449 -0.23453024 -0.74515384 -0.763665
000080 f6 dc 49 bf 7c 8e a9 bd f4 12 fd bd e0 3e e1 bd
       -0.78852785 -0.0827913 -0.12357131 -0.109983206
000090 e2 93 e0 bd 8a c4 f3 bd 5e 00 14 be d7 5c 61 bf
       -0.109657064 -0.11902721 -0.14453265 -0.8803229
0000a0 70 02 fd be 6c 3b c2 be e4 e4 69 bf 1b 78 81 bf
       -0.49415922 -0.3793596 -0.91364884 -1.0114778
0000b0 80 0f c2 bd e8 16 e9 bd 5f 40 56 bf 2c 9e ad bd
       -0.09475613 -0.11381322 -0.8369197 -0.084774345
0000c0 d6 2a 04 bf 4c 30 af be e6 bc b8 bd 65 9c 92 be
       -0.5162786 -0.34216535 -0.090204045 -0.28634945
0000d0 ac 98 d0 bd 03 04 12 be 60 c9 ec bd 50 c2 c5 bd
       -0.1018537 -0.14259343 -0.11561847 -0.09656203
0000e0 ff 63 93 bf b0 a6 00 bf 3a 94 73 bf 54 f4 b3 bd
       -1.1514891 -0.50254345 -0.9514805 -0.08786836
0000f0 f0 9b 37 3e ca 73 5e bf 4d 3c 2a bf 36 80 cd bd
       0.17930579 -0.8689543 -0.6649826 -0.1003422

onnx::Conv_135 f4 [64, 1, 1, 1]
000000 26 ca 9c bf 05 70 da 40 41 81 70 40 03 91 16 c1
       -1.2249191 6.8261743 3.757889 -9.410403
000010 a6 ad a8 bf df d8 3b 40 27 d2 60 40 ff f0 4c 40
       -1.3177993 2.9351118 3.5128267 3.2022092
000020 a2 c3 69 bf 42 6f 8b 40 e6 2b 93 41 c4 73 6b 40
       -0.91314137 4.3573313 18.396435 3.6789408
000030 01 38 88 40 56 7e 06 c0 c2 53 d0 40 8d 38 fa 40
       4.2568364 -2.101461 6.5102243 7.819403
000040 ac 1e d8 40 ad bb 7e bf 9c 2a 94 40 cc 47 c2 40
       6.753744 -0.9950512 4.6302013 6.0712643
000050 1f f8 79 40 53 4c 9f 41 21 ab 3d c0 32 6c 8c 40
       3.905769 19.912268 -2.9635699 4.3882074
000060 8e e0 94 41 7d e7 97 40 a4 0e c9 40 5d f6 28 c1
       18.609646 4.747008 6.283037 -10.560147
000070 cb eb e5 40 67 3f 5f c0 6f 95 42 40 7f 7f 3c 40
       7.1850333 -3.4882448 3.0403707 2.9452817
000080 1e 00 0b c1 4f b6 eb 3f 55 71 8c 40 04 11 41 c0
       -8.687529 1.8415011 4.3888345 -3.0166636
000090 85 f7 80 40 42 07 d0 bf d7 f9 64 c0 df 84 2c c2
       4.030215 -1.6252215 -3.577749 -43.129757
0000a0 64 85 4f 3f b7 ae 86 3f b5 0b df bf 4c f2 99 bf
       0.8106291 1.0522069 -1.7425448 -1.2027068
0000b0 4c 06 56 bf aa 5f 3d 40 11 7a d1 3f c6 d4 8d 40
       -0.8360336 2.9589639 1.6365377 4.4322233
0000c0 e8 34 93 3f d0 ed f5 c0 24 d2 f5 bb 39 6e 27 40
       1.1500521 -7.68528 -0.0075018574 2.6161025
0000d0 a6 8e 6d c0 7f e8 6b c0 8f 58 1c c1 50 05 54 c0
       -3.7118316 -3.6860654 -9.771621 -3.3128242
0000e0 70 76 45 40 b1 1e c7 40 00 3e 6e 40 9b 01 ed 40
       3.0853539 6.2224965 3.7225342 7.406446
0000f0 56 b1 be bf ae 86 7b 40 95 bc 53 40 97 c8 08 c0
       -1.4897869 3.9300952 3.3083851 -2.137243

onnx::Conv_136 f4 [64]
000000 ec 09 b2 3d 9c 1e d5 be 8c 49 08 bf 08 c0 bf 3d
       0.08693299 -0.41624916 -0.53237224 0.09362799
000010 da 5c ef bd 3f 99 29 bf 84 da 36 bf 1d 25 c7 be
       -0.11687632 -0.6624946 -0.7142718 -0.38895503
000020 a8 eb 9d 3c 73 24 35 bf 7d 4a f8 be 64 30 2e bf
       0.019277409 -0.7075874 -0.4849433 -0.6804259
000030 fc aa 23 bf e8 ba a3 bd 4f aa 3a bf b2 be fc be
       -0.63932776 -0.07994634 -0.7291612 -0.4936424
000040 3d 6e 14 bf af ef 0f be f4 0d cf be eb 70 a8 be
       -0.5798071 -0.14056276 -0.40440333 -0.3289865
000050 f9 ce 38 bf 84 73 bd bf e0 66 f2 3c 81 47 2a bf
       -0.72190815 -1.4800878 0.02959007 -0.66515356
000060 47 bd e5 be 06 11 25 bf f2 be 0a bf 8e f2 4d 3e
       -0.4487097 -0.644791 -0.5419761 0.20112059
000070 c8 ad 0c bf 8a 31 d8 bd 4f 9d 40 bf 7c fc 2c bf
       -0.5495267 -0.10556324 -0.75240034 -0.6757276
000080 24 f5 aa 3e 4f 4a 2b bf 58 b0 3b bf 62 d0 18 3e
       0.33390152 -0.6691026 -0.73315954 0.14923242
000090 39 ae 5c bf 3e ad 9c bd 11 30 d4 3d 4a a9 29 be
       -0.8620334 -0.07650231 0.103607304 -0.16568485
0000a0 84 b2 1d bf 6a e6 50 bf 72 cc ac bd 40 91 df bd
       -0.6160052 -0.81601584 -0.08437432 -0.10916376
0000b0 46 d2 83 be ce e1 63 bf ca 15 7e bf 96 5e 0b bf
       -0.25746363 -0.89016426 -0.99252 -0.544412
0000c0 24 46 36 bf c0 ee ae 3b 49 dd 96 be 46 e7 77 bf
       -0.71200776 0.00533852 -0.29465702 -0.9683727
0000d0 df 6e 04 be 37 10 2b be 21 86 ac 3d be 3d 97 bd
       -0.12932919 -0.16705404 0.084240206 -0.07384823
0000e0 e9 6d 61 be c0 db df be c2 f2 db be 77 f4 19 bf
       -0.22014584 -0.43722343 -0.42958647 -0.6013865
0000f0 2a 56 51 3e 8e 29 56 bf 84 b6 75 bf 92 70 be be
       0.20443025 -0.8365716 -0.9598162 -0.3719526
