onnx_model/2023_4_19_fix_num_2.onnx (onnx, 231278 bytes, 71 tensors)

bn.weight f4 [3]
00000000: 6d76 753d 279d 0f3e bebb 8b3d
0.059927393 0.14024793 0.06822918

bn.bias f4 [3]
00000000: 488a aa3c 7541 01bd 4349 72bb
0.02081789 -0.031556565 -0.0036969937

bn.running_mean f4 [3]
00000000: 0bab af3f de08 eb3f 11f4 e73f
1.3724073 1.8362081 1.8121358

bn.running_var f4 [3]
00000000: 04de 1141 ed13 2a41 6220 2641
9.116703 10.629865 10.382906

conv0.conv.weight f4 [8, 3, 3, 3]
00000000: e405 9cbd b7ef ed3b 7bb7 e53b 0ef5 823e
00000010: ef3f 283e 21d4 c13e 7156 b1bb b0b9 713d
00000020: 291a 46bc 30cd 25bd c490 a6bb 593e 893c
00000030: 4c61 bd3b eea2 ffbc 0e17 f5bb 299a 823c
00000040: 00ee 88bd 352a d43b 5126 e33c a371 37bd
00000050: 8a23 f63b d1ec 163c 30f7 08bd 88ba 7f3b
00000060: baa8 403c e1ea a63c 1728 bebb 5377 b53c
00000070: 6888 57bc 6941 063d b8e4 b6bb 4d79 8d3c
00000080: b629 b9bc 193a 3d3c f1a6 37bc a845 933c
00000090: c81b edbd 4430 9abd 5c1e 6fbd 7d1a d3bc
000000a0: bdd1 dcbc 8044 b6bc 10fc 053e 8fe6 9b3d
000000b0: c29d d03d 460d d23d d485 b63d ce4a 38bd
000000c0: be69 893d d415 103d f1db 383d cac4 e53d
000000d0: 770a f2ba d381 133c 0022 dc3b 6628 103c
000000e0: beab 293d bf11 b5bd b314 a33d 6fbb 22bd
000000f0: 34b9 d9bd ad62 dd3c 997f 7e3b 389e 873d
00000100: f62e 83bd 3d58 a13d 0125 a63d c453 023d
00000110: a88a bc3d 76e7 d93b 1a8e e23d 0102 a43d
00000120: d1a1 a0bd 89de 163d 60c5 293d 38b9 44bd
00000130: 5200 9e3d f1d0 0e3d fee6 0bbc ec9d 9b3d
00000140: bf92 2c3d 2e7f b43d 1da0 3bbd 7fef 7ebd
00000150: a209 ad3b 91fb 02be 904a 483d 6e60 993c
00000160: 5028 91bd 45d6 303c c62e cbbd 90a9 01be
00000170: a3d2 12be 808f dabc b7aa 723d 5211 e1bc
00000180: 53d4 e5bc 9ff9 cabd 24e5 59bd 62a5 a43d
00000190: c471 b9bd 1659 1cbd 875b 3d3d 34d4 e4bd
000001a0: 82a0 2abd 308b 2c3d 134d a6bd d9cc 1f3d
000001b0: 3dc9 96bd 5b15 dcbc 5894 ae3c f38c 15bd
000001c0: 3ac7 8fbc 1023 403d 2b8e be3c a5ab 2abc
000001d0: f96f 043d 02fc a7bd 37ac 7cbc 0352 69bc
000001e0: 1df3 9cbd 08ca 9cbc cdbb 7dbc 7937 1ebc
000001f0: fc27 0cbe 418f 1abc a670 c43d bdea a13c
00000200: 444d c13c 1df0 8e3d 7f1d a93d 57ea cf3d
00000210: 6c5c 953d 8e7c 76ba 4b7c 213e a0b6 093d
00000220: b544 26bd 4b79 843d 74c3 acbc 1e00 e03c
00000230: 3592 1b3d 7206 8e3b c22b 243d 1148 883b
00000240: c35c 97bd 0e20 10bd dfd1 d0bc 0bf8 023e
00000250: 28b5 193d 0304 533e 64be 3a3c 9c10 9fbd
00000260: 3a10 0cbc 0e82 afbc 0e8c a53c 7d4e 823c
00000270: 2785 553c d245 443d 483e 77bd 65e1 423d
00000280: 37f9 223d 50c6 2ebd 48ba 953c fed3 133c
00000290: 632e 3b3c c861 e43b c49d a0bd ab21 8c3c
000002a0: 5770 35bd 39bb b2bb 4169 c83d c252 97bc
000002b0: 66ac 3ebc 1835 93bc c98e eebc 226c b4bc
000002c0: fc3d d1bd 0044 df3d c175 c43d d16e c83d
000002d0: 8675 213d 8277 12bc 943a d9bd 447d 74bd
000002e0: 275d c5bd 9d6e 8e3d 78fe 3bbd 1318 10bb
000002f0: 8192 843d 0a79 17bc 630c f83c 10e1 9a3b
00000300: b3a1 a1bc 8987 2ebd 76e8 483c f697 63bb
00000310: ad55 373b 6e9f 9bbc 2354 2a3e 4245 153d
00000320: d2f3 193e 9a20 90bd cba1 64bd cd9c 16bd
00000330: eca1 33bd cca7 c9bc b7e5 e5bc 8180 c7bb
00000340: 36e4 abbc b527 e23c 3f0e f1bc 2b18 0c3c
00000350: e213 4b3c ff7b bd3d cd03 a0bc 71ac b13c
-0.07618311 0.0072612423 0.007010398 0.25577587 0.16430639 0.37857154 -0.005411916 0.059014976
-0.012091198 -0.040478885 -0.0050831754 0.016753362 0.005779421 -0.03120562 -0.007479555 0.01594265
-0.0668602 0.006474758 0.027728232 -0.044786107 0.007511561 0.009211735 -0.03343886 0.0039021093
0.011758978 0.02037567 -0.005803119 0.022151625 -0.01315508 0.032777224 -0.0055814646 0.017269755
-0.022602897 0.011549496 -0.0112092355 0.01797755 -0.115775645 -0.07528737 -0.058378562 -0.025769467
-0.02695548 -0.02224946 0.13084435 0.07612335 0.1018634 0.10256438 0.089122444 -0.044993214
0.06709622 0.035177067 0.045131627 0.11219175 -0.0018466254 0.0090031205 0.0067179203 0.008798694
0.04142355 -0.088412754 0.079629324 -0.03972953 -0.10631028 0.027024591 0.0038833378 0.06621975
-0.064054415 0.07878158 0.08112527 0.031818166 0.09206134 0.0066499067 0.1106226 0.08008195
-0.07843364 0.03683332 0.041447997 -0.0480282 0.07714905 0.03486723 -0.00853896 0.075984806
0.042132135 0.0881332 -0.045806993 -0.06224012 0.0052806893 -0.12791277 0.048899233 0.01872274
-0.07087767 0.010793273 -0.09921031 -0.12662339 -0.14338164 -0.026679754 0.059244838 -0.02747408
-0.028055346 -0.09910893 -0.05319704 0.08039357 -0.09054902 -0.038170896 0.046229865 -0.11173287
-0.04165698 0.042124927 -0.081201695 0.039013717 -0.07362602 -0.026865652 0.02131097 -0.036511373
-0.017551053 0.04690844 0.02326115 -0.0104169 0.032333348 -0.082023636 -0.015421919 -0.0142407445
-0.07663558 -0.019139305 -0.01548667 -0.00965678 -0.13687128 -0.009433568 0.095917985 0.019765252
0.023596413 0.06979392 0.08257579 0.10152119 0.07293019 -0.00094027154 0.1577007 0.03362143
-0.040592868 0.06468447 -0.021089293 0.027343806 0.03798123 0.0043342644 0.040080793 0.0041589816
-0.0739074 -0.03518682 -0.0254907 0.12789933 0.03752628 0.20606999 0.011397932 -0.0776684
-0.008548791 -0.02142432 0.020208385 0.015906567 0.013032234 0.04791815 -0.06036213 0.047578234
0.03978845 -0.042669594 0.018277302 0.009022711 0.011424634 0.0069696642 -0.078425914 0.017105898
-0.04429659 -0.0054544476 0.097857006 -0.01847208 -0.011637783 -0.017969653 -0.02912082 -0.022024218
-0.10216901 0.10901642 0.09592772 0.097867616 0.03941872 -0.008939626 -0.10606876 -0.059689775
-0.09636908 0.069546916 -0.045896977 -0.0021987006 0.06473256 -0.009245167 0.030279344 0.0047265366
-0.019730425 -0.042609725 0.012262454 -0.0034728027 0.002797465 -0.01899692 0.16633658 0.036443003
0.15034416 -0.07037468 -0.05581836 -0.03677063 -0.043855593 -0.024616145 -0.028063638 -0.006088317
-0.020982843 0.027606824 -0.029425738 0.008550684 0.012394877 0.09252166 -0.019533062 0.021688672

conv0.bn.weight f4 [8]
00000000: 304c 2b3e 7a30 563e f003 643d 8d81 0d3e
00000010: e8c4 d13d ee4d 313e bef3 2b3e e899 c53d
0.16728282 0.2091693 0.055667818 0.13818951 0.10242635 0.17314884 0.16792199 0.09648496

conv0.bn.bias f4 [8]
00000000: ae2f 723c 51a8 013d 33cf 4b3d 2483 8dbd
00000010: fd4c 243d 7701 c03b c923 bfbd b005 24be
0.014781876 0.03165466 0.049758147 -0.06909779 0.040112484 0.0058595496 -0.09332997 -0.16017795

conv0.bn.running_mean f4 [8]
00000000: 3bc1 d03c f8e7 a43c f4bf 0c3c 7e5a f03c
00000010: a440 883c cb73 9d3c 03af 813c f549 923c
0.025482764 0.020130143 0.008590687 0.029340025 0.016632386 0.019220253 0.015830522 0.017857531

conv0.bn.running_var f4 [8]
00000000: 7dbf 9c3a ac59 773a 128a ae39 aefc 853a
00000010: 7353 d239 7f47 6d3a c253 1e3a c109 673a
0.0011958923 0.00094356644 0.00033290737 0.0010222399 0.00040116496 0.0009051486 0.00060397026 0.0008813404

bottle_neck1.bottle_neck.0.conv.weight f4 [4, 8, 1, 1]
00000000: 9cc9 543e 9125 0abd 5e30 6abc 2def e6ba
00000010: 1975 1abb 476e 86bd eb4a cebc c53d d3bd
00000020: b262 9ebb 7b5b 42bb 3b33 683d 2f5a 0fbe
00000030: 7593 bebd 51c5 c23d 7b91 02be f837 c8bc
00000040: f680 a93b 4b4d 51bd 8530 5d3d 26f9 eb3d
00000050: 9902 373d ffc4 dd3d 8089 6ebe 3e7a 76be
00000060: 7cc0 963c bc43 a73e 85f5 7b3d 680b 11bd
00000070: 3fdd 0c3d f8bd 18be f44e 0b3d 6c9e 2cbd
0.20780033 -0.033727232 -0.014293758 -0.0017618887 -0.002356833 -0.065640025 -0.025182208 -0.10314516
-0.0048335427 -0.0029656577 0.056689482 -0.13999246 -0.09305469 0.09510291 -0.12750809 -0.02444075
0.005172844 -0.051099103 0.05400135 0.11522131 0.04468021 0.1082859 -0.2329464 -0.24070069
0.01840233 0.32668865 0.061513443 -0.03541127 0.034390684 -0.14916217 0.034010842 -0.04214327

bottle_neck1.bottle_neck.1.conv.weight f4 [8, 1, 3, 3]
00000000: 98ee 65bd 2e58 2dbd bf0a 003b 1a72 b43d
00000010: 62ab 923d b87a 553e 2bfa e3bc 2546 7cbd
00000020: 3799 8fbc 6267 013e 74bd fa3d 151e 4a3e
00000030: d808 ff3c 9c65 923d 0374 973d 03e5 593d
00000040: 47e3 903d e2eb 4a3c a5cb a7bc a7cf 9c3d
00000050: 17cb 6d3e be56 1a3a 59d6 ee3d 3492 6d3d
00000060: d6ee 293d e385 853c e501 483c c04c 9b3c
00000070: c589 5dbd c56e 323d 27ea 49bb 0eb7 e73c
00000080: 8b78 4fbd 8745 133d 12e2 28be 5c1e cb3d
00000090: ea27 1a3e c474 fd3d 6dc4 363e 0c7b 163e
000000a0: f6d0 813d b171 383e abc6 033e dc7d 0b3e
000000b0: f242 de3d dc58 10be 5174 3abe ae7b fbbc
000000c0: cd6f aebb 73cc d43c deae 39bd 616b eabb
000000d0: dab8 f2bd d3d5 29be b463 013d 055a d33d
000000e0: 1cdc 323d b917 dabd ba9f 10bd 7409 0cbe
000000f0: 95d2 8e3d 6e93 803d b2d8 f93d b8e8 a73d
00000100: c77b a13d 5c16 863c 7d62 3abc bfa0 683d
00000110: 4e44 ff3d ecb9 61bd 49da 023e 59a8 203e
-0.056135744 -0.042320423 0.0019537655 0.08810826 0.07161595 0.20847595 -0.02782925 -0.061590333
-0.017529113 0.12637094 0.122431666 0.19738038 0.031132147 0.07148287 0.07395174 0.05319692
0.070746 0.01238534 -0.020482847 0.07656794 0.23222004 0.00058875594 0.11661977 0.05800076
0.041487537 0.016299194 0.012207483 0.018957496 -0.054086465 0.04356267 -0.0030809732 0.02828553
-0.050652068 0.03595498 -0.16492489 0.099179 0.15054289 0.12375787 0.17848368 0.14695376
0.06338684 0.1801212 0.12868755 0.1362223 0.108526126 -0.14096397 -0.18208434 -0.030698624
-0.0053233863 0.025976395 -0.045332782 -0.007153914 -0.11851664 -0.16585474 0.031589225 0.10319904
0.043666944 -0.10649056 -0.035308577 -0.13675481 0.06973759 0.0627812 0.121995345 0.081986845
0.07884937 0.016368084 -0.0113760205 0.056793924 0.124642 -0.05510895 0.12778582 0.1568922

bottle_neck1.bottle_neck.2.conv.weight f4 [16, 1, 1, 1]
00000000: 12aa 053e 6126 b13c 6748 9ebb 0450 643e
00000010: 4a99 013e e7ab 293e ce78 bc3d 54df 603e
00000020: 6d52 99bd 83ef a4be 525a 48bd d50a 20bf
00000030: 9235 1a3e 7982 4a3e 6236 d0be 7584 9eba
0.13053158 0.021624746 -0.0048304084 0.22296149 0.12656131 0.16569482 0.09202729 0.21960193
-0.074864246 -0.32213983 -0.04891426 -0.6251653 0.15059498 0.19776334 -0.4066649 -0.0012093919

bottle_neck1.bottle_neck.2.bn.weight f4 [16]
00000000: c96f fa3d 4a5e b03c e425 b6bb 8ce1 623e
00000010: dd8d f93d 3507 243e c3b2 c23d 2ac5 753e
00000020: 929c 99bd f3cf b33e f8d1 9b3d af92 213f
00000030: 8fd1 0f3e 6667 333e b554 db3e 33dd c1ba
0.122283526 0.021529336 -0.005558716 0.22156352 0.121852614 0.16018374 0.09506752 0.24000993
-0.075005665 0.3511959 0.07608408 0.63114446 0.14044784 0.17519912 0.42838064 -0.0014790654

bottle_neck1.bottle_neck.2.bn.bias f4 [16]
00000000: 233e fdbd 98de 15bb 67c0 1dbd 8b7a 0dbd
00000010: e2c0 e53a 38e7 b9ba d0a1 2abe 173a b1bb
00000020: 222f 413d 6d9f f3bc 23eb 61bd ee1f 52bc
00000030: 2fab 88bd acab 1c3a 89b5 993d 8efc b53d
-0.12365367 -0.0022868272 -0.038513567 -0.034540694 0.0017528797 -0.0014183288 -0.16663289 -0.005408536
0.04716409 -0.029739106 -0.055155884 -0.012824995 -0.06673276 0.0005976509 0.07505328 0.088860616

bottle_neck1.bottle_neck.2.bn.running_mean f4 [16]
00000000: f061 563a 7610 0e39 d076 67b5 7e72 823b
00000010: 6b44 f83a 3884 223b 8fd4 9138 c7fe 2d39
00000020: 1711 6ab8 e7cb 7bb9 0a86 a737 78d1 8539
00000030: 7324 0a3b 1169 353b 0a7c bcb8 8d7f 8fb4
0.0008178046 0.00013548307 -8.62271e-07 0.0039809337 0.0018941289 0.0024798047 6.953731e-05 0.00016593478
-5.5805864e-05 -0.00024013185 1.9970368e-05 0.00025523803 0.0021078854 0.0027681033 -8.987643e-05 -2.672863e-07

bottle_neck1.bottle_neck.2.bn.running_var f4 [16]
00000000: 2887 d835 b82a 3e33 ef00 0f2b 487c 3537
00000010: 5e98 d435 3a32 3636 4b5b b932 25ef 0334
00000020: 21cd c72f 5937 e731 2b00 082f 5d8f ad32
00000030: 690b e036 8b2f 4137 260e a631 4f7f 4029
1.613259e-06 4.4276675e-08 5.08051e-13 1.0817377e-05 1.5839576e-06 2.714935e-06 2.157835e-08 1.2287326e-07
3.6343642e-10 6.729277e-09 1.2369188e-10 2.0205045e-08 6.6770485e-06 1.1514766e-05 4.8328443e-09 4.2742987e-14

conv1.conv.weight f4 [16, 1, 1, 1]
00000000: b47f 143e 2b72 563e af9a 27be 1da9 11bd
00000010: 31db 383e 5e30 26bd 3e51 ab3d ee64 22b9
00000020: b3dc 243e ae04 12be 439d 083e aafa dbbd
00000030: 088d c6bd 174d 0a3d 81e9 e73a 1b64 b9bd
0.1450184 0.20941989 -0.16367601 -0.03556167 0.18052365 -0.04057347 0.08365105 -0.00015487123
0.16099815 -0.14259598 0.1334124 -0.1074117 -0.09694868 0.033764925 0.0017693491 -0.09052297

conv1.bn.weight f4 [16]
00000000: 7b8f ca3d 7b57 3d3e d9e5 163e 0fff d33c
00000010: 2c66 0a3e a11b 25bd 6a44 483d b8a9 2039
00000020: a720 253e 02fe d53d c921 bd3d ef84 243d
00000030: 833b cf3d 41bf 033d 4138 e8ba db89 6f3d
0.09890648 0.18490402 0.14736117 0.025878457 0.13515538 -0.040309552 0.04889337 0.00015322014
0.16125737 0.10448839 0.0923496 0.040165838 0.10118773 0.032164816 -0.001771696 0.05848108

conv1.bn.running_mean f4 [16]
00000000: 135e 323c 1eca 803c c859 283c 2f4f 123b
00000010: 672b 133c ae5a a9b7 1c2b 383b 714f 8637
00000020: 669a 1b3c fba9 2c3b af74 1d3c 6db5 e83b
00000030: a4e2 553c 2ac1 b23a b26a 1937 ea9a 773c
0.010886687 0.015721377 0.010275312 0.002232503 0.008982516 -2.0188596e-05 0.0028101867 1.6011038e-05
0.009497261 0.0026346433 0.009610339 0.0071017058 0.013054524 0.001363789 9.144353e-06 0.015112618

conv1.bn.running_var f4 [16]
00000000: 14cd b039 c059 383a 6d1a 9838 acc3 6536
00000010: 578f cd38 1b1a 0830 d98d ed37 4b5a 4e2f
00000020: e318 4d39 2a31 2337 9fc0 a339 77be f937
00000030: 61d0 9d38 9612 2637 98e1 0631 c2e6 5938
0.0003372213 0.0007032417 7.252847e-05 3.4237555e-06 9.801861e-05 4.951361e-10 2.8318655e-05 1.876767e-10
0.00019559595 9.727004e-06 0.00031233297 2.9771805e-05 7.525157e-05 9.898698e-06 1.9627802e-09 5.195174e-05

bottle_neck2.bottle_neck.0.conv.weight f4 [8, 16, 1, 1]
00000000: 148d 5bbd 6074 18bd 569f 873c 1eb2 05be
00000010: ebd7 cd3c ec00 04ba e447 43bd db7c 06bd
00000020: fde8 f03b 8993 0c3d b4cf 733d 5dc4 083e
00000030: 4138 1e3e f271 363e d2c3 e8bc 2a0a 3c3d
00000040: 8856 aebe 7fd6 3ebe b526 533d 4144 a83d
00000050: df4d 813d d45d c53d dd4e d5bd 3184 9f3d
00000060: 9f15 963d 9cfc 6b3d c764 c13c 2bf1 533d
00000070: 2c7b e33b 62df 4c3d e8bf 903d 3ae7 ea3d
00000080: 5c99 1f3c 0438 cc3d 009f 183c ff29 913c
00000090: bb50 973d 05bd f23d 858b 3bbe 9ff2 b3bb
000000a0: e94f 863d 9f8f bd3d e213 633d 6f76 d3bd
000000b0: 3e8c 583d e453 9b3d 3150 973c 463f ef3d
000000c0: e1d8 dfbc f709 e13a 9f72 08be 6056 09bd
000000d0: c202 9dbc f96e adbd 86ff 1ebd 234e 07be
000000e0: 1da2 573e 398b 1fbe 15c4 b9bd 0473 acbc
000000f0: 6df0 a73c b628 4abb 668a 6b3d 402f 4e3d
00000100: f557 183c 56e9 e53a f6f7 d9bc b840 bbbc
00000110: 23b9 093e 4b09 b33d ef4d 95bc 7db2 cdbd
00000120: 63b7 f13c 4e9d 083d c965 08bd 7a47 8cbe
00000130: 982a 1abe c134 dfbd b570 65bd dc45 60bd
00000140: 19a6 3ebc 5e90 a93c 627a 8dbd d1b6 093e
00000150: 7724 f8bd ed38 99bd a0d8 63bd f6d1 003b
00000160: 0d08 0f3d 40d0 21bc 10e3 2bbe be79 9f3d
00000170: 463b a7bd 4060 9abd 3607 0f3e 6e6a 523d
00000180: 58de b9ba 4015 913d 3dc6 f43d 02f4 bc3d
00000190: 835c 80bd 99a7 143d b524 9bbd 9f6a 013b
000001a0: 5542 71be 351f 013e 7a69 533d d911 d13d
000001b0: 1908 49be 17ae f1bd ea1d 803e 5ca8 003e
000001c0: 3621 5ebe ac43 21be db9a 1d3d 83c0 233e
000001d0: 6a1b cd3b 00d5 3b3d 0ced a9bb 95bb 853d
000001e0: f42b 413c 440f 503d a4e0 24bc 1186 55bc
000001f0: 84ca 85bc a269 13bd c3aa 0b3e f93c 263d
-0.05360134 -0.03722036 0.01655547 -0.13056228 0.025127372 -0.0005035538 -0.047675982 -0.032833915
0.007351993 0.034320388 0.059524253 0.13356157 0.15451147 0.17816904 -0.028413687 0.04590813
-0.34050393 -0.18636511 0.051550586 0.082161434 0.06313681 0.09637037 -0.104154326 0.077888854
0.07328343 0.057613954 0.023607625 0.051743668 0.0069421735 0.050017722 0.07067853 0.11469884
0.009741154 0.09971622 0.009315252 0.01772022 0.07388445 0.11852459 -0.18314941 -0.005491569
0.065582104 0.09255909 0.055438884 -0.10325324 0.05286812 0.0758436 0.018470855 0.1168199
-0.027325096 0.0017169107 -0.13324974 -0.03352964 -0.019166354 -0.08468432 -0.038817905 -0.132134
0.21057935 -0.15580453 -0.09070603 -0.021050937 0.020500386 -0.003084702 0.057505034 0.05033803
0.009298314 0.0017540853 -0.026607495 -0.022858009 0.1344953 0.08742007 -0.018225638 -0.100438096
0.02950639 0.033353142 -0.033300195 -0.27398282 -0.1505531 -0.10898734 -0.05601569 -0.054754123
-0.01163628 0.020698722 -0.06908108 0.13448645 -0.1211633 -0.07481561 -0.05562651 0.0019656396
0.034919787 -0.009876311 -0.16785836 0.07786892 -0.081656024 -0.075378895 0.13967595 0.05137103
-0.0014180643 0.07084131 0.119518735 0.09226228 -0.06267645 0.036292646 -0.07575361 0.001974739
-0.2356046 0.12609561 0.051614262 0.10208482 -0.19631995 -0.11800783 0.25022823 0.12564224
-0.21692356 -0.15748471 0.03847776 0.15991406 0.0062593715 0.04585743 -0.005185729 0.06529919
0.011790264 0.05079581 -0.010063324 -0.013032452 -0.016331919 -0.03598941 0.13639359 0.04058549

bottle_neck2.bottle_neck.1.conv.weight f4 [16, 1, 3, 3]
00000000: 76b7 cd3d 106f c83d 3b07 af3d 07ae a13d
00000010: 0af3 5a3d 546d b43d a1f2 7e3d f51f 803d
00000020: 386d f53d f84c ce3d 51b9 83bd 7c44 f83d
00000030: da1f 5d3d 9753 ecbd 80f3 ac3d 0f26 c03d
00000040: eac5 96bd 5aa4 02bc 55db 6ebd e35a 10bd
00000050: aeb1 ab3d 2942 22bd 3b60 46bd ebff 72bc
00000060: 69ef 973d 5832 223e e1d8 d33d f86e 663e
00000070: 68a2 123e 9711 503e 03ef 793e 919d 803d
00000080: 50fd 923d ff3f 793e 0d0a 503e 2e61 103e
00000090: e654 32bd 757c 54bd 3daf e33d 14aa 00bd
000000a0: 3c74 5ebc e268 043d eb91 5e3b afc3 bb3d
000000b0: 6bdc 473e f5fb 003e 1452 7d3e 212f 153e
000000c0: 424a 96bc 6331 33bd e365 4cbd 9e4e 7ebc
000000d0: 850a 84bb df1c 32bd 3250 623d 225c cc3d
000000e0: 160f b43d 4e29 343c 966a bd3b f5ed 98bd
000000f0: a48f 9bbd 6105 bbbd 86f3 5abd 6dbc 75bd
00000100: fda0 c33c 8c3a a53d 8ee2 1d3d 3ffa d93c
00000110: 9e53 cd3d ff5a 873c 5630 8c3d bdbb 233e
00000120: 795b 0a3e a405 5ebc 25ae fabb 9216 0d3e
00000130: 404c b53c 6d6e 8d3c babf 403e 4fb8 b83d
00000140: 21b7 073e b8e0 75bd 10a0 9dbd 2cba 85bb
00000150: 020b 743d 7c99 813d b158 163e e9c3 b8bc
00000160: 7008 9ebd e8ae 75bd 63d3 b8bb 8992 9d3c
00000170: a23c dc3d 9bb9 1fbd 2ddf 3fbc 5220 ef3d
00000180: 2e3f e6bc 5bbd e23c 9682 223e 12fc a2be
00000190: 57a5 3bbe 2da2 16bd 7946 7ebe 1d12 11bd
000001a0: 8da1 5d3d 0e37 67be 64f1 e8bd acf2 a3bc
000001b0: f992 e0bc 3223 09be 2d47 c8bd 63e9 d5bd
000001c0: 3464 8fbe 107e 4ebe 769c 57be 1aca a8be
000001d0: 14e1 78be f1e2 f2bd 3fee 08be 9657 1ebe
000001e0: 58d0 89bd 5dcc b8bd 4ac7 19be ed69 40be
000001f0: 8606 86be 3d88 6ebe 4199 0c3e 89c9 503e
00000200: 18c3 a83c 8268 78bd 442e f63c d0c9 0c3d
00000210: 8aef 513c c9de 673d c3b8 023d b15d 66bd
00000220: 2cc9 8bbc f136 9cbd d1b0 cd3d 5758 0a3d
00000230: 9447 423e de91 efbd e527 07bd 184e b2bd
0.10044758 0.097868085 0.08546301 0.07894521 0.053454436 0.08809915 0.062243108 0.06256095
0.119837224 0.100732744 -0.06431831 0.12122437 0.053985454 -0.11539381 0.084448814 0.09382259
-0.07361968 -0.007973755 -0.05831464 -0.035242926 0.08383499 -0.039613876 -0.048431616 -0.014831523
0.07418711 0.15839517 0.10344101 0.22503269 0.14319766 0.2031921 0.24407582 0.062800534
0.07177222 0.24340819 0.20316334 0.14099571 -0.043537997 -0.051876504 0.111174084 -0.0314122
-0.013577517 0.032326587 0.0033961486 0.09168183 0.19517677 0.12596114 0.24738342 0.1456876
-0.018345956 -0.04374827 -0.049901854 -0.0155216735 -0.0040295743 -0.043484565 0.05525226 0.099785104
0.0879194 0.010996176 0.0057805283 -0.07467262 -0.07595757 -0.09131885 -0.0534549 -0.05999415
0.023880476 0.080678076 0.038546138 0.026608584 0.10025714 0.016522883 0.06845157 0.15989585
0.13511457 -0.0135511495 -0.007650154 0.13778141 0.022131085 0.01726457 0.18823138 0.09019529
0.13253452 -0.06002876 -0.07696545 -0.0040810313 0.05958081 0.06328103 0.1468227 -0.022554355
-0.07716453 -0.059981257 -0.0056404336 0.019234912 0.10753752 -0.038995367 -0.011710924 0.116760865
-0.028106298 0.027678182 0.15870127 -0.3183294 -0.18324791 -0.036775757 -0.2483157 -0.035417665
0.054109145 -0.22579595 -0.113741666 -0.020013176 -0.027413832 -0.13392332 -0.09779201 -0.104449056
-0.28006136 -0.20165277 -0.21055779 -0.3296669 -0.2430461 -0.11859692 -0.13372134 -0.15463099
-0.067291915 -0.09023354 -0.15017429 -0.18790407 -0.26176852 -0.23294158 0.13730337 0.2038938
0.02060084 -0.06064654 0.030051358 0.03437215 0.012813458 0.05660895 0.031914484 -0.056241695
-0.0170637 -0.07627667 0.10043491 0.033775654 0.18972617 -0.11697744 -0.03299703 -0.087063015

bottle_neck2.bottle_neck.2.conv.weight f4 [32, 1, 1, 1]
00000000: 3122 073e 80c3 473e 39ca 403e 1971 1abd
00000010: 5839 593e 43e1 77bc 5e85 abbc a1ea e5be
00000020: fa00 b9bc 5305 783e a967 f6bd e790 513e
00000030: 7d96 46bd 15a7 353e 2e79 a2bc 663a 833e
00000040: c45b 593e b0ee 01be 5496 9fbb ebd0 da3d
00000050: 8603 b33e d5bd 903d d616 f0bd b5d1 92be
00000060: bad3 c9be 33f6 c7bd 1572 23be a89f 8ebe
00000070: 8fda 953e 2e2d 83ba a2be 373e ce2e 603e
0.13196637 0.19508171 0.18827142 -0.037705515 0.21213281 -0.01512939 -0.020937618 -0.4490557
-0.022583473 0.24220781 -0.1203149 0.20465432 -0.04848336 0.17739518 -0.019833174 0.25630492
0.21226412 -0.12688708 -0.0048702154 0.10684379 0.34963626 0.070674576 -0.117231056 -0.2867562
-0.39419347 -0.09763756 -0.15961488 -0.27856183 0.2926831 -0.0010007971 0.17943814 0.21892855

bottle_neck2.bottle_neck.2.bn.weight f4 [32]
00000000: 5e13 df3d 4642 323e dfbe 1b3e a890 1b3d
00000010: faf0 603e d77d 78bc 95cf a9bc 1fe6 eb3e
00000020: 8ebf c03c f77e 8e3e 9f5b 113e 750f 5a3e
00000030: d531 813d 1861 2a3e a12f a3bc 41df 8b3e
00000040: 10ed 8e3e b370 103e c459 a0bb 1602 fc3d
00000050: 95c1 c53e a6e7 793d 4b1d f23d f884 973e
00000060: 4e4a ca3e 3a89 cabd 5725 2b3e b1a7 983e
00000070: 0da5 963e ced9 903a cb7b 463e c28f 653e
0.10892366 0.17408094 0.1520953 0.03797975 0.21966925 -0.015166721 -0.020728866 0.46074006
0.02352884 0.2783124 0.14195107 0.21294959 0.06308333 0.16638601 -0.019920172 0.27318767
0.2791524 0.14105491 -0.0048935134 0.12305085 0.38624254 0.061011933 0.118219934 0.29593635
0.39509815 -0.09889455 0.16713463 0.29815438 0.294228 0.0011051239 0.19383161 0.2241812

bottle_neck2.bottle_neck.2.bn.bias f4 [32]
00000000: 2917 cabc e096 dabc 4c0a f0ba 717f b4bd
00000010: 3540 da3c 3de7 433d 778f 25bd 4377 893b
00000020: 0e11 883d e900 103c 26ce 9bbc 7385 7b3b
00000030: 031f c83d dea2 0f3d 0390 2c3e 6f96 a7b7
00000040: 3aa3 b6bc e439 8bba db50 35bb 4b30 76bd
00000050: eb60 14bd 1806 7abd b410 00bd 3ac2 13bc
00000060: 670e 10bc f595 1fbc 9561 06be 82e9 46bd
00000070: 2d58 5dbb 474e babc 040f 0bbe 8f03 4e3d
-0.024669247 -0.02668327 -0.0018313616 -0.0881337 0.026641944 0.047827948 -0.04042002 0.0041951253
0.06643878 0.0087892795 -0.019019198 0.0038379102 0.0977154 0.03506743 0.16851811 -1.9978002e-05
-0.02229463 -0.0010622111 -0.0027666602 -0.06010465 -0.03622524 -0.061040968 -0.03126593 -0.009018475
-0.008792496 -0.009740342 -0.13123162 -0.048562534 -0.003377448 -0.022742404 -0.13579947 0.050296362

bottle_neck2.bottle_neck.2.bn.running_mean f4 [32]
00000000: 4c07 8d3b 5d7a d03b 62a3 be3a b206 37b6
00000010: 3dcc b63b 90e5 6ab6 900e 1ab8 b281 4eba
00000020: 42aa e5b6 5693 f53b 8ce6 32b8 ca31 f73b
00000030: 699c 7d35 96ef 4f3a bc40 bbb6 a78d ec3b
00000040: 943c da3a 6dbd 24b7 cfaf 1232 8248 2e39
00000050: 8bca b53b bbfc 923a 3a1d 7f38 db01 1c39
00000060: e0af a339 952c a238 ca83 dd38 914b 4139
00000070: b67e ea3b 2ce0 82b4 5141 943a 03e2 b43a
0.0043038484 0.006362243 0.0014544541 -2.7273022e-06 0.0055785463 -3.500234e-06 -3.6730024e-05 -0.00078776025
-6.8445524e-06 0.0074943705 -4.265322e-05 0.007543777 9.447745e-07 0.00079321244 -5.5805704e-06 0.0072190347
0.0016650134 -9.819266e-06 8.538293e-09 0.00016620944 0.0055478266 0.0011214236 6.0823957e-05 0.0001487801
0.0003122082 7.733066e-05 0.00010562649 0.00018434065 0.0071562184 -2.4377493e-07 0.001131097 0.0013800267

bottle_neck2.bottle_neck.2.bn.running_var f4 [32]
00000000: f783 1f37 f64a ae37 74cc fb35 ec5b 1e2d
00000010: 9cea dd37 8d37 a12d 0fb4 9e2f bd94 0e34
00000020: 10f3 d72d 16ac d637 8924 8d30 568e cb37
00000030: 196b 582e 2e96 ef35 ff6e a12d f818 0038
00000040: 70c2 0837 43a2 a12f 897b bc29 09a5 4034
00000050: 24ae dd37 90ec 9035 33a6 2f31 c05e 8332
00000060: 9304 5f33 1dea 5a31 6864 ca31 1d1c 9a32
00000070: 13b6 ce37 4cee 0329 89ec 8436 8fde c536
9.507864e-06 2.0777323e-05 1.8760461e-06 9.001671e-12 2.6454501e-05 1.832825e-11 2.8867972e-10 1.3278891e-07
2.4550612e-11 2.5590922e-05 1.0269484e-09 2.4265766e-05 4.9207836e-11 1.7850596e-06 1.8352873e-11 3.0540832e-05
8.151503e-06 2.9401023e-10 8.370307e-14 1.7941433e-07 2.6426344e-05 1.0797685e-06 2.5560325e-09 1.5293494e-08
5.1925394e-08 3.1856253e-09 5.8903886e-09 1.7940744e-08 2.4641899e-05 2.9294533e-14 3.961443e-06 5.8969667e-06

conv2.conv.weight f4 [32, 1, 1, 1]
00000000: 8111 1ebe 8bb5 3b3e fce3 31be 622b 913e
00000010: 8e7c 203c a0e0 773e d92f 02be 6e18 dd3d
00000020: 4478 573e 09b3 1b3c c8b3 b5bd 936f febd
00000030: aa55 ae3e d275 29bd 7679 f63d 0e8c 2fbc
00000040: d3dd f73d 5e0d 713e 418f 36be 27c8 3e3e
00000050: 2759 d7b1 a0e5 293e 4559 2f3e 6572 89bd
00000060: df23 48bd dbe3 a4bd ebf0 cdbd 9a21 6baf
00000070: d2d8 d23d 855c 723e a34e 5ab4 690e 4f3d
-0.15436365 0.18330972 -0.17372125 0.2835341 0.009795321 0.24206781 -0.12713565 0.10795675
0.21041971 0.0095031345 -0.08872181 -0.12423625 0.34049731 -0.041372128 0.120348856 -0.010714544
0.121028565 0.23540255 -0.17828085 0.1863104 -6.267459e-09 0.16591501 0.17123897 -0.06711272
-0.048862334 -0.080512725 -0.10055717 -2.1385063e-10 0.102952614 0.23668106 -2.033144e-07 0.050550852

conv2.bn.weight f4 [32]
00000000: b922 0c3e ff4a b03d aeec 173e 8beb 783e
00000010: f19b 20bc fd49 a13e 6f49 dd3d 6716 b23d
00000020: 45b3 403e 2a52 143c 4d6e 853d 8dd5 e1bd
00000030: c1a6 b93e 2db4 083d f460 313e 4780 2d3c
00000040: 20a1 c23d 8968 5f3e cc48 143e f7fa f63d
00000050: 461f d631 e180 bd3d 7a77 223e c02f 9b3d
00000060: d8e8 ad3c d7b8 ad3d 0f73 b03d e2b0 692f
00000070: 8337 c73d c77a 583e e3cf 7e34 8dcc cdbc
0.1368512 0.08608054 0.1483638 0.24308603 -0.009802804 0.3150176 0.10805022 0.08695679
0.18818386 0.009052793 0.06515179 -0.1102706 0.36260036 0.033374954 0.17322141 0.010589666
0.095033884 0.21817221 0.14480895 0.120595865 6.231775e-09 0.09253097 0.15865889 0.07577467
0.021229193 0.08482521 0.08615696 2.1254068e-10 0.09727385 0.21140586 2.3731222e-07 -0.025121951

conv2.bn.running_mean f4 [32]
00000000: 5692 dc3c f653 873b 8fe5 fc3b 89c5 453d
00000010: 61d3 c039 cce9 143c e6ef 153c 0055 0d3c
00000020: bb5a da3c a5c8 9d3a 2c45 b43a 386e fc3a
00000030: ec77 86ba 7a3b 4c3c 8a18 463b 8358 7938
00000040: b588 bb3c dd60 363d 971c dd3b f1ae 823b
00000050: 8702 fe2f 1785 da3b 2e58 8e3b 7d96 b839
00000060: c816 073b a797 5e3b 9228 ce3a 4160 6b2c
00000070: 12df 813c 5e48 153d 757a ecaf 8b3a 2f3c
0.026925247 0.004129882 0.007717795 0.048284087 0.00036778583 0.009088945 0.0091514345 0.008626223
0.026654592 0.0012037946 0.0013753525 0.0019258922 -0.0010259128 0.012465352 0.0030227029 5.944866e-05
0.022892335 0.04452597 0.006747793 0.00398814 4.6204127e-10 0.0066686976 0.004344008 0.00035207337
0.0020612944 0.0033964904 0.0015728644 3.344894e-12 0.015853439 0.036445968 -4.301516e-10 0.01069511

conv2.bn.running_var f4 [32]
00000000: 2cd3 f739 9dda b638 df2e c738 c518 4f3b
00000010: fa3b bb32 2855 5f37 f0c5 0539 dc8b 1e39
00000020: 046d d43a cad6 5d36 4904 0537 0e69 8237
00000030: 9618 1333 f1a8 a936 f67e 8737 9722 1732
00000040: e8fb 053a cc6f fd3a 2387 d838 ff5f 3637
00000050: b058 7820 7053 0239 7124 3037 dc64 c435
00000060: a333 0a37 129d bb37 3a32 4637 b72d 811a
00000070: 3b43 2035 24c0 5336 db68 9e1b c8f4 2d34
0.00047268847 8.719156e-05 9.49779e-05 0.0031600457 2.179694e-08 1.3311663e-05 0.00012757606 0.00015120156
0.0016206806 3.305659e-06 7.9284155e-06 1.5546128e-05 3.4248465e-08 5.05626e-06 1.6152375e-05 8.797222e-09
0.00051110843 0.0019335686 0.00010324854 1.0870396e-05 2.1035761e-19 0.00012428849 1.0498902e-05 1.4632492e-06
8.237464e-06 2.2365279e-05 1.1813414e-05 5.3427006e-23 5.970248e-07 3.155329e-06 2.6206669e-22 1.6200931e-07

bottle_neck3.bottle_neck.0.conv.weight f4 [16, 32, 1, 1]
00000000: 309b 96bd 7733 d6bd 40ea 70bd 6762 763d
00000010: f49b 5f3d c50f 763d f1e8 903d b0ca 23bd
00000020: 9cbd 7ebb c934 cabc 978d 95bc 6e85 f73c
00000030: 42de 453d 683d d8bd c2ed 6b3d 883f 8a3c
00000040: 9120 35bd 0311 5e3c 8884 913c d720 e0bb
00000050: bfc2 333d 45de cc3b 97ea 8bbd 8e28 6c3c
00000060: 8372 2e3d b5c9 fdbc 1385 813c 3b78 5a3d
00000070: 35aa 3b3e eaa2 2c3b 6aa9 6dbe dd95 ffbd
00000080: a896 243c b6f4 6e3d 7070 d23c e38b d53c
00000090: b055 64bd cfe3 f53c 68de ca3c 6f06 8fbd
000000a0: 82bf e93d 57e5 e53c 942e afbd c071 6f3e
000000b0: 2c11 8abd 5745 623c 22bb dc3c 0298 2a3e
000000c0: ac86 05bd a67f 233e ae38 d53d c4d0 c1bc
000000d0: cbf4 d73c 1dd9 6abc 9c41 09bd d7d4 b6bd
000000e0: 1132 0ebe 2fdc 4dbd fe04 8bbd 5d81 04be
000000f0: ec90 533a 959e b3bd e3f0 efbc e42f 56bc
00000100: b3cc d03b adcf 08be 2ac2 98bc 06b6 fc3a
00000110: b534 a83d ae58 f6bd 36bc 71bd 6fd1 723c
00000120: b195 033e d822 03bd 8814 3c3c 612c c0bd
00000130: c04a a4bc 711d 57bd a9a0 83bd dd65 57bd
00000140: 37ac 243e d74f 01be 6284 b33b cd5f 20bd
00000150: b032 3abc c7da 87bb 5038 5cbd 94fd 0a3c
00000160: febf eb3d 681c 7f3d b4f8 973d 65be f83c
00000170: 81c6 b83d eda7 f93d 682a 2d3d 1292 c03c
00000180: a877 113d d96f 52bc 1747 3e3d a602 14be
00000190: c129 b23d 1b5c 5d3d 4281 11be 8b1e 243e
000001a0: 9897 d03d b40b 163e 5732 e7bb aaf0 903c
000001b0: 4503 d63d 245d 8dbc 577c ce3c f72d 3fbc
000001c0: b488 4d3d 9f2a b03c f315 5c3d 5bc5 70bd
000001d0: e7a4 c33c 7605 fcbc 9c2e 0e3c aebd 1e3b
000001e0: ea92 223d 01d9 253d 8207 07be d187 a2bd
000001f0: 89b3 8dbd 7102 693d 52b1 e03c c10b 053e
00000200: 29a8 4abc 7add 91bd a393 a13c 954a 9cba
00000210: 67d3 893c 92ac a23c 06f0 dcbd 5588 b93d
00000220: 0f66 37bd fafe 1abd 894d f73d 1462 1abe
00000230: 8f02 383e aad6 193d 90a3 143e 4f00 db3d
00000240: 878b 01be e0e5 c63d 9018 453e b400 90be
00000250: 1ec4 c53e 4dc7 33be 89ac 99bd 974c e4bd
00000260: 4db3 d23c cf2a d83d 90bf 0bbd 9adb 70bd
00000270: 59e9 aa3d b5b6 363e 1c9a 033d 6fc4 243e
00000280: d3fe a7bd 708d 143d 549f f5bd 2825 fbbc
00000290: ba95 723d f84e 8abd 7ad5 803c 4b79 ee3c
000002a0: c60f 273e fadb 153d de1f dcbd e8a4 cb3d
000002b0: d34f ddb9 c90f 583e 4013 123e f027 793d
000002c0: 5a78 613d 094e 4f3d 4949 3cbc 9500 a63d
000002d0: 9480 d63d 9fe6 22be 0344 af3d 4d10 96bc
000002e0: 9e36 8f3d 5911 b83d a5e2 12bd 22ee 1ebd
000002f0: 8e19 903c 514d 203e 6227 c1be ad3a 83be
00000300: 163d 10bd 4097 1cbe cb31 02be 50f2 643d
00000310: 3fe6 e2bc 4a30 fe3d 44a4 b6bd 44b3 053d
00000320: 8172 bd3d 8db4 153e 0351 6bbd 1799 093d
00000330: 7b79 b83b 4c2d 86bd ea4e 703d 9cc6 403c
00000340: 2868 0d3e 71b8 b83b a1a3 5abd ce66 d4bc
00000350: ef07 0fbd 7c1c ed3c 038c fbbd 0fa1 8d3d
00000360: f86c a9bc 7e52 2e3d a8ed f6bd 4521 95bd
00000370: a0d7 bdba 1515 a2bb e979 32bc a13d 4a3d
00000380: 4532 b83d 6cf5 833d 6fee da3d 4318 bb3c
00000390: 3215 1dbd 163f 563e 4bd0 b5bc a44b ac3d
000003a0: 01d5 38be 93fa 0c3a efc6 a63d d816 0cbd
000003b0: 4961 bc3e 93ae b3bd 03ca 893e 95d1 493c
000003c0: 67ce cfbe d478 77bd b2ac 873c 71c3 f8bd
000003d0: 6634 8d3d 994c e43d ee0c e13d 33d0 acbe
000003e0: f9a0 88bc 7029 17be b6b7 b0bd c1b4 b2bd
000003f0: 6017 fe3d 3fb4 a23d 2593 cabc ec2f 153e
-0.073538184 -0.10459035 -0.05881715 0.060152438 0.054592088 0.060073633 0.0707568 -0.03998822
-0.003887034 -0.024683373 -0.018255992 0.030214991 0.048307665 -0.10558587 0.05759979 0.016875997
-0.04422051 0.013553861 0.017763391 -0.0068398523 0.043886896 0.0062520825 -0.06831854 0.014413966
0.042589676 -0.03097997 0.015810525 0.053337317 0.18326648 0.0026342222 -0.23209158 -0.12479756
0.010045685 0.058338843 0.02568838 0.02606768 -0.05574578 0.030015854 0.024764255 -0.06983649
0.1141348 0.02806346 -0.08553806 0.23383236 -0.067415565 0.013810477 0.0269447 0.16659549
-0.032599136 0.15966663 0.104112014 -0.023659118 0.026361844 -0.01433399 -0.033509836 -0.08927315
-0.13886286 -0.05025881 -0.067880616 -0.12939973 0.0008070606 -0.087704815 -0.029289668 -0.013072941
0.0063720583 -0.13360472 -0.018647272 0.0019280321 0.08213178 -0.12028633 -0.059017383 0.014820441
0.12850071 -0.03201565 0.011479504 -0.093834646 -0.020055175 -0.052518312 -0.06427128 -0.05258738
0.1608132 -0.12628113 0.0054784277 -0.039153863 -0.011364624 -0.0041459533 -0.05376464 0.008483309
0.11511229 0.06228295 0.07420483 0.030364225 0.090222366 0.121902324 0.04227677 0.023507152
0.035514504 -0.012844049 0.046454515 -0.14454135 0.0869937 0.054042917 -0.14209464 0.16027276
0.10185164 0.14652902 -0.0070555615 0.017692883 0.10449842 -0.017256327 0.025205774 -0.011668674
0.0501792 0.021504698 0.05373187 -0.058781963 0.023882343 -0.030764323 0.008678105 0.0024221945
0.03969089 0.040490154 -0.13186458 -0.07936061 -0.06919009 0.056887094 0.027428303 0.12992765
-0.012369194 -0.071223214 0.019723719 -0.0011924083 0.016824437 0.019857679 -0.10787968 0.090592064
-0.044775065 -0.03784082 0.120753355 -0.15076476 0.17969726 0.037558235 0.14515519 0.10693418
-0.12650882 0.09711814 0.19247651 -0.28125536 0.38626188 -0.17556496 -0.075036116 -0.11147421
0.025720263 0.1055504 -0.034118235 -0.05880318 0.08345289 0.17843135 0.032129392 0.16090558
-0.08202901 0.036267698 -0.1199328 -0.030657366 0.05922482 -0.06753343 0.015726794 0.029110571
0.16314611 0.03658674 -0.10748266 0.09943563 -0.00042211878 0.21099772 0.14265156 0.060829103
0.055046417 0.05061153 -0.011492082 0.0810558 0.10473743 -0.15908287 0.08557894 -0.01831832
0.06992839 0.08987684 -0.035860676 -0.03880132 0.01759031 0.15654494 -0.3772536 -0.25630704
-0.035214506 -0.15292072 -0.12714307 0.05589515 -0.02769768 0.12411554 -0.0891805 0.032641664
0.092503555 0.14619656 -0.057450306 0.033593263 0.005629716 -0.065516084 0.05866901 0.011766102
0.13809264 0.0056372215 -0.053378705 -0.025927927 -0.034919675 0.028944246 -0.122825645 0.06915485
-0.020681843 0.04255914 -0.12057048 -0.07281736 -0.0014483817 -0.004946361 -0.010893323 0.04937518
0.08993963 0.06443295 0.10690009 0.022838717 -0.03835029 0.20922503 -0.022194048 0.08412865
-0.18050005 0.00053779146 0.08143412 -0.034201473 0.36792973 -0.08773532 0.26911935 0.012318035
-0.4058716 -0.060417965 0.01656184 -0.121466525 0.0689476 0.11147422 0.10988794 -0.33752593
-0.01667832 -0.14761901 -0.0862879 -0.08725882 0.12406802 0.079445355 -0.024728367 0.14569062

bottle_neck3.bottle_neck.1.conv.weight f4 [32, 1, 3, 3]
00000000: 8218 82bd b204 8abd 7f5e b83c ce71 41bb
00000010: fe3d b1bd dfe8 5ebd 80c2 e33d 98ad c13d
00000020: e65a 4e3d bc20 393d b67f 2b3e 922a 2f3d
00000030: af73 5b3d 563e a43c 9b35 6cbd a558 78bd
00000040: 69f5 9cbc 6b49 debd eb15 e43d 2a0d 0e3d
00000050: ac45 d03d 4f13 82bd 277e acbd c8e1 143a
00000060: 88f6 94bd 99c2 85bd 13ff 05bb 98af e93b
00000070: b662 d0bd dfb2 33bd 175b 123e 4d93 123b
00000080: f095 ec3d d4ab 163d 9bae 8fbd aa5c 123d
00000090: 85bc 953c c6bf 303d bc01 fa3d 093d e9bd
000000a0: baac 31bd c919 883d 101d 8e3d 6bac ea3d
000000b0: 8df9 313e 8a42 81bb 0ee3 05bc a88b e9bd
000000c0: 06e5 37bc 0a03 eb3d fabc fb3c d7eb 29be
000000d0: f102 d13d e875 b23d 318b 7a3c db86 6cbc
000000e0: 6557 c5bc 1598 fb3d 456b 953d 8512 eaba
000000f0: 9626 eabd f94e e1bd 6e23 35be 935b 773d
00000100: 0ab4 4d3d 464e 3c3d 54ef 6abd 6500 5cbd
00000110: 5a01 cdbd 3c1c 7a3d bcd6 7e3d d967 c53d
00000120: c3ed 17be aef2 9fbe f57b 4ebe b31d ec3b
00000130: 2b6c a83d d240 253d 3bcb cf3d 377c 173e
00000140: cdb9 6e3d 8afa dc3d 12c0 f23c 0ad5 bb3c
00000150: e5ef ca3d 0d6f 16bd 094b 20bd d3a1 2fbd
00000160: b9e7 64be e3a7 65bd d2d8 833e e53c 813e
00000170: 56ab 653e e437 8b3d 1c82 403d 4872 453d
00000180: 4024 393e f354 733e 5af1 203e 0ee2 2c3d
00000190: 4d78 66be b9a0 cdbe ae29 1c3d d58f 913d
000001a0: 93c1 19bd aa93 55bc 3977 bd3d 6d71 a73d
000001b0: dedc e13c 0efa 853c 2877 1ebd b444 5b3b
000001c0: 8470 7dbd 131f b9bd fea1 c83c 87b2 603e
000001d0: e893 043d be08 98bd 768d fdbd 9ac6 94bd
000001e0: 8799 a33d d600 323d 59e9 8a3d 0708 9b3d
000001f0: 2ce4 283d 3ff7 8b3c f390 08be 9fd2 363d
00000200: 6a19 fd3d 7af2 d3be c3ed dc3c 1d02 d33d
00000210: bd37 6fbe 91d9 05be 3c19 2a3d a1a2 89be
00000220: 9b62 b8be b9c9 89be 6123 b1bd 47ca b7bd
00000230: 910b aabd 1580 013a f3b1 79bc ab64 b4bb
00000240: 247e c7bd f2ef 16be fb3c 0fbe 945e 95bd
00000250: 4f9b a2bd d7f6 b2bd 4780 ecbd dc9e 30bc
00000260: a1b0 3a3c 74b3 5f3d 5300 05bc e05e fc3d
00000270: bf72 103d 96b1 7e3c bab1 103e b8cb da3d
00000280: 27f3 dc3d 203f 2e3e 3851 89bc 88ef 0ebe
00000290: c424 b6bd ca0a 4d3e 2641 883d 256f 043e
000002a0: 3bd1 b7bd df45 bbbe 9e54 a6bd 871c 273d
000002b0: e3ab 37bd 07f3 513d 39d6 b9bd 0a81 bbbc
000002c0: bac4 7f3e 2c81 b8bd bf2b 0c3d 8be5 913e
000002d0: fd3e dfbd 5694 a3bd 492f a0bd a36e d9bd
000002e0: ac6f fe3c adca 803d b15a bbbd a6d8 9b3d
000002f0: c3f2 373d 0080 41bb 0c9f 893a 226c b23a
00000300: 78ff 11bd c760 98bd 4f38 f9bc 1e17 133d
00000310: 49b9 993c a355 873e b7e4 64bb f6c4 f5bc
00000320: a4b7 d33c b70f 3e3b c67c 2bbd d33a efbc
00000330: 0ac0 c13a 27eb 55bc 4d27 163c 7d29 6dbc
00000340: fc7f c53b d5a4 f63d f87a 92bd 99f7 24bd
00000350: f91a 053e 2005 64bd a717 76bd 92a6 793d
00000360: 4cd5 33bd 6b08 37bd 43b9 563d 8eff 66bd
00000370: ddcd 1ebd 4937 103e 1ce2 8abd 7e9d fcbc
00000380: 69ed b03d 9a19 af3d 6697 e33d f7c8 b7bb
00000390: b271 b1bd ea83 97bd f1d3 bcbd 499d cb3a
000003a0: 8873 843d e1c4 9a3d 10da b63c 52d3 9dbd
000003b0: 3d0f 683d 3418 f53d 7442 7dbd 4fd1 023e
000003c0: 208e 153d f32c 48bd 7523 88bc 2aca 85be
000003d0: 1d72 94be 9dd1 93be 8e6b d63c 7b76 d93d
000003e0: 94a2 7ebc 74b4 e73d 42e8 3a3e 23af 2e3c
000003f0: 43f1 a6bd 4e9c 0f3e e020 913d d98c 40be
-0.06352331 -0.06739177 0.022505997 -0.0029517296 -0.08654402 -0.054421302 0.11121082 0.094569385
0.050379656 0.045197234 0.16747937 0.042765208 0.05357712 0.020049255 -0.05766831 -0.060631413
-0.01915999 -0.10853847 0.11136993 0.034680523 0.10169539 -0.06351339 -0.08422499 0.0005679396
-0.072735846 -0.06531257 -0.0020446226 0.007131528 -0.101750776 -0.043871757 0.1429256 0.002236563
0.11552036 0.03678496 -0.07015725 0.035732903 0.01827837 0.04315164 0.12207362 -0.11388595
-0.043377616 0.06645543 0.06939137 0.11458667 0.17380352 -0.0039446997 -0.00817181 -0.114035904
-0.011224037 0.11475189 0.03072976 -0.16593872 0.10205639 0.08713895 0.015291975 -0.014436449
-0.024089525 0.12284867 0.07295851 -0.0017858302 -0.11433141 -0.11001391 -0.17689297 0.060390066
0.050220527 0.045973085 -0.057357147 -0.053711314 -0.100100234 0.061062083 0.062216505 0.09638948
-0.14836793 -0.31239837 -0.20164473 0.007205689 0.082237564 0.04034502 0.10146185 0.14793478
0.058282662 0.10789974 0.029632602 0.022928733 0.099090375 -0.036727 -0.03913406 -0.042878937
-0.2235402 -0.056068312 0.25751358 0.2524177 0.2242864 0.0679777 0.046999082 0.04820469
0.18080235 0.23762874 0.15717068 0.04220777 -0.22506829 -0.40161684 0.038125686 0.07107512
-0.037538122 -0.013035694 0.092512555 0.08175931 0.027571138 0.016354587 -0.038687855 0.0033457698
-0.06187488 -0.0903913 0.024491306 0.21943103 0.032367617 -0.074235424 -0.12380497 -0.07264443
0.079882674 0.04345783 0.06782789 0.075698905 0.041233227 0.01708567 -0.13336544 0.044634458
0.12358363 -0.41395932 0.026968842 0.103031375 -0.23361106 -0.13071276 0.04152797 -0.26881889
-0.3601273 -0.26911715 -0.08649326 -0.08974128 -0.08302987 0.0004940045 -0.01524018 -0.0055051646
-0.09740856 -0.1473997 -0.13988106 -0.0729343 -0.07939779 -0.08738487 -0.115479045 -0.0107800625
0.011394651 0.0546145 -0.008117753 0.123227835 0.03526568 0.0155452695 0.14130297 0.106833875
0.10788565 0.17016268 -0.01676236 -0.13958561 -0.08893731 0.20023647 0.06653051 0.12933023
-0.089754544 -0.36576745 -0.08121608 0.04079869 -0.04484166 0.05125716 -0.09074063 -0.022888679
0.24977389 -0.090090126 0.034221407 0.2849544 -0.10900686 -0.07987277 -0.07821519 -0.106168054
0.031059109 0.06288657 -0.091481574 0.07609682 0.04490925 -0.0029525757 0.001049967 0.0013612548
-0.035644025 -0.07440334 -0.030422358 0.03591072 0.018765109 0.26432523 -0.0034926364 -0.030001145
0.025844403 0.0029001066 -0.04186704 -0.029202854 0.0014781964 -0.013056553 0.0091646435 -0.014475224
0.00602722 0.12043158 -0.07152361 -0.04027519 0.1299857 -0.05566895 -0.06008115 0.06094987
-0.043904588 -0.044685762 0.052422773 -0.05639606 -0.038770545 0.1408359 -0.06781408 -0.030836817
0.086390324 0.08549805 0.11112861 -0.0056086737 -0.08664264 -0.073982075 -0.09220112 0.0015534546
0.06467348 0.07557083 0.022320777 -0.07706322 0.056655157 0.11967507 -0.061830953 0.12775157
0.036512494 -0.048870992 -0.01661847 -0.261308 -0.28993312 -0.2887086 0.026174333 0.106183015
-0.015541691 0.113137156 0.18252662 0.010661873 -0.08151486 0.1402447 0.070863485 -0.18803729

bottle_neck3.bottle_neck.2.conv.weight f4 [64, 1, 1, 1]
00000000: 378d a93d bbbf e33d ad25 433e 1da8 4bbd
00000010: 094d 353e 65b3 1cb8 461a 293e a28e 013d
00000020: 9c42 313e 5e5c a5bd 16dc 47be fad9 11be
00000030: eef7 29be 1375 353e b7f9 103e b1fc 473d
00000040: d13f 003e d1ed d2be 98a4 2cbe cc45 91b4
00000050: 1055 babe d783 6cbe fffd c0bc 40da bdbe
00000060: ce91 d93d 64e3 2f3e e368 363e 2ee6 823d
00000070: c0f4 a83d 6ae5 c8be 5f21 2fbe 7a24 93be
00000080: ad77 12be 99f5 913d 1112 0f3e dd59 183e
00000090: 82a8 2e3d d157 e4be b818 62be a18b 94be
000000a0: 29bd f43d f6de 043e fdd2 123e af86 66b9
000000b0: feb1 d1b4 1d98 483b 52de 37bd 8b6c 363e
000000c0: 3ba2 203e f2b7 9abd 324b 3b3e b951 87be
000000d0: 5b4a 8bbd df4b 2a3e 99ec c1be 9052 35bd
000000e0: 3801 a33d 8551 e3be 6dba 8abd e1d3 0e3e
000000f0: 8fa1 d2bd 591a b8be 3c0a 383e ded1 363b
0.08278888 0.11120554 0.19057341 -0.049720872 0.17705168 -3.7360373e-05 0.16513929 0.031630166
0.17310566 -0.08074258 -0.1951755 -0.14243308 -0.16598484 0.17720442 0.14157759 0.04882497
0.12524344 -0.41197065 -0.16859663 -2.7059139e-07 -0.36393023 -0.23097168 -0.023558615 -0.37080574
0.10623513 0.17176586 0.17813449 0.063915595 0.08249807 -0.3923753 -0.17102574 -0.28738767
-0.14303465 0.07126922 0.13971736 0.1487803 0.04264117 -0.4459825 -0.22079742 -0.29012778
0.11950142 0.12975678 0.14338298 -0.00021984683 -3.905879e-07 0.0030608245 -0.044889756 0.17814843
0.15686886 -0.07554616 0.18290403 -0.26429537 -0.068012916 0.16630505 -0.37875822 -0.04426819
0.07959217 -0.44398132 -0.06773839 0.13948013 -0.10284721 -0.35957602 0.17972654 0.0027896087

bottle_neck3.bottle_neck.2.bn.weight f4 [64]
00000000: 49d7 b53d cda7 e83d 3ead 373e 7335 4cbd
00000010: d230 0c3e 77dc 1037 115e 153e 4bfd ffbc
00000020: dec3 2e3e a941 d03d e0f3 483e 495c 203e
00000030: da6f 2c3e 16fc 0d3e 5609 f33d 9198 093d
00000040: 8814 c13d a391 d33e 9366 3f3e 41cb 8f34
00000050: 2cf2 bd3e 19d8 833e 46e2 c03c 26d3 c53e
00000060: f607 b53d 77cb 023e 44fc 3a3e f6d7 3d3d
00000070: 551f a23d 1b5d cb3e b377 433e a146 9c3e
00000080: 7361 133e c327 983d c74e fc3d 2d26 ce3d
00000090: 5b63 1cbd 781d e83e ac3e 793e 6805 a43e
000000a0: 1259 c13d 61de df3d 01fe cf3d ffd2 8439
000000b0: b69b ceb4 d297 483b 7c1a 7f3d 2e80 3c3e
000000c0: d9b2 133e a120 bc3d ddf6 0b3e 79de 943e
000000d0: de68 8f3d d80f 043e 70d5 cb3e 8402 3a3d
000000e0: bda9 83bd 4a66 e43e 5469 8ebd a30a 9d3d
000000f0: 8897 e13d db3c be3e d9e5 333e f145 363b
0.08878953 0.113601305 0.1793718 -0.04985566 0.13690498 8.6344e-06 0.14586665 -0.03124871
0.17066905 0.10168774 0.19624281 0.15660204 0.16839543 0.13865694 0.11867015 0.033592764
0.09427744 0.4132205 0.18691473 2.6783712e-07 0.37098825 0.25750807 0.023545396 0.38637656
0.08839409 0.12772928 0.18260294 0.046348535 0.07916132 0.3971947 0.1908863 0.30522636
0.14392643 0.07429459 0.12319713 0.10065875 -0.03818069 0.45334983 0.24340314 0.32035375
0.09440817 0.10931087 0.10155869 0.00025334206 -3.8483785e-07 0.003060807 0.062281117 0.18408272
0.14423694 0.09185911 0.1366839 0.29075983 0.07002424 0.12896669 0.39811277 0.045412555
-0.064288594 0.4460929 -0.069536835 0.076680444 0.110152304 0.37155804 0.17568149 0.0027812684

bottle_neck3.bottle_neck.2.bn.bias f4 [64]
00000000: eb7b 233c 5c45 323d 41e0 db3c 9866 983c
00000010: 24bd 86bc ea82 1ebd 788a ae3c 5fd6 83bc
00000020: e84e 94bc eb5e b2bc 75eb bebc 5348 a43c
00000030: c8b7 1e3d bf1e b13c ac1c 153d 2273 2eba
00000040: 5643 b33c cb4f a7bb 4f06 dabc 5961 853c
00000050: f84a 493c ac5d c0bc 0745 d9bb 86b3 3abd
00000060: 7caa d1bb 078f dabb 2e84 2a3c f818 f43c
00000070: f236 cdbb 1c87 42bd 0f27 4cbb 3600 24bc
00000080: 030f eebb e9b6 db3b b72c b1bc 0cd9 863c
00000090: fd9d 6abc f836 433c 4456 30bb 620a a03c
000000a0: e771 e9bc 538d 31bc 2de6 37ba 0820 debb
000000b0: ddec be3a 0a4b 4ebd 6a0d ddbc 7069 af3c
000000c0: 0f55 d6bc c79c 49bb 909e 123d 7eee 91bc
000000d0: a32e 98ba ed5c 6f3b d9be c43c ca4b 263c
000000e0: 23a6 2bbc c8a5 aa3c 612f 67b9 249c f13c
000000f0: f2e8 a9bc 00af 7b3d ea33 103c 09ae f23c
0.009978275 0.043523178 0.026840331 0.018603608 -0.016447611 -0.038699068 0.021306261 -0.016093431
-0.018104032 -0.021773776 -0.023305634 0.020054018 0.038749486 0.021621106 0.036404297 -0.00066547294
0.021882694 -0.0051059476 -0.026614336 0.01628177 0.01228594 -0.023482166 -0.006630543 -0.045581363
-0.006398497 -0.006669882 0.010407491 0.029797062 -0.0062626535 -0.04749213 -0.003115121 -0.010009816
-0.007264973 0.006705154 -0.021627767 0.016460918 -0.014319894 0.011914961 -0.0026906887 0.0195362
-0.028496696 -0.010836917 -0.0007015195 -0.0067787208 0.001456644 -0.05036453 -0.026983935 0.021412581
-0.026163606 -0.0030763613 0.03579575 -0.017813917 -0.0011610579 0.0036523894 0.024016785 0.010149905
-0.010476622 0.020831004 -0.00022047527 0.029493399 -0.02074096 0.06144619 0.00880144 0.029624002

bottle_neck3.bottle_neck.2.bn.running_mean f4 [64]
00000000: 7fbb 153a 7f20 493a 7a0b 193b 5d6f 5eb6
00000010: c48c 883a 9e29 5a31 f372 273b 4e4a 003a
00000020: 8a73 443a 148e 44b6 eb7a 07b6 0fbd c5b5
00000030: 0f27 3a38 f0a6 683a 6c99 413b df87 853a
00000040: ae6e 5d3b 52dd 2739 22ef 5338 4955 b22e
00000050: c5ce 57ba dff6 08ba ee4d 4137 e128 3e39
00000060: 0733 fb3a 4813 4b3b ebe5 143b a5b3 553a
00000070: 592e 6f3a 1cfe 063a 7cfe f039 fe7a 4a3a
00000080: 8a20 5537 13d2 ef37 cc2f b63a 2601 c23a
00000090: d3bd e239 d2bc 8939 c8d6 19b9 fa24 4ab9
000000a0: 4683 ee39 a07d 013a be6e 513b ab7b 1fb3
000000b0: b5cd 342e 5d71 fe33 e3bc 14b6 3517 193b
000000c0: 5f41 9d3a df0e 9235 5b06 fe3a df96 18b7
000000d0: 0008 a4b7 8f05 a93b 79ed a739 e803 1d38
000000e0: 0864 f839 ab89 eb39 301a 2ab6 791d 0c3b
000000f0: 1ce1 fd37 7be7 dd38 7d7f f33b 3ae2 f138
0.0005711838 0.0007672384 0.0023352788 -3.31454e-06 0.0010417928 3.1746832e-09 0.0025550693 0.0004893885
0.00074940233 -2.9288976e-06 -2.0188115e-06 -1.4732667e-06 4.4382232e-05 0.0008874973 0.002954091 0.0010187587
0.0033787894 0.0001600881 5.052903e-05 8.1096525e-11 -0.000823241 -0.0005224775 1.1521841e-05 0.0001813504
0.0019164988 0.0030986834 0.002272005 0.00081520743 0.0009124033 0.00051495596 0.00045965973 0.0007724016
1.2703365e-05 2.8588844e-05 0.0013899743 0.0014801368 0.0004324751 0.00026271358 -0.0001467123 -0.00019277996
0.00045492704 0.0004939679 0.0031956877 -3.7132548e-08 4.1109966e-11 1.18484174e-07 -2.2163665e-06 0.002335978
0.0011997632 1.0882176e-06 0.0019380556 -9.095033e-06 -1.9554049e-05 0.0051581333 0.00032029653 3.7435355e-05
0.00047376775 0.00044925264 -2.5347217e-06 0.0021379872 3.0264775e-05 0.00010581218 0.0074309693 0.000115339135

bottle_neck3.bottle_neck.2.bn.running_var f4 [64]
00000000: 5d0f 8035 060f e735 2b99 0737 b8c6 f32e
00000010: ab66 8536 5e52 e224 5e7d 0c37 c5ed a434
00000020: 002b 6c36 ffee b72e e217 582f a92a e62e
00000030: b4f9 5831 e5be 8c36 2002 d936 d878 4e35
00000040: 6ad7 3738 921d 8134 e083 8a32 9526 441f
00000050: c69a 1c34 0951 7c33 a588 b02f 32d6 aa33
00000060: 3df0 9c36 3122 4d37 f690 2637 338d ab35
00000070: 71e3 ae36 2c17 8434 d27a a233 ef64 6534
00000080: ad75 0030 6aa3 0031 86b4 9636 00e4 aa36
00000090: eb68 8d35 7054 3d34 67b1 7433 2f3e d333
000000a0: ee76 d035 a6c7 f535 3cf1 5737 8a02 a727
000000b0: b241 a31c 9095 ea2a 537f 312f ae8a 3537
000000c0: d0e1 8736 6228 b62f 8599 da36 bd9c 7131
000000d0: 3561 f22f 2f57 b337 9f8d 9334 e0ff 8031
000000e0: 4006 d335 9947 c234 20ef 2830 9bf6 5137
000000f0: e02c 9a31 1692 6b33 f726 8637 1f61 8431
9.541214e-07 1.7215214e-06 8.082289e-06 1.108566e-10 3.975661e-06 9.815141e-17 8.37384e-06 3.072038e-07
3.519177e-06 8.364331e-11 1.965357e-10 1.0466767e-10 3.1574077e-09 4.194548e-06 6.4673513e-06 7.691683e-07
4.383122e-05 2.4049638e-07 1.6125284e-08 4.153653e-20 1.4584938e-07 5.8747023e-08 3.2111305e-10 7.955204e-08
4.6771297e-06 1.2226913e-05 9.928122e-06 1.2781587e-06 5.2120818e-06 2.4603776e-07 7.566054e-08 2.1364006e-07
4.6733356e-10 1.8719342e-09 4.491364e-06 5.0929375e-06 1.0535854e-06 1.7632715e-07 5.6972024e-08 9.836764e-08
1.5531821e-06 1.8312028e-06 1.2871165e-05 4.6354564e-15 1.0803417e-21 4.167053e-13 1.6143291e-10 1.082073e-05
4.0496016e-06 3.31343e-10 6.5147783e-06 3.515921e-09 4.4088613e-10 2.137906e-05 2.7483927e-07 3.75438e-09
1.5722544e-06 3.618741e-07 6.145786e-10 1.2514788e-05 4.4870916e-09 5.4848066e-08 1.599219e-05 3.852747e-09

conv3.conv.weight f4 [64, 1, 1, 1]
00000000: df8b 01be 513f f83d 8bc3 413c 06d1 edbd
00000010: f376 dcbb 7e2c b03d 7971 793d 5e72 69be
00000020: 2bd4 9cbb f18a ed3d 2fb8 0e3e eaa8 163e
00000030: 04a0 13be bdf2 a2b8 a696 0ebe 2c2f 143e
00000040: 9652 0b3e 04ce 093e b589 c0bd b461 023e
00000050: 1bb7 a43c ead1 43bd 2ec9 53bd 7954 9bbd
00000060: a693 213e 14d9 9bbe fcf4 14bd 4178 d93d
00000070: abaf e53d 447e 813d ba4e 19be fea4 103e
00000080: a7c9 e1bd 1d11 f33d 10c2 f93d c8ef 17be
00000090: ee15 f6bd 47b4 d03b 8dc2 d5bd d368 a22e
000000a0: b518 2c3e 9810 e4bd 6a8f fcbd 53ed 2c3e
000000b0: 426e cebd 9c37 a63d 1255 16be 31e9 af3c
000000c0: 3586 9939 0928 23be c2bb 12bc 99ca 92bd
000000d0: d1e0 413c 1ba0 923c 38d6 8138 14b7 3dbe
000000e0: 3ea2 90bd fc23 45bc f3fb 05be 331a ef3d
000000f0: 1f67 0a3e 4bdc 05bb c716 efba a993 a73d
-0.12651013 0.12121452 0.011826406 -0.11612134 -0.006728047 0.08602236 0.06089923 -0.22797534
-0.0047860346 0.115987666 0.13937448 0.14712873 -0.1441651 -7.7699755e-05 -0.13924655 0.1447112
0.13605723 0.13457495 -0.094012655 0.12732583 0.020106843 -0.04780761 -0.05170553 -0.07584471
0.1577898 -0.30439055 -0.036366448 0.1061864 0.11215147 0.063229114 -0.14971438 0.1412544
-0.1102479 0.118684985 0.121952176 -0.14837563 -0.120159015 0.006369147 -0.10437498 7.3855276e-11
0.168063 -0.111359775 -0.123320416 0.16887407 -0.10079624 0.081160754 -0.14680889 0.021473499
0.00029282426 -0.15933241 -0.008955898 -0.07167549 0.011833386 0.01789861 6.191101e-05 -0.1852687
-0.07062195 -0.012032505 -0.13084392 0.11674919 0.135159 -0.0020425494 -0.0018241041 0.08182461

conv3.bn.weight f4 [64]
00000000: 3947 e73d 7326 eb3d c424 243c 4ec3 e33d
00000010: 6e01 d13b 9474 883d 7f3b 983c 5188 3d3e
00000020: 5c15 9dbb 5bb1 fe3d 654b b13d ce43 c03d
00000030: 7378 bd3d 8e37 9f38 e4f0 d93d 0569 f83d
00000040: 2328 b03d c741 cf3d 8711 a63d 86f6 d43d
00000050: f66f 9f3c e530 623d 892c 483d c742 79bd
00000060: 3715 be3d 0290 a13e 7676 113d e2ba 983d
00000070: 62b9 be3d e7de c93c 7ad2 e23d 38b5 0b3e
00000080: ccdc c93d 285a fc3d fa08 c63d d2ce 883d
00000090: dab1 403d de5f d0bb 0725 883d f54d a2ae
000000a0: 5752 353e 473f de3d 24f4 d23d 6358 813d
000000b0: 390d 033e 61cb e73d d563 e83d 3398 aebc
000000c0: cefc 98b9 0b41 e23d 1c77 12bc 0846 3f3d
000000d0: 18c9 2dbc 5ea5 923c 325c 89b8 7bc8 da3d
000000e0: 1f3c 993d 43c3 083c 6d33 f63d 44c9 d83d
000000f0: 25c1 ae3d 74f0 03bb edf5 e73a e3cb 823d
0.112928815 0.11481943 0.010018531 0.11121236 0.0063783443 0.066628605 0.018583057 0.18509032
-0.004793806 0.124361716 0.086569585 0.09387933 0.092514895 7.592059e-05 0.10641649 0.12129406
0.086014055 0.10119968 0.08108812 0.10398583 0.019462567 0.05522241 0.048870597 -0.0608547
0.0928139 0.31555182 0.035513364 0.0745752 0.09312703 0.024642421 0.110753015 0.13643348
0.09856567 0.123218834 0.09669681 0.06680073 0.047044612 -0.0063590845 0.066476874 -7.380755e-11
0.17707191 0.10851913 0.103004724 0.063156866 0.12798013 0.11318088 0.113471664 -0.021312809
-0.00029180053 0.11047562 -0.008939531 0.046697646 -0.0106070265 0.017901119 -6.549842e-05 0.1068277
0.0748217 0.008347335 0.120215274 0.10585263 0.08532933 -0.0020132335 0.0017697193 0.063865446
