onnx_model/2023_3_16_hj_num_1_fp16.onnx (onnx, 98617 bytes, 26 tensors)

block_neck1.block_neck.1.weight f2 [1, 1, 3, 3]
-0.2465 -0.1282 -0.2917 -0.315 0.1575 -0.3203 -0.1619 0.08167
-0.3013
00000000: e3b3 1ab0 abb4 0ab5 0a31 20b5 2eb1 3a2d
00000010: d2b4

block_neck2.block_neck.0.weight f2 [16, 1, 1, 1]
0.667 0.5415 0.598 0.9424 0.2362 -0.6714 -0.5034 -0.2383
0.5835 0.706 -0.351 -0.656 -0.723 -0.3938 0.2708 0.7363
00000000: 5639 5538 c938 8a3b 8f33 5fb9 07b8 a0b3
00000010: ab38 a639 9eb5 3fb9 c9b9 4db6 5534 e439

block_neck2.block_neck.1.weight f2 [16, 1, 3, 3]
-0.2778 0.0683 0.5312 0.001311 0.0367 -0.0534 0.443 -0.2583
-0.0951 0.1732 -0.10675 -0.1274 0.05368 -0.444 0.4504 -0.2126
0.1444 -0.222 0.3164 -0.1033 -0.0986 0.3179 0.3416 -0.3535
0.02875 0.06995 0.00597 -0.0739 0.24 0.1404 -0.0864 0.279
-0.2286 -0.2756 0.01753 -0.1447 -0.1849 0.12024 -0.4844 0.006653
0.3794 -0.244 -0.013016 -0.0739 -0.1621 -0.000132 -0.3088 -0.11646
0.218 0.3416 0.07025 -0.09406 0.04623 -0.002562 0.3608 0.2886
0.1403 0.003796 -0.2676 0.1598 -0.1276 -0.1719 0.01678 -0.2184
-0.2695 -0.2783 0.1854 -0.04263 -0.5356 0.1017 -0.2399 0.1384
0.006382 0.1879 -0.1996 -0.1311 -0.1148 0.06995 0.3884 0.1703
0.1299 0.0365 -0.206 0.3096 -0.08295 -0.3704 0.10297 0.2289
-0.3242 0.12445 -0.3828 -0.1411 -0.466 -0.03552 0.3042 0.02394
-0.0755 -0.00551 -0.0094 -0.2383 -0.0872 -0.0373 -0.07947 -0.09875
-0.1572 0.3057 -0.00547 0.2537 0.1824 -0.1466 0.0672 0.277
-0.2617 -0.392 -0.1047 -0.01917 0.1986 0.393 -0.1567 -0.188
-0.09735 0.1309 -0.2129 0.2734 -0.4758 -0.1759 0.1353 -0.246
0.06415 0.0647 0.00935 -0.294 -0.2734 0.002092 0.412 0.1289
0.2632 -0.0189 -0.4192 -0.1477 -0.08844 0.03705 0.3066 -0.106
00000000: 72b4 5f2c 4038 5f15 b328 d6aa 1737 22b4
00000010: 16ae 8b31 d5ae 14b0 df2a 1bb7 3537 ceb2
00000020: 9f30 1bb3 1035 9cae 4fae 1635 7735 a8b5
00000030: 5c27 7a2c 1d1e bbac ae33 7e30 88ad 7734
00000040: 51b3 69b4 7d24 a1b0 ebb1 b22f c0b7 d01e
00000050: 1236 cfb3 aaa2 bbac 30b1 5388 f1b4 74af
00000060: fa32 7735 7f2c 05ae eb29 3f99 c635 9e34
00000070: 7d30 c61b 48b4 1d31 15b0 80b1 4c24 fdb2
00000080: 50b4 74b4 ef31 75a9 49b8 822e adb3 6e30
00000090: 891e 0332 63b2 32b0 59af 7a2c 3736 7331
000000a0: 2830 ac28 98b2 f434 4fad edb5 972e 5333
000000b0: 30b5 f72f 20b6 84b0 75b7 8ca8 de34 2126
000000c0: d5ac a49d d0a0 a0b3 95ad c6a8 16ad 52ae
000000d0: 08b1 e434 9a9d 0f34 d631 b1b0 4d2c 6f34
000000e0: 30b4 46b6 b3ae e8a4 5b32 4a36 04b1 04b2
000000f0: 3bae 3030 d0b2 6034 9db7 a1b1 5430 dfb3
00000100: 1b2c 242c ca20 b4b4 60b4 4918 9836 2030
00000110: 3634 d7a4 b5b6 bab0 a9ad be28 e834 c9ae

block_neck3.block_neck.0.weight f2 [32, 1, 1, 1]
-0.1505 0.2812 0.41 -0.798 0.4592 -0.3596 -0.3496 -0.6
0.8345 -0.4763 -0.244 0.38 0.518 0.261 0.317 -0.6553
-0.7456 -0.2852 -0.3718 0.3386 0.5845 0.515 -0.5054 0.2039
0.1785 -0.2742 -0.2964 -0.846 -0.6562 -0.6685 -0.5547 0.3398
00000000: d1b0 8034 8f36 62ba 5937 c1b5 98b5 cdb8
00000010: ad3a 9fb7 cfb3 1436 2538 2d34 1235 3eb9
00000020: f7b9 90b4 f3b5 6b35 ad38 1f38 0bb8 8632
00000030: b631 63b4 beb4 c5ba 40b9 59b9 70b8 7035

block_neck3.block_neck.1.weight f2 [32, 1, 3, 3]
-0.195 -0.1449 -0.337 0.2554 -0.3538 0.02371 -0.3328 -0.2178
-0.267 -0.1855 -0.311 -0.2245 0.0849 -0.1539 -0.184 0.1177
0.287 0.4026 -0.2947 -0.0421 -0.09717 0.04636 0.1849 0.1063
-0.471 -0.2651 -0.0493 0.2532 0.351 0.3767 -0.1704 -0.0712
0.0555 -0.06085 -0.1139 0.02362 0.356 0.221 -0.0828 -0.0712
0.006847 -0.318 -0.496 -0.0639 0.1353 0.3948 0.4739 0.5054
0.1935 0.1926 0.07666 0.2722 -0.1803 0.04263 -0.3484 -0.1556
-0.01078 -0.4487 -0.3132 -0.1007 -0.277 -0.2128 0.296 0.267
0.3608 0.3179 -0.006416 0.03004 -0.0658 0.3535 0.1665 -0.084
-0.2305 -0.1487 -0.1093 -0.249 -0.1409 -0.0584 0.02122 -0.03268
0.06476 0.5044 0.4524 -0.0499 0.3777 0.2786 0.11584 -0.1149
0.1862 -0.0682 0.4377 0.2404 0.359 -0.1537 -0.09644 0.1979
-0.0391 0.04752 0.1992 0.458 0.2042 0.087 0.679 0.1687
0.1307 0.314 0.1936 0.01967 -0.3232 -0.1265 0.1257 -0.2625
-0.1453 -0.1476 0.2344 0.3342 0.2505 -0.0318 -0.0975 -0.1193
0.2803 0.273 0.606 0.139 0.1898 0.394 -0.02637 0.181
0.2637 -0.3066 -0.1312 -0.2522 0.2744 0.2375 0.34 -0.2118
-0.133 0.1969 0.2103 -0.1004 0.06213 -0.1216 -0.0633 -0.415
-0.06274 -0.0929 -0.1003 -0.11456 -0.225 -0.3787 -0.08374 -0.1917
-0.171 0.1719 -0.3752 -0.2957 0.0563 -0.308 -0.4514 -0.326
-0.1982 0.1602 0.246 0.3315 0.3833 -0.01533 -0.07275 0.06085
-0.3027 -0.10284 -0.335 0.1993 0.224 0.2812 0.4917 0.4365
0.2803 -0.1283 0.0977 0.2316 -0.45 -0.1483 0.2554 -0.01296
-0.143 0.2233 -0.1234 -0.0684 0.323 0.02083 -0.2223 -0.2025
-0.0693 0.04718 -0.06476 0.2783 0.4302 0.3574 0.2463 0.2566
-0.1063 -0.08276 0.1572 0.4019 -0.1515 -0.1189 0.1836 -0.12036
-0.1781 -0.1056 -0.06885 -0.2017 -0.3125 -0.2272 -0.318 -0.5176
0.0419 0.2178 -0.1162 -0.393 -0.2366 -0.225 -0.08856 0.4685
0.3086 -0.06076 0.1488 0.1572 0.267 0.4475 0.02275 0.3625
0.1741 -0.1549 0.391 -0.2136 -0.2446 0.427 -0.1925 -0.2559
0.4495 0.2935 0.0634 -0.134 -0.35 -0.325 0.3757 0.1572
0.0367 0.0569 -0.152 -0.2678 -0.1652 -0.2198 -0.235 0.2255
00000000: 3db2 a3b0 64b5 1634 a9b5 1226 53b5 f8b2
00000010: 46b4 f0b1 fab4 2fb3 6f2d edb0 e3b1 882f
00000020: 9834 7136 b7b4 64a9 38ae ef29 eb31 ce2e
00000030: 89b7 3eb4 4faa 0d34 9e35 0736 74b1 8fac
00000040: 1b2b caab 4aaf 0c26 b235 1233 4dad 8fac
00000050: 031f 17b5 f0b7 17ac 5430 5136 9537 0b38
00000060: 3132 2a32 e82c 5b34 c5b1 7529 93b5 fbb0
00000070: 85a1 2eb7 03b5 72ae 6fb4 cfb2 bc34 4634
00000080: c635 1635 929e b127 36ac a835 5431 60ad
00000090: 60b3 c2b0 ffae f8b3 82b0 7aab 6f25 2fa8
000000a0: 252c 0938 3d37 63aa 0b36 7534 6a2f 5baf
000000b0: f531 5dac 0137 b133 be35 ebb0 2cae 5532
000000c0: 01a9 152a 6032 5437 8932 912d 6f39 6631
000000d0: 2f30 0635 3232 0925 2cb5 0cb0 0630 33b4
000000e0: a6b0 b9b0 8033 5935 0234 12a8 3dae a3af
000000f0: 7c34 5e34 d938 7330 1332 4e36 c0a6 cb31
00000100: 3834 e8b4 33b0 09b4 6434 9a33 7135 c7b2
00000110: 42b0 4d32 bb32 6dae f42b c8af 0dac a4b6
00000120: 04ac f2ad 6bae 55af 33b3 0fb6 5cad 22b2
00000130: 79b1 8031 01b6 bbb4 352b eeb4 39b7 37b5
00000140: 58b2 2031 df33 4e35 2236 d9a3 a8ac ca2b
00000150: d8b4 95ae 5cb5 6132 2b33 8034 de37 fc36
00000160: 7c34 1bb0 412e 6933 33b7 bfb0 1634 a3a2
00000170: 93b0 2533 e6af 61ac 2b35 5525 1db3 7bb2
00000180: 6fac 0a2a 25ac 7434 e236 b835 e233 1b34
00000190: ceae 4cad 0831 6e36 d9b0 9caf e031 b4af
000001a0: b3b1 c2ae 68ac 74b2 00b5 45b3 17b5 24b8
000001b0: 5d29 f832 70af 4ab6 92b3 33b3 abad 7f37
000001c0: f034 c7ab c330 0831 4634 2937 d325 cd35
000001d0: 9231 f5b0 4236 d6b2 d4b3 d536 29b2 18b4
000001e0: 3137 b234 0f2c 4ab0 9ab5 33b5 0336 0831
000001f0: b328 482b ddb0 49b4 49b1 09b3 85b3 3733

onnx::Conv_125 f2 [16, 1, 1, 1]
50.88 -19.53 45.38 38.72 -1.016 -24.56 40.12 -20.66
-36.1 -41.1 -1.208 -0.07806 -13.45 35.84 25.95 27.83
00000000: 5c52 e2cc ac51 d750 10bc 24ce 0451 2acd
00000010: 83d0 23d1 d5bc ffac baca 7b50 7d4e f54e

onnx::Conv_126 f2 [16]
-0.8286 0.2742 -0.6704 -0.3699 -0.09076 0.537 -0.9834 1.258
1.071 1.264 -0.0981 -0.02429 0.4795 -0.6357 -0.2766 -0.2374
00000000: a1ba 6334 5db9 ebb5 cfad 4c38 debb 083d
00000010: 493c 0e3d 47ae 38a6 ac37 16b9 6db4 99b3

onnx::Conv_128 f2 [16, 1, 1, 1]
1.448 2.797 0.2366 1.84 2.514 2.314 -2.398 -3.908
2.242 -2.162 2.773 2.154 2.736 2.588 2.246 2.621
00000000: cb3d 9841 9233 5c3f 0741 a140 ccc0 d1c3
00000010: 7c40 53c0 8c41 4f40 7941 2d41 7e40 3e41

onnx::Conv_129 f2 [16]
-0.6367 -0.2642 -0.378 -0.2194 -0.4626 -0.735 0.6567 1.447
-0.625 0.3674 -0.12164 -0.1819 -0.1819 -0.8657 -0.2603 -0.68
00000000: 18b9 3ab4 0cb6 05b3 67b7 e1b9 4139 ca3d
00000010: 00b9 e135 c9af d2b1 d2b1 edba 2ab4 71b9

onnx::Conv_131 f2 [32, 16, 1, 1]
-0.8735 0.1697 -0.35 -0.399 -0.411 -0.8955 -0.7363 0.04822
-1.213 -2.584 -0.1332 -0.507 0.505 -0.9067 0.31 -0.4385
0.2903 -0.1203 1.241 0.0647 2.346 0.3208 2.559 0.0453
0.8765 -2.104 -0.4824 -0.6104 -0.831 0.8926 2.053 -0.1136
1.278 -0.1234 -0.3665 -0.5176 -0.791 -0.1185 0.9937 0.02742
-0.2698 -0.4521 0.2083 -0.4026 0.0173 1.162 1.383 -0.10455
0.4658 0.764 -0.937 0.8364 -0.735 0.1339 -0.5347 0.12103
0.962 -0.197 0.982 0.1877 -0.2522 -0.3987 0.01741 0.649
1.587 0.3672 0.5337 0.3901 0.2688 -0.1484 -0.7974 -0.6113
-0.09235 0.896 -0.4597 -0.2473 -0.3276 -0.4822 -0.618 0.2183
-1.795 -0.2112 0.5034 0.49 0.09515 0.335 0.614 0.3518
-0.3618 0.359 -0.3472 0.1432 -0.871 -0.3547 1.483 -0.1415
-1.044 1.529 0.01692 0.506 1.1875 0.1285 1.224 -1.828
-0.2712 -2.31 -0.663 0.2917 0.4348 -0.1498 -0.3267 0.0171
0.4329 0.4487 -0.9585 -1.318 -0.7104 0.99 -0.3394 2.396
0.6997 -1.102 1.829 1.0205 -0.9785 -0.804 -0.1464 -1.129
-0.2512 1.204 -1.635 -0.7954 -0.6973 0.9946 -0.441 -0.608
0.6147 -0.09296 1.042 0.07947 1.708 0.183 -1.237 0.11865
-1.03 -1.093 -1.513 -0.3018 0.1371 0.721 0.4724 -0.7935
0.3032 -0.1527 -0.8545 0.6416 0.07904 1.088 0.6353 0.1957
0.432 -0.531 -1.791 -0.494 -0.7065 0.1036 -1.165 0.02226
-0.9644 1.475 -1.632 -1.222 -0.339 -0.4736 0.7925 -0.7334
1.119 0.453 1.365 0.4553 -0.316 0.707 -0.5923 -0.9146
-1.781 -0.1732 -0.4976 -0.509 0.1111 0.09106 -0.939 -0.06445
-0.04904 0.06665 1.257 -1.391 -0.5522 -0.1296 -0.2498 0.8364
-0.496 0.1686 -0.2288 -0.3032 -0.632 -0.4858 -0.4617 0.3416
1.753 0.557 -1.776 -0.5737 1.282 0.1625 0.03894 -1.656
-0.2424 -0.0214 -0.4175 0.08466 -0.1166 1.2 0.3154 -0.2576
0.4895 0.1704 -2.236 -0.4087 -1.076 -0.6626 -2.877 -0.341
0.01999 -1.631 0.1322 -0.02429 -0.02867 -1.413 -0.542 -1.054
-0.8936 -0.2322 0.8276 -0.519 -0.826 0.01193 -0.4473 0.8228
-0.9385 0.4214 -0.4792 -0.3193 -0.4084 0.4475 1.914 0.10095
00000000: fdba 6e31 9ab5 62b6 93b6 2abb e4b9 2c2a
00000010: dabc 2bc1 43b0 0eb8 0a38 41bb f634 04b7
00000020: a534 b3af f73c 242c b140 2235 1e41 cc29
00000030: 033b 35c0 b8b7 e2b8 a6ba 243b 1b40 45af
00000040: 1d3d e6af ddb5 24b8 54ba 96af f33b 0527
00000050: 51b4 3cb7 aa32 71b6 6e24 a63c 883d b1ae
00000060: 7437 1d3a 7fbb b13a e1b9 4930 47b8 bf2f
00000070: b23b 4eb2 db3b 0232 09b4 61b6 7524 3139
00000080: 593e e035 4538 3e36 4d34 c0b0 61ba e4b8
00000090: e9ad 2b3b 5bb7 eab3 3eb5 b7b7 f2b8 fc32
000000a0: 2ebf c2b2 0738 d737 172e 5c35 e938 a135
000000b0: cab5 be35 8eb5 9530 f8ba adb5 ef3d 87b0
000000c0: 2dbc 1e3e 5524 0c38 c03c 1d30 e53c 50bf
000000d0: 57b4 9fc0 4eb9 ab34 f536 cbb0 3ab5 6124
000000e0: ed36 2e37 abbb 46bd afb9 ec3b 6eb5 cb40
000000f0: 9939 68bc 513f 153c d4bb 6fba afb0 84bc
00000100: 05b4 d13c 8abe 5dba 94b9 f53b 0eb7 ddb8
00000110: eb38 f3ad 2b3c 162d d53e db31 f3bc 982f
00000120: 1fbc 5fbc 0dbe d4b4 6330 c539 8f37 59ba
00000130: da34 e3b0 d6ba 2239 0f2d 5a3c 1539 4332
00000140: e936 3fb8 2abf e7b7 a7b9 a12e a9bc b325
00000150: b7bb e63d 87be e3bc 6db5 94b7 573a deb9
00000160: 7a3c 3f37 763d 4937 0eb5 a839 bdb8 51bb
00000170: 20bf 8bb1 f6b7 12b8 1c2f d42d 83bb 20ac
00000180: 47aa 442c 073d 90bd 6bb8 26b0 feb3 b13a
00000190: f0b7 6531 52b3 dab4 0eb9 c6b7 63b7 7735
000001a0: 033f 7538 1bbf 97b8 213d 3331 fc28 a0be
000001b0: c2b3 7aa5 aeb6 6b2d 76af cd3c 0c35 1fb4
000001c0: d537 7431 79c0 8ab6 4ebc 4db9 c1c1 75b5
000001d0: 1e25 86be 3b30 38a6 57a7 a7bd 56b8 37bc
000001e0: 26bb 6eb3 9f3a 27b8 9cba 1c22 28b7 953a
000001f0: 82bb be36 abb7 1cb5 89b6 2937 a83f 762e

onnx::Conv_132 f2 [32]
-0.1635 -0.972 -0.6626 -0.4854 -0.2147 0.3188 1.426 -2.3
-0.0873 0.2157 0.898 -0.1328 -0.6914 0.985 -0.4392 -0.5034
-0.4915 -1.069 0.1527 0.2378 1.001 1.34 -0.4136 -1.092
-0.2617 0.277 0.1255 0.647 0.983 -0.0249 -1.614 1.145
00000000: 3bb1 c7bb 4db9 c4b7 dfb2 1a35 b43d 9ac0
00000010: 96ad e732 2f3b 40b0 88b9 e13b 07b7 07b8
00000020: ddb7 47bc e330 9c33 013c 5c3d 9eb6 5ebc
00000030: 30b4 6f34 0430 2d39 dd3b 60a6 75be 943c

onnx::Conv_134 f2 [32, 16, 1, 1]
-0.171 -0.0883 -0.04547 -0.1932 0.09515 -0.01415 0.0691 -0.03137
0.12164 0.1096 -0.0459 -0.008286 0.1335 0.00629 -0.1298 -0.02078
-0.3425 -0.5195 0.5796 0.447 0.0169 0.168 -0.3896 1.062
-0.344 0.443 0.561 -0.02853 -0.026 0.4614 -0.1428 0.3486
0.03595 0.12476 0.07184 0.1279 0.1698 -0.04657 0.02953 -0.0957
-0.02533 -0.11725 0.03787 0.1407 -0.01723 -0.0931 0.0004053 0.00787
-0.04306 0.04236 0.04065 0.01622 0.0359 0.07544 0.02306 0.02515
0.0894 0.1003 0.1231 0.1605 0.04553 0.04648 0.10144 0.03705
0.2014 0.03378 -0.10114 0.1837 -0.1251 -0.006165 0.1549 -0.1974
-0.0673 -0.00922 0.01978 -0.05374 -0.0665 -0.09674 0.1772 0.06696
-0.03668 0.1245 -0.0736 0.1672 0.245 -0.1818 -0.1255 0.01842
-0.0984 -0.0778 0.272 0.1842 -0.173 -0.1562 0.09955 -0.01776
-0.1993 0.06384 -0.01119 -0.1094 -0.10394 0.4058 -0.10187 -0.00878
0.057 0.384 0.0285 -0.00805 0.1825 -0.0515 -0.1415 -0.03317
0.2245 -0.2021 -0.08154 0.2109 -0.07806 -0.1461 0.3933 0.1092
0.04245 -0.00275 -0.272 -0.1571 -0.0715 0.184 0.02629 0.02437
0.03653 0.008156 0.0628 0.005314 0.06793 -0.0819 0.0084 -0.03174
-0.01475 -0.08374 0.0774 0.04407 -0.003914 -0.03033 0.01709 0.03137
0.0801 -0.08966 0.0622 -0.03305 -0.1244 0.1509 -0.1719 0.1226
0.08435 0.207 -0.2766 -0.1223 0.01855 -0.07654 0.1117 -0.1298
0.2742 0.1509 -0.1407 -0.4153 -0.6704 -0.727 -0.2732 -1.114
0.2202 -0.6216 -0.525 0.1637 -0.2634 -0.3635 0.4832 0.474
0.0002266 0.1078 -0.006657 0.0351 -0.1929 0.1079 -0.00658 0.1539
0.1005 0.1418 -0.00548 0.04855 0.01883 -0.1418 -0.1392 -0.1514
0.114 0.00981 0.0112 0.0811 0.01307 -0.0936 0.001394 -0.02621
-0.06525 0.0608 0.04193 0.07446 -0.06058 0.0691 0.1504 0.02597
0.0703 -0.1208 0.12445 0.06903 -0.2277 -0.01135 0.01529 -0.3406
0.1255 -0.1539 -0.02582 0.0642 -0.0007777 0.0418 -0.05844 0.07495
-0.1638 -0.03943 -0.1428 -0.001984 0.373 -0.1443 0.1986 0.07166
0.02051 -0.0951 0.0903 0.2515 0.002174 0.07764 0.1681 0.001746
-0.02065 -0.0778 -0.0186 0.1365 0.1544 -0.01541 -0.10614 -0.01104
-0.12164 -0.08246 0.1064 0.1161 -0.002789 0.001734 0.1361 0.0649
00000000: 79b1 a7ad d2a9 2fb2 172e 3fa3 6c2c 04a8
00000010: c92f 042f e0a9 3ea0 4630 711e 27b0 52a5
00000020: 7bb5 28b8 a338 2737 5424 6031 3cb6 3f3c
00000030: 81b5 1737 7d38 4ea7 a8a6 6237 92b0 9435
00000040: 9a28 fc2f 992c 1830 6f31 f6a9 8f27 20ae
00000050: 7ca6 81af d928 8130 69a4 f5ad a40e 0820
00000060: 83a9 6c29 3429 2724 9828 d42c e725 7026
00000070: b92d 6b2e e12f 2331 d429 f329 7e2e be28
00000080: 7232 5328 79ae e131 01b0 509e f530 51b2
00000090: 4fac b8a0 1025 e1aa 42ac 31ae ac31 492c
000000a0: b2a8 f82f b6ac 5a31 d733 d1b1 04b0 b724
000000b0: 4cae fbac 5a34 e531 89b1 00b1 5f2e 8ca4
000000c0: 61b2 162c bba1 00af a7ae 7e36 85ae 7fa0
000000d0: 4c2b 2536 4c27 1fa0 d731 98aa 87b0 3fa8
000000e0: 2f33 78b2 38ad c032 ffac adb0 4b36 fd2e
000000f0: 6f29 a299 5ab4 07b1 93ac e331 bb26 3d26
00000100: ad28 2d20 052c 711d 592c 3ead 4d20 10a8
00000110: 8da3 5cad f42c a429 029c c4a7 6024 0428
00000120: 202d bdad f62b 3ba8 f6af d430 80b1 d92f
00000130: 662d a032 6db4 d4af c024 e6ac 262f 27b0
00000140: 6334 d430 81b0 a5b6 5db9 d1b9 5fb4 75bc
00000150: 0c33 f9b8 33b8 3d31 37b4 d1b5 bb37 9637
00000160: 6d0b e62e d19e 7e28 2cb2 e82e bd9e ed30
00000170: 6f2e 8a30 9d9d 372a d224 8ab0 74b0 d8b0
00000180: 4c2f 0621 bc21 312d b122 fead b615 b6a6
00000190: 2dac c82b 5e29 c42c c1ab 6c2c d030 a626
000001a0: 802c bbaf f72f 6b2c 49b3 d0a1 d423 73b5
000001b0: 0430 edb0 9ca6 1c2c 5f92 5a29 7bab cc2c
000001c0: 3eb1 0ca9 92b0 1098 f835 9eb0 5b32 962c
000001d0: 4025 16ae c72d 0634 7418 f82c 6131 2717
000001e0: 49a5 fbac c3a4 5e30 f130 e4a3 cbae a7a1
000001f0: c9af 47ad cf2e 6e2f b699 1a17 5b30 272c

onnx::Conv_135 f2 [32]
0.07697 -3.598 -0.1251 -1.228 -0.2773 -0.4236 -0.2637 -0.9883
-0.4526 -0.1337 3.832 -0.4517 -0.4895 0.0959 -0.8164 -0.2426
-1.99 1.372 1.3955 -1.761 -0.1453 -0.718 -0.5474 3.135
0.2737 0.2603 0.2861 0.10425 0.98 -0.1521 -0.2642 0.1575
00000000: ed2c 32c3 01b0 e9bc 70b4 c7b6 38b4 e8bb
00000010: 3eb7 47b0 aa43 3ab7 d5b7 232e 88ba c3b3
00000020: f6bf 7d3d 953d 0bbf a6b0 beb9 61b8 4542
00000030: 6134 2a34 9434 ac2e d73b deb0 3ab4 0a31

onnx::Conv_137 f2 [64, 32, 1, 1]
-0.3005 -0.1807 0.02748 0.302 -0.014755 0.1902 0.272 0.2715
0.1367 -0.05972 -0.1112 -0.0807 -0.1788 -0.1492 0.178 -0.03156
0.12134 -0.2415 -0.1835 -0.03882 0.1921 -0.0897 -0.2153 0.2128
0.02586 -0.1926 0.4626 -0.03372 -0.04022 0.254 -0.2612 -0.1646
-0.5986 -0.2847 -0.1827 -0.334 -0.02559 0.646 -0.27 -0.05682
0.1938 0.2458 0.04376 -0.0545 0.081 -0.3665 -0.00987 -0.2157
0.4407 -0.02827 -0.1132 -0.1437 -0.1648 0.17 -0.7344 0.7544
0.2627 -0.5244 -0.2349 -0.303 -0.3809 -0.4238 0.2847 0.1559
-0.6885 -0.645 -0.4243 -0.1296 -0.02744 0.524 -0.1566 0.1666
0.1375 -0.04175 0.0752 -0.7065 -0.3135 -0.11414 -0.4446 -0.04718
0.4358 -0.5254 0.6836 -0.2461 0.2837 -0.3958 -0.648 -0.4104
-0.514 0.628 0.6875 -0.2262 0.2803 0.931 -0.1863 -0.664
-0.4873 -0.6978 0.625 -0.1523 0.2498 0.263 -0.3499 -0.09924
-0.0762 -0.347 0.2659 -0.07025 -0.588 -0.07855 -0.3748 -0.3218
0.7544 -0.3645 0.75 -0.03357 0.5435 -0.4534 0.1141 -0.3113
-0.272 0.3308 0.762 -0.2094 -0.4336 0.5166 -0.1532 -0.523
0.2389 -0.5615 0.2773 0.195 0.519 0.03503 -0.2458 -0.0649
0.379 0.6865 0.1076 0.1827 -0.005688 -0.5825 0.713 -0.2686
0.6377 0.3318 -0.6895 0.06073 -0.03038 0.9556 0.5083 0.01904
1.112 -0.4739 0.187 0.3857 0.4592 0.7656 0.3857 0.3936
-0.11383 -0.1302 -0.1931 0.00993 0.11017 0.2659 0.0872 0.2773
-0.1638 -0.1681 0.2098 -0.2327 -0.1484 0.0891 -0.0969 -0.1445
-0.01295 -0.1667 -0.29 -0.4453 -0.09973 0.1544 -0.1757 0.4258
0.2986 -0.02695 0.062 -0.05508 -0.219 -0.348 0.4417 0.1343
-0.6167 0.1078 -0.1504 0.3242 -0.1803 -0.02391 0.0399 0.444
-0.2407 0.664 -0.1243 -0.4995 -0.074 0.1885 0.03143 0.4893
0.01617 -0.3896 0.1544 -0.435 0.4917 0.1873 -0.2242 0.1465
-0.00221 -0.01962 0.5117 -0.131 0.218 0.551 0.594 -0.319
-0.03738 -0.373 0.1743 -0.1392 0.05884 0.2146 0.2173 0.281
0.391 -0.2424 0.3716 -0.06836 0.3083 0.1056 0.10693 -0.01868
-0.1763 0.1646 -0.2012 -0.2712 -0.1738 -0.0695 -0.03693 0.1364
0.4893 -0.07007 -0.1395 -0.04214 0.12305 0.05734 -0.1912 0.1218
00000000: cfb4 c8b1 0927 d534 8ea3 1632 5a34 5834
00000010: 6030 a5ab 1eaf 2aad b9b1 c6b0 b231 0aa8
00000020: c42f bab3 dfb1 f8a8 2632 bead e4b2 cf32
00000030: 9f26 2ab2 6737 51a8 26a9 1034 2eb4 44b1
00000040: cab8 8eb4 d9b1 58b5 8da6 2b39 52b4 46ab
00000050: 3432 de33 9a29 faaa 2f2d ddb5 0ea1 e7b2
00000060: 0d37 3da7 3faf 99b0 46b1 7131 e0b9 093a
00000070: 3434 32b8 84b3 d9b4 18b6 c8b6 8e34 fd30
00000080: 82b9 29b9 cab6 26b0 06a7 3138 03b1 5531
00000090: 6630 58a9 d02c a7b9 04b5 4eaf 1db7 0aaa
000000a0: f936 34b8 7839 e0b3 8a34 55b6 2fb9 91b6
000000b0: 1db8 0639 8039 3db3 7c34 733b f6b1 50b9
000000c0: ccb7 95b9 0039 e0b0 fe33 3534 99b5 5aae
000000d0: e0ac 8db5 4134 7fac b4b8 07ad ffb5 26b5
000000e0: 093a d5b5 003a 4ca8 5938 41b7 4d2f fbb4
000000f0: 5ab4 4b35 193a b3b2 f0b6 2238 e7b0 2fb8
00000100: a533 7eb8 7034 3d32 2738 7c28 deb3 27ac
00000110: 1036 7e39 e32e d931 d39d a9b8 b439 4cb4
00000120: 1a39 4f35 84b9 c62b c7a7 a53b 1138 e024
00000130: 733c 95b7 fc31 2c36 5937 203a 2c36 4c36
00000140: 49af 2bb0 2eb2 1621 0d2f 4134 952d 7034
00000150: 3eb1 61b1 b732 72b3 c0b0 b42d 34ae a0b0
00000160: a1a2 56b1 a4b4 20b7 62ae f130 9fb1 d036
00000170: c734 e6a6 f02b 0dab 02b3 91b5 1137 4c30
00000180: efb8 e62e d0b0 3035 c5b1 1fa6 1b29 1b37
00000190: b4b3 5039 f5af feb7 bcac 0832 0628 d437
000001a0: 2424 3cb6 f130 f6b6 de37 fe31 2db3 b030
000001b0: 8798 06a5 1838 31b0 fa32 6838 c138 1bb5
000001c0: c9a8 f8b5 9431 74b0 882b de32 f432 7f34
000001d0: 4236 c2b3 f235 60ac ef34 c22e d82e c8a4
000001e0: a4b1 4431 70b2 57b4 90b1 73ac baa8 5d30
000001f0: d437 7cac 77b0 65a9 e02f 572b 1eb2 cc2f

onnx::Conv_138 f2 [64]
-0.12213 -0.2168 0.5107 -0.12177 -0.6426 -0.328 0.304 0.1627
-0.7876 -0.9873 0.1754 -0.2319 0.3154 -0.1838 1.151 -0.2386
0.575 -0.658 -0.829 -0.3408 -0.2094 -0.5986 0.01712 0.114
-0.08923 0.127 0.1698 0.1711 -0.7686 -0.05222 -0.3164 -0.2258
0.2059 -0.035 -0.3206 0.3792 0.11053 -0.1399 0.434 -0.4438
0.1401 0.1274 -0.1615 -0.010994 -0.2134 -0.3389 0.1624 0.731
0.3306 -0.546 -0.184 -0.4233 -0.6836 -0.1989 0.1138 0.1938
0.1597 -0.0763 -0.1818 0.2642 0.0954 -0.3796 -0.259 0.149
00000000: d1af f0b2 1638 cbaf 24b9 3fb5 dd34 3531
00000010: 4dba e6bb 9d31 6cb3 0c35 e2b1 9b3c a3b3
00000020: 9a38 44b9 a2ba 74b5 b3b2 cab8 6224 4c2f
00000030: b6ad 1030 6f31 7a31 26ba afaa 10b5 3ab3
00000040: 9732 7ba8 21b5 1136 132f 7ab0 f236 1ab7
00000050: 7c30 1430 2bb1 a1a1 d4b2 6cb5 3231 d939
00000060: 4a35 5eb8 e3b1 c6b6 78b9 5db2 482f 3432
00000070: 1c31 e2ac d1b1 3a34 1b2e 13b6 25b4 c530

onnx::Conv_140 f2 [64, 1, 1, 1]
-0.3662 -0.3633 -0.1498 0.333 0.2108 -0.3257 -0.1736 0.4397
0.34 0.1532 -0.1635 -0.531 -0.233 -0.1909 0.00703 0.3767
0.253 -0.4246 -0.312 -0.1338 -0.1272 -0.3804 -0.4373 -0.3015
-0.2866 -0.2317 -0.2394 -0.06805 -0.07355 -0.3496 -0.3816 -0.1283
0.1449 0.2336 -0.2255 -0.2305 -0.3289 0.1821 -0.4497 -0.5293
0.1971 -0.2761 0.1611 -0.367 0.2295 0.2502 -0.2357 0.4712
0.1709 0.1838 0.1965 -0.2976 0.213 -0.2394 -0.3345 0.3953
-0.4048 -0.02383 -0.531 0.03845 0.2002 -0.03726 -0.2379 0.4392
00000000: dcb5 d0b5 cbb0 5435 bf32 36b5 8eb1 0937
00000010: 7135 e730 3bb1 3fb8 75b3 1cb2 331f 0736
00000020: 0c34 cbb6 feb4 48b0 12b0 16b6 ffb6 d3b4
00000030: 96b4 6ab3 a9b3 5bac b5ac 98b5 1bb6 1bb0
00000040: a330 7a33 37b3 60b3 43b5 d431 32b7 3cb8
00000050: 4f32 6bb4 2831 dfb5 5833 0134 8bb3 8a37
00000060: 7831 e231 4a32 c3b4 d132 a9b3 5ab5 5336
00000070: 7ab6 1aa6 3fb8 ec28 6832 c5a8 9db3 0737

onnx::Conv_141 f2 [64]
-0.067 -0.1128 -0.6196 -0.929 -0.8755 -0.1492 -0.3772 -0.8525
-0.922 -0.7256 -0.5503 -0.11066 -0.1071 -0.1975 -0.4355 -0.8037
-0.559 -0.00572 -0.3577 -0.734 -0.507 -0.1401 -0.1289 -0.1724
-0.113 -0.1812 -0.1019 -0.502 -0.4065 -0.1545 -0.10486 -0.6963
-0.673 -0.854 -0.2274 -0.3088 -0.3064 -0.771 -0.1764 -0.1982
-0.9243 -0.01808 -0.7817 0.08 -0.982 -0.641 -0.162 -0.8755
-0.734 -0.9907 -0.834 -0.1481 -0.826 -0.1024 -0.1598 -0.8447
-0.15 -0.1306 -0.0958 -0.74 -0.9595 -0.8623 -0.2045 -0.7485
00000000: 4aac 38af f5b8 6fbb 01bb c6b0 09b6 d2ba
00000010: 60bb ceb9 67b8 15af dbae 52b2 f8b6 6eba
00000020: 79b8 db9d b9b5 dfb9 0eb8 7cb0 20b0 84b1
00000030: 3baf ccb1 86ae 04b8 81b6 f2b0 b6ae 92b9
00000040: 62b9 d5ba 47b3 f1b4 e7b4 2bba a5b1 58b2
00000050: 65bb a1a4 41ba 1f2d dbbb 21b9 2fb1 01bb
00000060: dfb9 edbb acba bdb0 9cba 8eae 1db1 c2ba
00000070: cdb0 2eb0 22ae ecb9 adbb e6ba 8bb2 fdb9

onnx::Conv_143 f2 [64, 1, 1, 1]
10.055 3.875 -1.378 1.875 -1.115 11.664 -0.0711 -2.658
1.528 -1.078 -1.047 -0.5405 -1.648 4.137 -0.541 0.6636
-1.226 -3.9 3.625 8.51 -2.014 -6.86 -1.446 -3.537
8.13 5.758 6.207 7.773 2.016 -13.89 3.693 4.574
4.695 5.367 5.902 -1.643 -2.936 3.402 -1.826 -2.07
-3.107 -1.587 -12.57 15.05 4.848 -1.011 5.64 -0.651
-1.491 -0.9717 -1.187 -0.735 -0.8867 10.266 8.77 3.613
-4.684 15.73 8.35 -2.078 5.23 -1.24 -1.907 3.982
00000000: 0749 c043 83bd 803f 76bc d549 8dac 51c1
00000010: 1d3e 50bc 30bc 53b8 98be 2344 54b8 4f39
00000020: e7bc cdc3 4043 4148 07c0 dcc6 c9bd 13c3
00000030: 1148 c245 3546 c647 0840 f2ca 6343 9344
00000040: b244 5e45 e745 92be dfc1 ce42 4ebf 24c0
00000050: 37c2 59be 49ca 864b d944 0bbc a445 35b9
00000060: f7bd c6bb bfbc e1b9 18bb 2249 6348 3a43
00000070: afc4 dd4b 2d48 28c0 3b45 f6bc a1bf f743

onnx::Conv_144 f2 [64]
-0.504 -0.4956 0.1366 -0.6206 -0.1321 -0.5825 -0.3914 0.4292
-0.687 -0.1259 0.01727 -0.2246 0.2125 -0.451 -0.0383 -0.6855
0.3086 0.0675 -0.697 -0.564 -0.147 -0.04263 -0.248 0.0953
-0.443 -0.8423 -0.9497 -1.114 -0.5674 -0.04178 -0.4797 -0.3948
-0.957 -0.5684 -0.549 0.1721 -0.0804 -0.659 0.253 -0.03065
0.2837 -0.2217 0.1694 -1.212 -0.4521 -0.1368 -0.8535 0.1948
0.04825 -0.158 -0.1411 -0.1803 0.03726 -0.4954 -1.019 -0.915
0.165 -0.4343 -0.522 0.1396 -0.887 -0.03217 -0.1337 -0.992
00000000: 08b8 eeb7 5f30 f7b8 3ab0 a9b8 43b6 de36
00000010: 7fb9 07b0 6c24 30b3 cd32 37b7 e7a8 7cb9
00000020: f034 522c 93b9 83b8 b4b0 75a9 f0b3 192e
00000030: 17b7 bdba 99bb 75bc 8ab8 59a9 adb7 51b6
00000040: a8bb 8cb8 64b8 8231 25ad 46b9 0c34 d9a7
00000050: 8a34 18b3 6c31 d9bc 3cb7 61b0 d4ba 3c32
00000060: 2d2a 0eb1 84b0 c5b1 c528 edb7 13bc 52bb
00000070: 4831 f3b6 2db8 7830 19bb 1ea8 47b0 f0bb

onnx::Conv_146 f2 [64, 1, 3, 3]
-2.06 0.918 0.906 0.1727 -2.914 0.6133 -0.891 2.219
-2.133 1.066 1.124 0.3503 0.5654 -0.005905 0.1829 0.1703
-0.0672 -1.141 0.2866 -0.501 -0.4492 0.9697 0.2037 0.4036
-0.3557 0.4927 -0.1282 -0.1567 0.004646 -0.1531 0.4214 -0.04468
-0.01974 -0.458 -0.4287 -0.5557 -0.2854 -0.02702 0.3284 -0.529
-0.1231 -0.07825 -0.223 -0.06155 -0.187 -2.625 0.5557 0.3735
-2.367 -2.357 -2.574 -1.866 0.4182 0.7236 0.681 0.5083
0.4658 -0.2286 0.2708 0.1816 0.7725 -1.135 1.085 -0.2705
-0.8755 -0.3193 -0.1124 0.6064 0.432 0.1719 0.1832 -0.7783
0.01762 0.1891 -0.265 -0.2754 0.167 -0.3774 -0.09393 0.4116
-0.596 0.5493 0.544 0.1906 0.214 -0.3362 0.1065 -0.3428
-0.309 -0.2605 0.2615 -0.371 -0.3218 0.342 -0.4277 0.0928
-0.31 -0.05066 -0.326 1.199 1.027 1.699 -1.8955 -1.1
-0.6255 -0.3684 0.1825 1.135 -0.568 -0.2262 0.521 0.4302
-0.8125 -0.4175 -0.5957 0.2993 0.07355 -0.9473 0.3987 0.529
-0.707 -0.784 0.2534 -0.871 -1.002 1.013 0.11115 -0.0707
-0.3535 0.0599 -0.1249 0.0176 -0.1461 -0.2188 0.03992 -0.3518
-0.1582 -0.3257 0.218 0.02402 0.04987 0.3206 0.1793 0.1388
-0.3867 -0.06635 -0.2756 -0.1137 -0.02039 0.2097 -0.4492 -0.1592
0.2338 -0.8413 2.072 0.507 -0.798 -0.09576 -0.1307 -0.758
1.767 -0.2935 -0.652 -0.012726 -0.825 0.03455 -0.6562 -0.1626
0.4766 -0.775 -0.5073 -2.209 -1.294 -3.424 -1.289 0.0904
-0.8584 2.271 1.663 3.365 -1.044 0.519 0.6064 1.457
-0.08124 -0.2247 -0.5503 -0.01391 0.6953 0.653 -1.246 0.8213
-2.8 0.77 -1.245 -2.328 0.7837 -1.433 2.236 -0.5034
0.8843 -0.2477 1.598 -0.6255 1.094 -0.3447 -0.1142 0.3713
-0.574 -0.1421 0.6343 -0.2152 -0.436 0.6235 -0.2861 -2.236
-1.914 1.559 -1.974 -1.876 2.18 1.421 1.113 1.375
0.846 0.0745 -1.199 1.865 -1.941 0.7188 -0.289 -0.1
-0.89 -0.995 -0.6265 0.0631 -1.601 -0.2247 0.3914 -1.118
1.878 1.61 2.219 2.033 -0.425 -0.3325 -1.944 1.495
0.617 -2.58 0.4739 -0.613 0.099 -0.2316 0.1581 -0.576
00000000: 1fc0 583b 3f3b 8731 d4c1 e838 21bb 7040
00000010: 44c0 443c 7f3c 9b35 8638 0c9e da31 7331
00000020: 4dac 90bc 9634 02b8 30b7 c23b 8532 7536
00000030: b1b5 e237 1ab0 04b1 c21c e6b0 be36 b8a9
00000040: 0ea5 54b7 dcb6 72b8 91b4 eba6 4135 3bb8
00000050: e1af 02ad 23b3 e1ab fcb1 40c1 7238 fa35
00000060: bcc0 b7c0 26c1 77bf b136 ca39 7339 1138
00000070: 7437 51b3 5534 d031 2e3a 8abc 573c 54b4
00000080: 01bb 1cb5 32af da38 e936 8031 dd31 3aba
00000090: 8324 0d32 3db4 68b4 5831 0ab6 03ae 9636
000000a0: c5b8 6538 5a38 1932 d932 61b5 d12e 7cb5
000000b0: f2b4 2bb4 2f34 f0b5 26b5 7935 d8b6 f02d
000000c0: f6b4 7caa 37b5 cc3c 1c3c cc3e 95bf 66bc
000000d0: 01b9 e5b5 d731 8a3c 8bb8 3db3 2b38 e236
000000e0: 80ba aeb6 c4b8 ca34 b52c 94bb 6136 3b38
000000f0: a8b9 46ba 0e34 f8ba 02bc 0d3c 1d2f 86ac
00000100: a8b5 ab2b feaf 8124 adb0 00b3 1c29 a1b5
00000110: 10b1 36b5 fa32 2626 622a 2135 bd31 7130
00000120: 30b6 3fac 69b4 47af 38a5 b632 30b7 18b1
00000130: 7b33 bbba 2540 0e38 62ba 21ae 2fb0 10ba
00000140: 113f b2b4 37b9 84a2 9aba 6c28 40b9 34b1
00000150: a037 33ba 0fb8 6bc0 2dbd d9c2 28bd c92d
00000160: deba 8b40 a73e bb42 2dbc 2738 da38 d43d
00000170: 33ad 31b3 67b8 1fa3 9039 3939 fcbc 923a
00000180: 9ac1 293a fbbc a8c0 453a bbbd 7940 07b8
00000190: 133b edb3 643e 01b9 603c 84b5 4faf f135
000001a0: 98b8 8cb0 1339 e3b2 fab6 fd38 94b4 79c0
000001b0: a8bf 3c3e e5bf 81bf 5c40 af3d 743c 803d
000001c0: c53a c52c ccbc 763f c4bf c039 a0b4 66ae
000001d0: 1fbb f6bb 03b9 0a2c 67be 31b3 4336 79bc
000001e0: 833f 713e 7040 1140 cdb6 52b5 c7bf fb3d
000001f0: f038 29c1 9537 e7b8 562e 69b3 0f31 9cb8

onnx::Conv_147 f2 [64]
-0.3547 -0.395 -0.5986 -0.1927 -0.1399 -0.1616 -0.7153 -0.251
-0.1697 -0.3289 0.05954 -0.3933 0.05795 -0.1248 -0.075 -0.4246
0.1462 -0.518 -0.185 -0.1957 -0.3914 -0.1965 -0.5337 -0.2395
-0.3157 -0.09985 -0.412 -0.3335 -0.1494 -0.3774 -0.2615 -0.2297
-0.1783 -0.2194 -0.291 -0.7935 -0.2365 -0.1532 -0.7227 -0.3298
-0.05447 -0.3723 -0.2184 -0.8794 -0.3284 0.05853 -0.7563 0.156
-0.6914 -0.5376 -0.2303 -0.622 -0.1923 -0.2185 -0.5215 -0.932
-0.9287 -0.4858 -0.4575 0.1372 -0.3633 -0.645 -0.271 -0.4644
00000000: adb5 52b6 cab8 2bb2 7ab0 2cb1 b9b9 04b4
00000010: 6eb1 43b5 9f2b 4bb6 6b2b fdaf cdac cbb6
00000020: ae30 25b8 ecb1 43b2 43b6 4ab2 45b8 aab3
00000030: 0db5 64ae 98b6 56b5 c8b0 0ab6 2fb4 5ab3
00000040: b5b1 05b3 a8b4 59ba 91b3 e7b0 c8b9 47b5
00000050: f9aa f5b5 fdb2 09bb 41b5 7e2b 0dba fe30
00000060: 88b9 4db8 5fb3 fab8 27b2 feb2 2cb8 75bb
00000070: 6ebb c6b7 52b7 6430 d0b5 29b9 56b4 6eb7

onnx::Conv_149 f2 [64, 1, 5, 5]
2.273 0.736 1.829 -1.227 -0.988 0.598 0.882 -0.626
1.431 -2.02 0.993 -1.851 2.066 0.923 0.0974 -2.457
-0.4688 1.356 -0.937 -0.561 -2.271 -1.046 -0.8237 -2.744
-2.393 1.122 2.322 1.51 1.149 0.681 -0.635 -0.4255
0.1945 -0.1276 -0.6133 -0.472 -0.12225 -0.0777 0.1636 -0.1476
0.1401 -0.1434 -0.1069 -0.3657 -0.3723 0.05188 -0.608 -0.1158
-1.033 -0.844 0.6396 0.4797 -0.0829 -0.155 -0.2313 0.727
0.1484 0.091 -0.3345 -0.1008 0.4077 0.229 -0.013985 0.206
-0.1328 0.02939 0.1969 -0.01203 0.1592 -0.1266 -0.04782 -0.3125
-0.02289 -0.02995 0.0251 -0.1633 -0.01175 -0.04376 -0.00825 0.08344
-0.02473 -0.02954 -0.03088 -0.0753 -0.1261 -0.0993 0.00208 -0.06143
-0.0902 0.03983 0.1338 0.0719 0.1433 -0.1477 0.01484 -0.4128
-0.3035 0.4954 0.8726 1.092 -0.0958 -0.05008 0.1775 -0.08575
0.1486 -0.1057 0.4048 -0.0238 -0.1796 0.1938 -0.429 0.3796
-0.2742 -0.1278 -0.2191 -0.02544 -0.09033 -0.399 0.1554 0.006443
-0.216 0.322 -0.013084 -0.1098 -0.2446 3.27 -3.09 -2.754
-0.1533 -0.2734 0.762 -0.996 2.508 -0.1312 -0.0265 1.874
0.7017 -1.461 -0.3901 -0.1724 2.59 -0.378 -1.128 0.3445
-1.718 2.06 -3.889 1.32 1.429 -2.836 0.557 0.2598
-0.1528 0.326 -0.6655 0.2003 -0.2347 0.05093 -0.2374 0.02255
0.071 -0.1654 -0.00788 -0.1592 0.2214 0.569 0.0475 0.4263
0.06573 -0.7935 0.3555 0.6963 0.236 0.521 0.756 0.582
1.005 1.023 1.124 -0.02567 -0.238 -0.0999 -0.0539 0.17
-0.1804 0.00126 -0.09204 -0.05713 -0.05545 -0.10834 -0.1145 -0.1401
-0.005928 -0.1938 0.08484 -0.10376 -0.182 -0.2157 -0.1823 -0.1987
-0.1074 -0.1824 -0.1993 -0.0394 0.4934 -0.1727 -0.1776 -0.09625
-0.1346 0.1982 -0.2145 -0.11536 -0.2017 -0.09467 0.2046 -0.2347
-0.0853 -0.1578 -0.04807 0.4985 -0.0997 0.06683 -0.129 0.01209
0.4417 0.463 0.4114 0.08795 0.4878 -0.2957 0.1509 0.1415
0.00732 0.255 0.2778 -0.332 0.04404 -0.02458 0.3184 0.1708
-0.08093 -0.2103 -0.2021 0.2698 -0.09766 -0.1605 -0.2109 -0.232
0.1581 0.00995 -0.1826 -0.151 0.2295 -0.2217 0.1301 -0.2825
00000000: 8c40 e339 513f e8bc e7bb c938 0e3b 02b9
00000010: b93d 0ac0 f23b 67bf 2240 623b 3c2e eac0
00000020: 80b7 6d3d 7fbb 7db8 8bc0 2fbc 97ba 7dc1
00000030: c9c0 7d3c a540 0a3e 993c 7339 14b9 cfb6
00000040: 3932 15b0 e8b8 8db7 d3af f9ac 3c31 b9b0
00000050: 7c30 97b0 d7ae dab5 f5b5 a42a ddb8 69af
00000060: 22bc c1ba 1e39 ad37 4ead f6b0 67b3 d139
00000070: c030 d32d 5ab5 74ae 8636 5433 29a3 9832
00000080: 40b0 8627 4d32 29a2 1831 0db0 1faa 00b5
00000090: dca5 aba7 6d26 3ab1 04a2 9aa9 39a0 572d
000000a0: 55a6 90a7 e8a7 d2ac 09b0 5bae 4318 ddab
000000b0: c6ad 1929 4830 9a2c 9630 bab0 9923 9bb6
000000c0: dbb4 ed37 fb3a 5e3c 22ae 69aa ae31 7dad
000000d0: c130 c4ae 7a36 18a6 bfb1 3432 ddb6 1336
000000e0: 63b4 17b0 03b3 83a6 c8ad 62b6 f930 991e
000000f0: e9b2 2735 b3a2 07af d4b3 8a42 2ec2 82c1
00000100: e8b0 60b4 193a f8bb 0441 33b0 c9a6 7f3f
00000110: 9d39 d8bd 3eb6 84b1 2e41 0cb6 83bc 8335
00000120: dfbe 1f40 c7c3 483d b73d acc1 7538 2834
00000130: e4b0 3735 53b9 6932 83b3 852a 99b3 c625
00000140: 8b2c 4bb1 09a0 18b1 1633 8d38 142a d236
00000150: 352c 59ba b035 9239 8d33 2b38 0c3a a838
00000160: 053c 183c 7f3c 92a6 9eb3 65ae e6aa 7131
00000170: c6b1 2915 e4ad 50ab 19ab efae 54af 7cb0
00000180: 129e 34b2 6e2d a4ae d3b1 e7b2 d5b1 5cb2
00000190: e0ae d6b1 61b2 0ba9 e537 87b1 afb1 29ae
000001a0: 4fb0 5832 ddb2 62af 74b2 0fae 8c32 83b3
000001b0: 76ad 0db1 27aa fa37 61ae 472c 21b0 3122
000001c0: 1137 6837 9536 a12d ce37 bbb4 d430 8730
000001d0: 7f1f 1434 7234 50b5 a329 4ba6 1835 7731
000001e0: 2ead bbb2 78b2 5134 40ae 23b1 c0b2 6db3
000001f0: 0f31 1821 d8b1 d5b0 5833 18b3 2a30 85b4

onnx::Conv_150 f2 [64]
-0.3396 -0.08026 -0.6934 -0.402 -0.285 -0.2825 -0.5835 -0.3848
0.0476 -0.3572 -0.5645 -0.308 0.1459 0.0606 -0.6743 -0.0613
-0.08466 -0.4543 -0.0565 -0.3696 -0.1647 -0.2118 -0.2617 -0.6724
-0.2191 0.0381 -0.1554 -0.146 -0.08606 -0.2722 -0.2062 -0.3416
-0.895 -0.2224 -0.1385 -0.6196 -0.6426 -0.05875 -0.8545 -0.4812
-0.869 -0.316 0.2386 -0.3318 -0.4626 0.04715 -0.171 0.2844
-0.701 -0.3835 -0.7026 -0.1508 -0.789 -0.0644 -0.0344 -0.992
-0.952 -0.0268 -0.1365 0.4424 -0.639 0.1306 -0.072 0.1622
00000000: 6fb5 23ad 8cb9 6fb6 8fb4 85b4 abb8 28b6
00000010: 182a b7b5 84b8 eeb4 ab30 c22b 65b9 d9ab
00000020: 6bad 45b7 3bab eab5 45b1 c7b2 30b4 61b9
00000030: 03b3 e028 f9b0 acb0 82ad 5bb4 99b2 77b5
00000040: 29bb 1eb3 6fb0 f5b8 24b9 85ab d6ba b3b7
00000050: f4ba 0eb5 a333 4fb5 67b7 092a 79b1 8d34
00000060: 9cb9 23b6 9fb9 d3b0 50ba 1fac 67a8 f0bb
00000070: 9ebb dca6 5eb0 1437 1db9 2e30 9cac 3131

onnx::Conv_152 f2 [32, 256, 1, 1]
0.1459 -0.08344 0.027 0.1051 -0.1404 -0.2756 0.21 0.02692
-0.1071 -0.13 0.07153 0.0934 0.10095 0.04825 0.1924 0.03934
0.0502 -0.09845 -0.1494 -0.0799 0.1577 -0.2017 0.01839 -0.01685
0.05197 -0.2126 0.2018 -0.0693 0.05753 0.1665 0.10394 -0.03973
0.03146 0.1459 0.003172 0.215 -0.2947 0.03403 0.01064 -0.3577
0.005516 -0.2732 -0.03647 0.1075 -0.281 0.0973 0.13 0.2394
0.12115 -0.145 0.0744 0.0952 -0.1069 0.007805 -0.1466 0.0544
-0.1698 -0.11237 -0.0091 -0.08813 -0.1265 -0.0176 0.1043 0.0738
0.1794 -0.09546 0.1833 0.0676 0.10394 -0.2966 0.036 0.2856
-0.0845 0.1516 0.2402 0.00191 0.2263 0.1791 0.108 -0.1257
0.2268 0.1475 -0.2908 -0.1387 0.1007 0.207 0.07446 0.1292
-0.09564 -0.2944 0.1282 -0.2196 -0.10065 0.2625 0.08887 -0.01096
0.174 0.2441 -0.006607 0.04517 -0.1705 -0.06555 0.0843 0.1288
0.208 0.1477 0.04565 -0.02527 -0.33 -0.01662 0.2216 0.167
0.1588 0.07385 0.0466 0.06113 0.319 -0.1285 -0.2445 -0.006573
0.1681 -0.0664 -0.1685 -0.004505 -0.2092 0.2059 0.0987 0.1603
0.0918 0.01507 0.01797 0.1158 -0.1058 -0.1782 0.03363 0.11865
-0.1367 -0.1558 0.0758 0.0953 0.034 0.02586 0.1577 -0.1213
0.1067 -0.2032 -0.1324 -0.10425 0.0789 -0.1388 -0.03168 -0.162
-0.00698 -0.1909 0.1772 -0.1945 -0.08655 0.1959 0.08606 0.01826
0.02325 0.1349 0.00892 0.1844 -0.1168 -0.0986 -0.04883 -0.1512
0.1388 -0.2136 0.15 -0.0766 -0.1247 0.1512 0.1372 0.1642
0.01431 -0.0783 0.05817 0.001299 0.05698 0.01743 -0.1528 0.08997
-0.0844 -0.1023 -0.0769 -0.2544 -0.111 -0.006844 -0.03848 0.12384
0.1527 0.0988 0.05405 0.04767 -0.2092 -0.1542 0.0681 -0.00686
0.003765 0.00294 0.1162 0.248 0.1339 0.1893 0.1865 -0.09784
-0.07947 -0.2389 -0.2507 -0.0965 0.1536 -0.267 -0.1237 -0.06186
-0.04697 -0.1525 0.09796 -0.1636 0.101 0.1592 0.1392 -0.1472
0.2194 0.2279 0.1584 0.1715 -0.2484 0.2229 -0.09985 -0.1079
0.007755 -0.1768 -0.1482 -0.1255 -0.1942 0.11743 0.2717 0.2142
0.2358 -0.1431 0.09937 0.0632 -0.1849 0.10614 0.10376 0.005505
-0.1159 0.3367 -0.08026 -0.2499 -0.1823 0.1871 -0.01114 -0.2317
00000000: ab30 57ad e926 ba2e 7eb0 69b4 b832 e426
00000010: dbae 29b0 942c fa2d 762e 2d2a 2832 0929
00000020: 6d2a 4dae c8b0 1dad 0c31 74b2 b524 50a4
00000030: a72a ceb2 7532 6fac 5d2b 5431 a72e 16a9
00000040: 0728 ab30 7f1a e132 b7b4 5b28 7321 b9b5
00000050: a61d 5fb4 aba8 e12e 7fb4 3a2e 2930 a933
00000060: c12f a4b0 c32c 182e d7ae fe1f b1b0 f72a
00000070: 6fb1 31af a9a0 a4ad 0cb0 81a4 ad2e b92c
00000080: be31 1cae de31 542c a72e bfb4 9c28 9234
00000090: 68ad da30 b033 d317 3e33 bb31 e92e 06b0
000000a0: 4233 b830 a7b4 70b0 722e a032 c42c 2230
000000b0: 1fae b6b4 1a30 07b3 71ae 3334 b02d 9da1
000000c0: 9131 d033 c49e c829 75b1 32ac 652d 1f30
000000d0: a832 ba30 d829 78a6 48b5 41a4 1733 5831
000000e0: 1531 ba2c f729 d32b 1b35 1db0 d3b3 bb9e
000000f0: 6131 40ac 64b1 9d9c b2b2 9732 512e 2131
00000100: e02d b723 9a24 692f c5ae b4b1 4e28 982f
00000110: 60b0 fcb0 da2c 192e 5a28 9f26 0c31 c3af
00000120: d42e 81b2 3db0 acae 0d2d 71b0 0ea8 2fb1
00000130: 269f 1cb2 ac31 39b2 8aad 4532 822d ad24
00000140: f425 5130 9120 e731 7aaf 4fae 40aa d7b0
00000150: 7130 d6b2 cd30 e7ac fbaf d730 6430 4131
00000160: 5423 03ad 722b 5215 4b2b 7624 e4b0 c22d
00000170: 67ad 8cae ecac 12b4 1baf 029f eda8 ed2f
00000180: e330 532e eb2a 1a2a b2b2 efb0 5c2c 069f
00000190: b61b 051a 702f f033 4930 0f32 f831 43ae
000001a0: 16ad a5b3 03b4 2dae ea30 46b4 ebaf ebab
000001b0: 03aa e1b0 452e 3cb1 772e 1831 7430 b6b0
000001c0: 0533 4b33 1231 7d31 f3b3 2233 64ae e8ae
000001d0: f11f a8b1 beb0 04b0 37b2 842f 5934 db32
000001e0: 8c33 94b0 5c2e 0b2c ebb1 cb2e a42e a31d
000001f0: 6baf 6335 23ad ffb3 d5b1 fd31 b4a1 6ab3

onnx::Conv_153 f2 [32]
1.919 1.64 1.978 1.846 1.707 1.295 1.946 1.378
0.8354 1.855 2.283 1.906 1.144 1.767 1.3545 1.988
1.52 0.928 1.346 1.399 1.465 1.877 1.328 2.053
1.75 1.402 1.995 2.088 1.962 2.021 1.957 1.906
00000000: ad3f 8f3e e93f 623f d43e 2e3d c93f 833d
00000010: af3a 6c3f 9140 a03f 933c 113f 6b3d f43f
00000020: 143e 6d3b 623d 993d dc3d 823f 503d 1b40
00000030: 003f 9c3d fb3f 2d40 d93f 0b40 d43f a03f

onnx::MatMul_154 f2 [32, 9]
0.3687 0.4006 -1.041 0.6206 -0.755 -0.855 -0.535 0.8
0.57 0.496 -0.8887 -0.5444 -0.745 -0.664 0.724 0.4324
-0.9556 -0.946 0.7886 0.8755 0.9937 -0.4165 -0.6426 -0.3262
-0.679 -0.6025 -0.7524 0.04202 0.8604 -0.94 0.851 -0.908
0.2732 -0.7124 -0.7085 -0.7896 0.4736 0.2917 -0.884 -0.635
-1.114 0.2211 0.3894 -1.06 -0.9556 -0.4128 -0.07666 -0.89
-0.744 -0.298 0.75 -1.081 0.405 0.8086 0.3633 -0.4192
-0.703 -0.9897 -0.07056 -0.5005 0.7 0.772 0.812 -0.8784
-0.984 -0.6694 0.7705 0.322 -0.1926 0.12445 0.9395 -0.6597
-1.197 -0.4824 0.4414 -0.02686 0.02817 1.024 -0.597 -0.4783
-0.2708 -1.18 0.6704 -0.0668 -0.0847 -0.4512 -0.4436 0.6187
-0.659 0.7876 -1.359 -1.027 0.224 -0.4863 0.315 -0.8213
0.4312 0.522 0.5728 -0.2365 -1.139 0.0379 0.7734 -1.005
0.721 -0.4065 -0.7954 -0.594 0.3496 -0.837 -0.827 -0.7407
-1.0205 0.5684 0.456 -0.866 0.642 -0.8945 0.4478 0.379
-1.031 -1.362 0.04434 0.3923 -1.233 -1.115 -0.0744 0.6357
-1.105 -0.1976 0.5615 -0.8647 -1.082 -0.699 0.8237 0.604
-1.097 0.59 0.325 -1.083 -0.759 0.3894 0.427 -0.9854
-0.0411 -1.059 -0.886 -0.557 0.7627 0.751 -0.9893 -0.7407
-0.768 0.302 -1.327 -0.3967 0.562 -0.843 0.4055 -0.04337
0.7197 -0.2434 0.2349 0.777 -0.8394 -0.558 0.766 -0.819
-0.4465 -0.718 -0.9106 -0.1124 0.733 0.7046 -0.9634 0.2698
-1.091 -0.8267 -0.858 -0.91 0.0369 -0.919 0.8086 -0.245
0.645 -0.7476 -1.017 -0.8364 -0.869 0.737 -0.3047 0.9536
-0.6533 -0.5654 0.435 -0.704 -0.7256 -0.6562 0.0361 -0.5938
-1.019 -0.8936 0.6475 0.8604 -0.9355 -0.7783 -0.6235 0.3303
0.664 -0.648 1.065 -0.6 -0.6543 -0.4377 -0.624 -0.549
0.2937 0.6475 -0.7954 -0.3796 0.7495 -0.8413 -0.74 -0.8726
-0.916 -1.061 0.907 -0.4846 -0.1525 -0.446 0.6743 -0.65
-0.5625 -0.678 0.2961 -1.099 -0.9272 -1.043 -0.1112 -0.4202
0.5356 0.538 0.4255 0.8228 -0.8594 0.7544 0.5376 -0.3308
-0.769 -0.6367 0.8315 -0.4795 0.3337 -0.9893 -0.05875 1.069
00000000: e635 6936 2abc f738 0aba d7ba 48b8 663a
00000010: 8f38 f037 1cbb 5bb8 f6b9 50b9 cb39 eb36
00000020: a5bb 91bb 4f3a 013b f33b aab6 24b9 38b5
00000030: 6fb9 d2b8 05ba 6129 e23a 85bb cf3a 44bb
00000040: 5f34 b3b9 abb9 51ba 9437 ab34 12bb 14b9
00000050: 75bc 1333 3b36 3dbc a5bb 9bb6 e8ac 1fbb
00000060: f4b9 c5b4 003a 53bc 7b36 783a d035 b5b6
00000070: a0b9 ebbb 84ac 01b8 9a39 2d3a 7f3a 07bb
00000080: dfbb 5bb9 2a3a 2735 2ab2 f72f 843b 47b9
00000090: cabc b8b7 1037 e0a6 3627 193c c7b8 a7b7
000000a0: 55b4 b8bc 5d39 46ac 6cad 38b7 19b7 f338
000000b0: 46b9 4d3a 70bd 1cbc 2b33 c8b7 0a35 92ba
000000c0: e636 2d38 9538 91b3 8ebc da28 303a 05bc
000000d0: c539 81b6 5dba c1b8 9835 b2ba 9eba edb9
000000e0: 15bc 8c38 4c37 eeba 2339 28bb 2a37 1036
000000f0: 20bc 73bd ad29 4736 efbc 76bc c3ac 1639
00000100: 6cbc 53b2 7e38 ebba 54bc 98b9 973a d538
00000110: 63bc b838 3335 55bc 12ba 3b36 d536 e2bb
00000120: 43a9 3cbc 17bb 75b8 1a3a 023a eabb edb9
00000130: 25ba d534 4fbd 59b6 7f38 beba 7d36 8da9
00000140: c239 cab3 8433 373a b7ba 77b8 213a 8dba
00000150: 25b7 beb9 49bb 32af dd39 a339 b5bb 5134
00000160: 5dbc 9dba ddba 48bb b928 5abb 783a d7b3
00000170: 2939 fbb9 11bc b1ba f4ba e539 e0b4 a13b
00000180: 3ab9 86b8 f636 a2b9 ceb9 40b9 9f28 c0b8
00000190: 13bc 26bb 2e39 e23a 7cbb 3aba fdb8 4935
000001a0: 5039 2fb9 433c cdb8 3cb9 01b7 feb8 64b8
000001b0: b334 2e39 5dba 13b6 ff39 bbba ecb9 fbba
000001c0: 54bb 3ebc 423b c1b7 e1b0 23b7 6539 33b9
000001d0: 80b8 6db9 bd34 65bc 6bbb 2cbc 1eaf b9b6
000001e0: 4938 4e38 cf36 953a e0ba 093a 4d38 4bb5
000001f0: 27ba 18b9 a73a acb7 5735 eabb 85ab 473c
