onnx_model/2023_1_5_hj_num_7.onnx (onnx, 9460 bytes, 10 tensors)

conv.0.weight f4 [3, 1, 5, 5]
0.033169348 0.019243222 -0.007424774 -0.013337471 0.029200805 -0.19908525 -0.032131158 0.024578514
0.016004803 0.042896308 0.012238465 0.014624914 -0.19765401 0.014518897 -0.06773897 0.0113679515
0.04870764 0.12084346 0.097442284 0.08984054 -0.02634968 0.007005307 -0.06484347 -0.012377744
-0.02891073 -0.11540527 -0.002361497 0.009828708 0.014782929 0.01807704 -0.06411541 -0.13599166
0.015297587 0.006743913 -0.034025718 -0.11239386 -0.00097523804 0.027424956 0.03663012 -0.0012273268
0.033823274 -0.05216057 -0.041690815 -0.0065713944 -0.08404571 -0.123547606 -0.038788144 -0.024841199
-0.08471093 -0.03404308 0.05525413 0.087769516 0.097355455 0.12684815 0.098467976 -0.0031541844
-0.013508687 -0.0010418695 -0.017927546 -0.042731903 -0.07125457 -0.04542916 -0.05799557 -0.082570784
-0.031148357 0.08423928 0.022643086 -0.00555164 0.006746938 -0.027956871 -0.025592623 -0.010438741
-0.023776427 -0.01327391 -0.017636517
00000000: 95dc 073d f6a3 9d3c 854b f3bb 6885 5abc
00000010: 8736 ef3c 01dd 4bbe f69b 03bd e158 c93c
00000020: 811c 833c 0ab4 2f3d d883 483c 569d 6f3c
00000030: d065 4abe abe0 6d3c bbba 8abd a540 3a3c
00000040: aa81 473d c77c f73d d28f c73d 51fe b73d
00000050: 49db d7bc c68c e53b a7cc 84bd 05cc 4abc
00000060: 32d6 ecbc 9959 ecbd 58c3 1abb 9708 213c
00000070: 1934 723c 4d16 943c f14e 83bd 6641 0bbe
00000080: bba2 7a3c 0bfc dc3b 8d5e 0bbd c12e e6bd
00000090: 1ea7 7fba 4daa e03c 7709 163d 41de a0ba
000000a0: 468a 0a3d 52a6 55bd fdc3 2abd da54 d7bb
000000b0: 2820 acbd 8706 fdbd 51e0 1ebd c57f cbbc
000000c0: ed7c adbd c270 0bbd 2852 623d 81c0 b33d
000000d0: 4c62 c73d 7be4 013e 94a9 c93d 6fb6 4ebb
000000e0: 8a53 5dbc 578f 88ba cadc 92bc a607 2fbd
000000f0: eaed 91bd ed13 3abd c38c 6dbd df1a a9bd
00000100: d72a ffbc a585 ac3d fe7d b93c 88ea b5bb
00000110: 6b15 dd3b cf05 e5bc 9fa7 d1bc 4107 2bbc
00000120: c8c6 c2bc d07a 59bc 757a 90bc

conv.0.bias f4 [3]
-0.20371512 0.14652203 -0.20330822
00000000: b29a 50be df09 163e 0830 50be

conv.5.weight f4 [24, 72]
-0.00636948 -0.033303495 0.0043864916 -0.027816935 -0.003080757 -0.021265494 0.026107203 0.0033272905
0.007637994 0.020008234 0.018341217 0.01603176 -0.0015433107 -0.022704186 -0.0021129088 -0.019779075
-0.0072475155 -0.018406358 -0.0073091937 0.0026633148 -0.0045884466 0.036698595 0.013562202 0.018357093
0.006987823 -0.0012370294 0.008430331 0.022875026 -0.0013853898 0.01720559 -0.0052401074 -0.0055032875
0.017080178 0.017273456 0.010797805 0.0033648743 0.037148394 0.024283392 0.010537803 0.039295338
0.013222845 0.02630848 -0.011479743 -0.004829949 -0.0053553274 -0.024369046 -0.027583713 -0.004204578
0.007869559 -0.00191465 0.0044902326 -0.0036757803 -0.015385235 0.018145908 -0.00043492863 0.006443918
-0.0029437444 0.016108941 -0.0015640067 -0.014564185 -0.014518901 0.053086728 0.008166122 0.0289141
0.005414982 0.023173101 0.0056181494 0.013691857 0.014808536 -0.01231969 0.012022875 0.0005484331
-0.012793884 0.05038177 -0.032346163 0.032586556 -0.026720194 0.011429765 -0.04293428 -0.020959578
-0.0043101474 -0.03270613 -0.008652299 -0.019338423 0.015680522 0.0060411943 0.0022656305 0.036577977
0.017636444 0.054769807 0.003714207 0.011331007 0.006872397 -0.04471359 -0.030678216 -0.001887256
0.005568421 -0.004601818 -0.004672342 -0.009554488 0.009347664 -0.039381184 -0.023793576 0.0048639253
-0.037376817 -0.01911229 -0.008216166 -0.004541121 -0.019468945 5.7767254e-05 -0.019463005 -0.044871833
-0.013726905 -0.0025330032 0.034448233 -0.010303119 -0.01693276 0.045763783 0.01717022 -0.021643022
-0.028056238 0.024298819 0.005689403 0.01729247 0.030770423 0.0010541185 -0.007951136 0.01963398
0.0029739342 0.029193457 0.0059758215 0.038557537 0.026005985 -0.04372605 0.004396441 -0.01766855
0.008118614 -0.0011519224 -0.009747111 -0.038083483 -0.033338588 0.0048990706 -0.008818235 -0.0036288092
-0.029326718 -0.07011605 -0.027269587 -0.05667344 -0.019535873 -0.046852764 0.04034091 -0.00086893194
0.02552616 -0.016864946 0.024852695 0.005192585 -0.015162658 0.051170625 0.010718379 0.021154992
-0.0010629181 0.037772577 -0.028526638 -0.032559264 -0.04812768 -0.01427846 0.004991697 -0.008157724
0.002593505 -0.036708925 0.017262598 0.008011151 -0.0072120777 -0.020310044 -0.033951934 0.015062263
0.018944861 0.0136827985 0.007980816 0.022703774 0.071566954 -0.041638527 -0.027331484 -0.011334964
-0.009930455 -0.035618067 -0.021806702 -0.03674444 -0.01623691 -0.03846218 -0.050837923 -0.037735242
0.02286112 -0.03898997 0.06267034 -0.05430149 0.009439358 0.012158365 0.029112654 -0.012237698
-0.008691732 0.045275975 -0.017335257 -0.014290265 0.006818252 -0.020016165 -0.017995503 -0.01044028
-0.0059340615 -0.03218479 0.017523805 -0.00031564783 -0.008443498 -0.028858738 0.0045095044 -0.033199538
0.0060314788 0.026666641 -0.0014762845 0.023253942 -0.010978851 0.039667502 0.026480412 0.015536941
0.009178033 -0.00091075915 -0.006117838 0.0041789045 0.009703751 0.03519787 0.013040275 0.0073265545
0.012538648 -0.0145971 0.010540656 -0.0052051954 -0.0036687546 0.026808275 0.015649265 -0.027709402
-0.013465441 -0.0070151975 -0.018753845 -0.016206792 -0.008066875 -0.020783545 -0.015491662 0.034499165
0.041400142 0.039793815 0.026515745 0.035891157 -0.02338873 0.04909833 0.003766057 0.05653428
00000000: 12b7 d0bb 3f69 08bd 8fbc 8f3b 57e0 e3bc
00000010: 87e6 49bb f934 aebc c6de d53c ac0e 5a3b
00000020: 2348 fa3b 4fe8 a33c 5240 963c 0a55 833c
00000030: ea48 caba 21fe b9bc ba78 0abb ba07 a2bc
00000040: 917c edbb eec8 96bc f681 efbb 028b 2e3b
00000050: ae5a 96bb 4451 163d 0034 5e3c 9d61 963c
00000060: 1cfa e43b d223 a2ba 5f1f 0a3c 6864 bb3c
00000070: f895 b5ba bdf2 8c3c 35b5 abbb ec54 b4bb
00000080: bbeb 8b3c 1081 8d3c 47e9 303c 3985 5c3b
00000090: ea28 183d f7ed c63c c0a6 2c3c 26f4 203d
000000a0: a2a4 583c e284 d73c 8815 3cbc 8c44 9ebb
000000b0: be7b afbb 98a1 c7bc 3df7 e1bc 8fc6 89bb
000000c0: 53ef 003c fef4 faba cd22 933b 5ce5 70bb
000000d0: 5a12 7cbc baa6 943c 2207 e4b9 8127 d33b
000000e0: d6eb 40bb e6f6 833c 5bff ccba 9f9e 6ebc
000000f0: afe0 6dbc 7871 593d 33cb 053c 43dd ec3c
00000100: 2970 b13b 84d5 bd3c 7418 b83b d053 603c
00000110: 809f 723c 86d8 49bc 98fb 443c b9c4 0f3a
00000120: 709d 51bc 1d5d 4e3d 697d 04bd 7b79 053d
00000130: 4fe4 dabc e943 3b3c dbdb 2fbd 6cb3 abbc
00000140: 233c 8dbb ddf6 05bd 5fc2 0dbc 9d6b 9ebc
00000150: 7074 803c 36f5 c53b f97a 143b cad2 153d
00000160: 4e7a 903c 4e56 603d 0e6a 733b b0a5 393c
00000170: d831 e13b 9925 37bd e250 fbbc ce5d f7ba
00000180: 4d77 b63b d9ca 96bb 721a 99bb 6d8a 1cbc
00000190: f226 193c 2a4e 21bd bfea c2bc 9061 9f3b
000001a0: 6f18 19bd 6191 9cbc 199d 06bc afcd 94bb
000001b0: 567d 9fbc 1e4b 7238 e170 9fbc 87cb 37bd
000001c0: d0e6 60bc be00 26bb 9719 0d3d 6ace 28bc
000001d0: 92b6 8abc ce72 3b3d 90a8 8c3c b54c b1bc
000001e0: 32d6 e5bc 510e c73c 2c6e ba3b f0a8 8d3c
000001f0: 4112 fc3c 592a 8a3a 7b45 02bc 71d7 a03c
00000200: 56e6 423b 1e27 ef3c d3d0 c33b 82ee 1d3d
00000210: 810a d53c 161a 33bd 0510 903b a3bd 90bc
00000220: ef03 053c 1afc 96ba 59b2 1fbc 6dfd 1bbd
00000230: 0b8e 08bd 6288 a03b 5c7a 10bc 51d1 6dbb
00000240: 963e f0bc 0199 8fbd 7864 dfbc 6922 68bd
00000250: b209 a0bc afe8 3fbd 833c 253d 09c9 63ba
00000260: 3d1c d13c 5b28 8abc e197 cb3c 8f26 aa3b
00000270: cc6c 78bc 4a98 513d 249c 2f3c 3c4d ad3c
00000280: 9d51 8bba 6bb7 1a3d b2b0 e9bc dd5c 05bd
00000290: 8821 45bd 34f0 69bc 6491 a33b f9a7 05bc
000002a0: cbf7 293b 195c 16bd 4b6a 8d3c 3441 033c
000002b0: 4b53 ecbb 4061 a6bc 2f11 0bbd b6c7 763c
000002c0: 4132 9b3c d12d 603c f8c1 023c 44fd b93c
000002d0: b291 923d 298d 2abd 47e6 dfbc 49b6 39bc
000002e0: 59b3 22bc 40e4 11bd f8a3 b2bc 5781 16bd
000002f0: 4503 85bc 858a 1dbd 6d3b 50bd 4590 1abd
00000300: 3e47 bb3c f2b3 1fbd 4f59 803d 3d6b 5ebd
00000310: 89a7 1a3c e133 473c a97d ee3c a080 48bc
00000320: c467 0ebc 4d73 393d ab02 8ebc b721 6abc
00000330: a56b df3b f1f8 a3bc 4e6b 93bc b50d 2bbc
00000340: 8472 c2bb 33d4 03bd 158e 8f3c 897d a5b9
00000350: 9956 0abc 2969 ecbc 77c4 933b 3dfc 07bd
00000360: b6a3 c53b 0074 da3c e37f c1ba 0d7f be3c
00000370: a3e0 33bc 647a 223d 73ed d83c a78e 7e3c
00000380: 765f 163c 03c0 6eba 2578 c8bb 31ef 883b
00000390: 7bfc 1e3c a42b 103d e1a6 553c 9813 f03b
000003a0: e76e 4d3c ad28 6fbc b7b2 2c3c 5890 aabb
000003b0: 7d6f 70bb 079d db3c e332 803c d4fe e2bc
000003c0: 279e 5cbc bedf e5bb aaa1 99bc 1bc4 84bc
000003d0: ed2a 04bc 4142 aabc bdd0 7dbc ff4e 0d3d
000003e0: 3293 293d d7fe 223d 8c37 d93c 9b02 133d
000003f0: b999 bfbc 551b 493d f4cf 763b 7d90 673d

conv.5.bias f4 [24]
-0.020854607 0.02301013 0.047859106 -0.01678029 0.03374182 0.0036038025 0.0047907885 0.012384548
-0.024839183 0.039558057 -0.016242195 -0.011443864 0.03072429 -0.006319905 0.0053036395 -0.022035649
-0.0050051026 0.06542346 0.0062320908 -0.018649261 -0.06396663 -0.020503761 -0.021485224 -0.03177547
00000000: 48d7 aabc bd7f bc3c e907 443d d276 89bc
00000010: dd34 0a3d c62d 6c3b 0cfc 9c3b 8fe8 4a3c
00000020: 8b7b cbbc a107 223d 5a0e 85bc 0b7f 3bbc
00000030: 82b1 fb3c 3517 cfbb 27ca ad3b 1b84 b4bc
00000040: d801 a4bb bcfc 853d 9136 cc3b 56c6 98bc
00000050: f000 83bd 81f7 a7bc c801 b0bc ff26 02bd

BN.weight f4 [24]
0.5805661 0.74992836 0.799068 0.7263815 0.63519967 0.7769785 0.5073014 0.67454356
0.584179 0.6247387 0.7284358 0.8176865 0.61470515 0.7299609 0.51271915 0.682591
0.72384405 0.841675 0.5067598 0.8336906 0.7490002 0.57214934 0.55535847 0.72144574
00000000: fb9f 143f 4efb 3f3f b88f 4c3f 23f4 393f
00000010: 729c 223f 10e8 463f 81de 013f e3ae 2c3f
00000020: c18c 153f e0ee 1f3f c57a 3a3f e753 513f
00000030: 515d 1d3f b8de 3a3f 9041 033f 49be 2e3f
00000040: d84d 393f 0378 573f 03bb 013f bf6c 553f
00000050: 7abe 3f3f 6178 123f f92b 0e3f abb0 383f

BN.bias f4 [24]
0.28311732 0.38733432 0.5216142 0.4735713 0.3662771 0.46392664 0.2582889 0.3400674
0.30160853 0.34838763 0.48653048 0.45397374 0.3725132 0.33094242 0.26632425 0.295311
0.3729797 0.43774596 0.2426181 0.40194017 0.3385024 0.29626122 0.28519845 0.3029312
00000000: c1f4 903e af50 c63e 8288 053f f077 f23e
00000010: ac88 bb3e cb87 ed3e 713e 843e 501d ae3e
00000020: 6f6c 9a3e dd5f b23e 861a f93e 3f6f e83e
00000030: 0dba be3e 4971 a93e a75b 883e 0133 973e
00000040: 32f7 be3e 3d20 e03e e170 783e 1acb cd3e
00000050: 3050 ad3e 8daf 973e 8805 923e cc19 9b3e

BN.running_mean f4 [24]
0.013391738 -0.00590556 -0.01915283 0.014023785 0.010990125 0.0099234795 -0.0031206207 0.022110784
0.01792351 0.0248978 0.0054281745 -0.011837106 0.005066152 -0.008523043 0.0081099365 0.0043984624
-0.0009597116 -0.016870322 0.006028735 -0.00954548 0.012670179 0.025191277 0.016316952 -0.010293499
00000000: 0569 5b3c 6e83 c1bb 65e6 9cbc 04c4 653c
00000010: ed0f 343c 1796 223c 5483 4cbb ad21 b53c
00000020: 53d4 923c 79f6 cb3c d4de b13b 6cf0 41bc
00000030: f701 a63b 3ca4 0bbc 8adf 043c fa20 903b
00000040: 2895 7bba a133 8abc b28c c53b a564 1cbc
00000050: 9596 4f3c f05d ce3c 21ab 853c 10a6 28bc

BN.running_var f4 [24]
0.0009407061 0.0010112695 0.0013282683 0.001345709 0.0012506517 0.001440124 0.0008382088 0.0014411705
0.0011563614 0.0012936116 0.0012404913 0.0016830855 0.0011016666 0.0011763106 0.00082634785 0.0013715647
0.0010312027 0.0013573751 0.0009126269 0.0009111374 0.0011337216 0.0010669206 0.00090523565 0.0007477089
00000000: b899 763a 938c 843a 4a19 ae3a 8062 b03a
00000010: e8ec a33a 8bc2 bc3a 3ebb 5b3a a8e5 bc3a
00000020: 0d91 973a 678e a93a fb97 a23a fa9a dc3a
00000030: cc65 903a 6f2e 9a3a 449f 583a 13c6 b33a
00000040: 6c29 873a f3e9 b13a 5b3d 6f3a 65d9 6e3a
00000050: 6299 943a ead7 8b3a 564d 6d3a e501 443a

dense.1.weight f4 [6, 24]
0.3302642 -0.3566679 0.45712268 0.43647894 0.34084192 0.46726164 0.51970845 0.4107642
0.3502391 0.32194027 0.42463696 -0.2780865 0.3409762 -0.18273926 0.52779377 -0.24687839
-0.37531072 -0.24534215 0.5107574 -0.42162922 -0.21710563 0.35351837 0.3432948 -0.22941472
-0.19827676 0.15696637 -0.292775 0.5595479 -0.21754211 -0.29439908 -0.08359788 -0.24421154
-0.19919543 -0.20707947 0.5778983 0.56155705 -0.21359688 -0.26572564 -0.09388935 -0.18555814
0.34859338 -0.2741106 -0.09460784 -0.3734185 0.51022357 -0.19631633 -0.19202316 0.4380744
-0.19281077 0.46316847 0.6326022 -0.2433966 -0.19742444 -0.22346376 -0.08062074 -0.19758926
-0.18945129 -0.1957918 -0.2523698 -0.2598825 -0.19759417 0.5400595 -0.0812284 -0.22926682
0.40921602 0.58314866 -0.078076646 -0.32543293 -0.2877591 -0.1907027 -0.1812847 -0.24414359
0.4060524 -0.31842205 -0.2824571 -0.2529471 -0.22083336 -0.24706607 -0.12887928 -0.20071909
0.4080405 -0.21235962 -0.25714293 -0.27403805 -0.2192302 0.37164193 -0.11849791 0.38976476
0.22106737 -0.3017355 -0.116115324 0.3214551 0.43401507 0.38557413 0.3708104 -0.22330536
-0.20274535 -0.31835365 -0.27586496 -0.24451189 0.4939747 -0.26731655 -0.11920138 -0.23414221
-0.20729956 0.4887852 -0.25266585 0.51972306 0.48403633 -0.25493422 -0.12083065 0.46397
-0.30206716 0.5091494 -0.12398262 0.3289245 -0.21835136 -0.20234197 -0.19801778 -0.20956473
-0.15519314 0.3816073 -0.24537835 -0.25586137 -0.20196901 0.5794263 -0.10637912 0.4489085
-0.15884285 -0.19752072 -0.25467837 -0.27258164 -0.19529954 -0.21351565 -0.10622181 -0.19504961
-0.30152863 -0.2771161 -0.10129733 0.47228014 -0.228257 -0.15605876 -0.15124027 0.46481565
00000000: 6418 a93e 2d9d b6be fc0b ea3e 2b7a df3e
00000010: d582 ae3e eb3c ef3e 9d0b 053f af4f d23e
00000020: 8a52 b33e 5bd5 a43e 046a d93e 5b61 8ebe
00000030: 6f94 ae3e 0020 3bbe 7e1d 073f b0cd 7cbe
00000040: ba28 c0be f93a 7bbe ffc0 023f c9df d7be
00000050: f050 5ebe 5c00 b53e 56c4 af3e b1eb 6abe
00000060: 1009 4bbe cbbb 203e 9be6 95be 883e 0f3f
00000070: 5cc3 5ebe 7abb 96be 5e35 abbd 9712 7abe
00000080: e3f9 4bbe a40c 54be 25f1 133f 34c2 0f3f
00000090: 24b9 5abe 310d 88be 0f49 c0bd f402 3ebe
000000a0: d57a b23e 3958 8cbe c1c1 c1bd b630 bfbe
000000b0: 039e 023f 2607 49be b8a1 44be 4a4b e03e
000000c0: 3070 45be 6b24 ed3e 38f2 213f f53c 79be
000000d0: a229 4abe afd3 64be 7d1c a5bd d754 4abe
000000e0: 85ff 41be a57d 48be 9d36 81be 520f 85be
000000f0: 2056 4abe 5741 0a3f 135b a6bd ecc4 6abe
00000100: c384 d13e 3b49 153f a6e6 9fbd 259f a6be
00000110: 2955 93be 9247 43be b2a2 39be c700 7abe
00000120: 1ae6 cf3e 3708 a3be 389e 90be 4882 81be
00000130: 2422 62be e3fe 7cbe eef8 03be 4e89 4dbe
00000140: afea d03e cd74 59be 3da8 83be b74e 8cbe
00000150: e27d 60be da47 be3e 08af f2bd 3f8f c73e
00000160: 7c5f 623e 137d 9abe dfcd edbd c395 a43e
00000170: 3937 de3e f969 c53e dcda bd3e 29aa 64be
00000180: 7a9c 4fbe 40ff a2be 2c3e 8dbe 5361 7abe
00000190: 40ea fc3e b7dd 88be da1f f4bd fac2 6fbe
000001a0: 5646 54be 0e42 fa3e 6b5d 81be 920c 053f
000001b0: 9cd3 f73e bd86 82be 0f76 f7bd 7a8d ed3e
000001c0: 8ca8 9abe 9d57 023f 9aea fdbd cb68 a83e
000001d0: 8097 5fbe bc32 4fbe 2cc5 4abe 2398 56be
000001e0: f3ea 1ebe 0862 c33e 7644 7bbe 4300 83be
000001f0: f7d0 4ebe 4855 143f 4cdd d9bd 56d7 e53e
00000200: b3a7 22be df42 4abe 3465 82be d28f 8bbe
00000210: 9afc 47be d9a3 5abe d28a d9bd 16bb 47be
00000220: f661 9abe 29e2 8dbe f974 cfbd b4ce f13e
00000230: 34bc 69be decd 1fbe bbde 1abe 51fc ed3e

dense.1.bias f4 [6]
0.056725558 0.0017415757 0.042901203 -0.098633185 0.008290397 -0.023060795
00000000: 0f59 683d 9545 e43a 2cb9 2f3d 3200 cabd
00000010: 72d4 073c fee9 bcbc
