onnx_model/2023_1_5_hj_num_2.onnx (onnx, 9460 bytes, 10 tensors)

conv.0.weight f4 [3, 1, 5, 5]
00000000: 3bff c23d 488d 2a3d 20f5 72bd eb42 4fbd
00000010: dd71 933c a7e4 60be cb21 c8bd f38f 0f3a
00000020: a839 b6ba 91ab 333d 835d cd3c 3bd0 fc3c
00000030: 9ac1 81be 5e8a 9b3c 119f e7bd a1c1 683c
00000040: 59e5 1b3e 72f7 3b3e 6190 0c3e 8c13 033e
00000050: 94f7 2e3c c9be a43c cd1d 1abe 2524 753c
00000060: fc03 04be 4e6b 3cbe 9729 11bd 52b2 083d
00000070: 05a7 813d 9ec3 aa3d eb46 a3bd aaf5 35be
00000080: 0482 1e3c 6c3f 373c fad6 1cbe c606 3fbe
00000090: 48d6 1cbd 0525 d03d f77b 8b3d fa14 edbb
000000a0: 5647 38bd 3112 7ebd b098 1dbd bb2b 85bd
000000b0: a84b 6bbd 00b0 18be a3ea 54bd 5536 e1bd
000000c0: fb29 8cbd fa09 cebd 6d19 2d3d 0345 f83d
000000d0: ce6f ec3d 1f16 153e 510c 2e3e b33d f7bb
000000e0: 2043 aebd bd12 ecbb ed7f 56bd c24c aabc
000000f0: ca42 01be f2be 05be bd56 c3bd a014 ddbd
00000100: 6e83 b3bd 60df 373e d4e4 913d 6d2e 5abd
00000110: 4a63 603d 6b69 c7bd 2124 d53c 32b6 95bc
00000120: 0493 84bc 53b0 71bd 44cd 313b
0.095213376 0.041638643 -0.0593158 -0.050600927 0.01799863 -0.21962224 -0.097720705 0.0005476467
-0.0013902681 0.04386479 0.025069004 0.03086101 -0.2534302 0.018986877 -0.113096364 0.014206321
0.15224208 0.18356112 0.13726951 0.12800425 0.010679144 0.020110505 -0.1505043 0.014962231
-0.12892145 -0.18400308 -0.035440054 0.033373185 0.063306846 0.08338092 -0.07972511 -0.17769495
0.009674553 0.011184555 -0.15316382 -0.18654928 -0.038290292 0.10163311 0.06810754 -0.0072351666
-0.044989906 -0.062029067 -0.038475692 -0.065024815 -0.0574452 -0.14910889 -0.05198158 -0.10996691
-0.06843945 -0.10060497 0.042260576 0.12122538 0.115447626 0.1455922 0.16996886 -0.007545197
-0.08508897 -0.007204382 -0.052368093 -0.020788554 -0.12623134 -0.13061121 -0.095380284 -0.107949495
-0.087653026 0.17956305 0.071237236 -0.05326693 0.05478219 -0.09736904 0.026018204 -0.018275354
-0.016183384 -0.059006047 0.0027130404

conv.0.bias f4 [3]
00000000: 96c9 9dbe d391 aa3d 19a6 99be
-0.3081786 0.08328595 -0.30009535

conv.5.weight f4 [24, 72]
00000000: 2f13 c0bc c26a 4bbd 4694 4ebc 6ff5 46bd
00000010: 3170 18bd d39c 34bc b587 163d ddd5 393c
00000020: df7e bb3b ce87 053d 8561 c13c 5a57 d43c
00000030: 7eca a73c dbaf 80bc e53b 113c 5472 d5bc
00000040: f44d b73b d7b0 f6bc 0f70 e7bc e276 273c
00000050: 95bc a5bc 5a3f 5e3d c152 173b 5199 cb3c
00000060: b7a3 1d3c d8fa 10bc 26ac 243d d8d3 5d3c
00000070: 7b4a e03c f3d1 12ba af9e 3dbd 3b6e 44bc
00000080: 7905 03bc 60e1 f939 4a5b 2dbc 949b b4bb
00000090: 0109 713d 820f c73c f405 3739 6757 cd3c
000000a0: 18aa 743c 750e e93c 60df 09bd 7834 a93c
000000b0: c352 993b d583 d6bb b8d5 c7bc df42 8f3c
000000c0: da15 a83c f94a e1bc f862 13bb 2280 12bc
000000d0: fc0d 49bb efd5 7f3c 6f0e 8ebc b0bb 0c3b
000000e0: 5508 89bc a66d 7a3c 6aa6 33bd 92b7 d0bb
000000f0: 0a3a efbb f546 763d 5f26 283c 2981 8c3d
00000100: a797 9b3b 46f0 a83c da94 0e3c 4d4c 63bc
00000110: 11ec 8c3c 3dd4 a0bc 1832 0c3d cc76 01bd
00000120: a248 d6ba f8bc b43d f186 15bd 95c6 413d
00000130: d6f2 80bc 49f3 043d bb46 74bd 42e8 3dbd
00000140: 56e2 a93c bfd5 6cbd 5a56 8ebb a39e acbc
00000150: 2c70 0ebc 2c30 2b39 e233 743c f90d 6a3d
00000160: d499 b53c faeb 8c3d 1337 a63b 4d1f 0a3d
00000170: 5e1c 98bc 683b 85bd 9ca5 98bd eef6 173c
00000180: db1e 3b3c 4979 68bc 1c5d 14bd 44f4 9fbc
00000190: dcee 023c d259 1239 44c9 b4bb df4c 5bbc
000001a0: c96c abbd 10c1 09bc fc52 1abd 8e14 86bc
000001b0: 6122 4dbd dedb 8e3c 1aff 023c be0a 05bd
000001c0: 6a01 3cbc 238e 843c 4b91 1b3d c0ed 0fbd
000001d0: b857 d5bc 772d 543d 2801 f73c d8a3 0bbd
000001e0: 6f5b 95bb e871 493d cfba 3bbd 5c4d 403d
000001f0: 2e40 0a3b 3ef9 d53b 76fa 923c f080 093d
00000200: 2e1f 153d de05 503d 1f81 cf3c 2cf9 673d
00000210: 84ee bb3c 1571 c7bd f1f9 ab3c d460 04bd
00000220: d0ca 833c 1d05 cebc 62bd 5fbd 6063 32bd
00000230: 5bf2 2dbd ac3f deba 8215 19bd 4fa3 563c
00000240: 8425 11bd e68b 98bd 14ff 90bc d46d a1bd
00000250: af3f 2fbd c886 70bd c659 563c a81c e9bb
00000260: 9d4f 7a3d 0f79 08bd c8a3 183d 57e0 41bc
00000270: eaaa 8d3c 0e7a 8c3d 98d4 873c fa9a a83c
00000280: 5b86 28bc c5c8 393d b095 f0bc cd24 8dbd
00000290: 3854 58bd c670 aabc 254a 2d3d e2de febb
000002a0: 63f4 893d 61e8 b3bc 0cb7 483d e1b3 89bc
000002b0: cfcf 093c aeb5 0ebd 1113 4cbc 68fb 09bd
000002c0: d5a8 44bc 7cd0 763b 2636 8bbb 91ef 023d
000002d0: 842c aa3d a5d4 3fbd 0b68 06bd 1676 35bc
000002e0: c9f3 70bc fed8 88bd 0260 60bd ba1b ecb9
000002f0: 3665 04bd f1ec 5abd a62f c3bd 793c 92bb
00000300: 2ceb 403d fd2d 67bd f948 da3d 5acc b5bd
00000310: 1b35 673d 371b 893c e608 983c 8b5b 933c
00000320: 3315 0f3d ae18 893d 379e f43a 18d5 6fbd
00000330: 0754 be39 c86e 6ebc 2af5 a3bc 714a a5bc
00000340: 6cc4 68bc 1e8d 14bd a07a 573c 5595 e4bc
00000350: 8cfa 9bb9 3209 2dbd a171 b43c 3817 95bd
00000360: 7d80 91bb 115a 213d b879 a3bc 538f 4f3c
00000370: be30 37bc 5b1e 2f3d 70c6 3f3d 7314 99bb
00000380: b747 b5bc c2f3 84bc 7e28 8dbb 1408 bdbc
00000390: 09eb c63c 8d77 333d a751 553c 989c d33a
000003a0: 3f2f 2b3b 9bf5 56bd 7f20 76bc 9381 e3bc
000003b0: 6484 aa3c 1103 623d 0dc8 443d e418 10bd
000003c0: 5454 aa3b d57c 853c 8f7c 85ba 3b2d 18bc
000003d0: 4af5 8d3c 4155 963d f857 91bc 5129 aa3d
000003e0: 631e 883d df27 ad3d 3c6b fb3c aa13 c43d
000003f0: 2ad0 6dbc 2dc2 ea3c d533 a33c 5aca 743d
-0.023446647 -0.04966236 -0.012608593 -0.048573907 -0.03721637 -0.011023718 0.036750514 0.011342493
0.0057219113 0.032600217 0.023606071 0.025920559 0.020482298 -0.015708854 0.008864378 -0.026055492
0.0055940095 -0.03011362 -0.028251676 0.010221215 -0.020231524 0.054259636 0.0023090097 0.02485338
0.009621552 -0.008848868 0.040203236 0.013539277 0.027379265 -0.0005600743 -0.04629391 -0.011989172
-0.00799691 0.00047660898 -0.010580847 -0.0055117104 0.058846477 0.024299387 0.00017454458 0.02506609
0.014933132 0.028449276 -0.033660293 0.020654902 0.0046790554 -0.0065464773 -0.024393901 0.017487941
0.020518232 -0.02750157 -0.002248941 -0.008941682 -0.0030678501 0.015614971 -0.017340867 0.0021474175
-0.016727606 0.015284931 -0.043859877 -0.0063695395 -0.00730062 0.060126264 0.010263055 0.06860573
0.004748303 0.020622384 0.008702481 -0.013873172 0.017202409 -0.019632453 0.03422746 -0.031607434
-0.001634855 0.088251054 -0.036505643 0.047308523 -0.015740793 0.032458577 -0.059637766 -0.046364076
0.020737808 -0.05782103 -0.00434379 -0.021071738 -0.008693736 0.00016325776 0.014904948 0.05714223
0.022168078 0.068809465 0.0050724833 0.033721257 -0.018568214 -0.065054715 -0.074534625 0.009275181
0.011420931 -0.014189073 -0.03622161 -0.019525655 0.007991519 0.00013957106 -0.005517157 -0.013385027
-0.083703585 -0.008407846 -0.037676796 -0.016367223 -0.050081614 0.017438825 0.007995391 -0.032480948
-0.0114749465 0.016181057 0.03798036 -0.035138845 -0.026042804 0.05180117 0.030151919 -0.0340918
-0.004558019 0.049180895 -0.04583245 0.046948776 0.0021095383 0.006529956 0.017941695 0.03357023
0.03640669 0.050786845 0.025330124 0.056634113 0.022940882 -0.097383656 0.020993205 -0.032318905
0.01608792 -0.025148923 -0.05462397 -0.043551803 -0.042467456 -0.0016956232 -0.037374027 0.013100459
-0.03543617 -0.074485585 -0.017699756 -0.07882276 -0.042785343 -0.058722287 0.013082927 -0.007114012
0.06111108 -0.033318575 0.03726557 -0.011833272 0.017293412 0.068592176 0.016580865 0.020581711
-0.010285939 0.045357484 -0.029368252 -0.06891785 -0.052814692 -0.020805728 0.042307038 -0.0077780345
0.06736066 -0.021961393 0.049002692 -0.016809406 0.008411362 -0.034841232 -0.012455718 -0.033687025
-0.012003143 0.0037660887 -0.0042483984 0.03196675 0.08309272 -0.046833653 -0.032814067 -0.011075517
-0.01470656 -0.06682013 -0.05477906 -0.00045034086 -0.032323085 -0.05344862 -0.095305726 -0.0044627753
0.047099277 -0.056440342 0.1065845 -0.088768676 0.05644713 0.01673661 0.01855893 0.017987987
0.034932327 0.066941604 0.0018662874 -0.05855283 0.0003630223 -0.0145527795 -0.020014364 -0.020177098
-0.014206987 -0.036267392 0.013151795 -0.027903238 -0.00029750576 -0.042245097 0.022026839 -0.07279819
-0.004440366 0.039392535 -0.019955501 0.0126684485 -0.011181055 0.04275356 0.046820104 -0.004671627
-0.022128923 -0.016229514 -0.0043078056 -0.023075141 0.024281995 0.043815184 0.013019956 0.0016144691
0.002612069 -0.05248032 -0.015022396 -0.027771747 0.020815082 0.055178706 0.048042346 -0.035179988
0.005198041 0.016294876 -0.0010184216 -0.0092881275 0.017328877 0.0734048 -0.017742142 0.08308662
0.06646421 0.084548704 0.030690782 0.09574063 -0.014514962 0.028657043 0.019922176 0.05976329

conv.5.bias f4 [24]
00000000: 2f60 9cbc a6b5 5f3c 9e98 cc3d cdc3 d2ba
00000010: ca69 a23d 773a a73d b53c 7f3d e4f3 7e3d
00000020: e7ef 8abc 43ee 9f3d 5cc0 8d3c 588e 55bd
00000030: ab04 613d 5f85 cbbc ea48 433d a847 49bd
00000040: e4d7 72bd 3970 8a3d 59b4 953d a7a4 92bc
00000050: ec25 cfbd 9722 50bc 2746 dabc c24e 31bd
-0.019088833 0.013654148 0.09990047 -0.0016080082 0.07930334 0.08165448 0.062313754 0.06224431
-0.016960097 0.07809117 0.017303638 -0.052137703 0.054936092 -0.02484387 0.04767696 -0.049140602
-0.05928792 0.06759686 0.07309789 -0.017900778 -0.10114655 -0.012703559 -0.02664478 -0.043288

BN.weight f4 [24]
00000000: 0b0d 183f 8dcf 5f3f 4957 503f 1f49 543f
00000010: 7d07 313f 8fbd 643f 4ff5 1c3f 774f 213f
00000020: bfdf 333f 0a5f 2c3f 0ba2 573f c4c7 553f
00000030: 9b80 273f 5532 3f3f 854b 243f f6de 3d3f
00000040: a7db 473f f882 573f 07d0 243f 74be 6b3f
00000050: 2e67 4a3f f5d7 253f 2d70 253f 0557 473f
0.593949 0.8742607 0.81383187 0.82924074 0.6915205 0.89351743 0.6131181 0.6301188
0.70263284 0.6733252 0.8423163 0.83507943 0.6543061 0.74686176 0.64177734 0.74168336
0.7806954 0.8418422 0.64379925 0.92087483 0.7906369 0.6478265 0.6462429 0.77867156

BN.bias f4 [24]
00000000: 895d c33e 3667 d83e 41b8 053f 3871 f83e
00000010: 21b2 c23e 987a 373f 3954 a63e 3ee9 b93e
00000020: 1739 e43e dd8e c43e d788 f73e 7023 bb3e
00000030: 0a3f bb3e 4bc5 aa3e 740b c13e 0e32 973e
00000040: c62f c03e 0d65 c93e 8f97 ad3e 8401 fe3e
00000050: b6de 973e 0ab3 c73e 51f6 c13e 34c6 a03e
0.381573 0.42266244 0.52234274 0.4852388 0.38026527 0.7167144 0.32486132 0.36310762
0.44574806 0.38390246 0.48346588 0.36550474 0.36571532 0.33353648 0.3770405 0.29530376
0.37536448 0.39334908 0.33904693 0.4961053 0.29662102 0.39003783 0.37883237 0.31401217

BN.running_mean f4 [24]
00000000: e3cc 2f3b 39e8 16bd 3a40 743c a03a 9a3d
00000010: 88d0 773d 5248 7cbb 76c9 8d3d fac7 553d
00000020: 6ddb 5f3d e197 9f3d 25dc 763d cbff 48bc
00000030: e102 04bb 217f c3bc 2814 343d ae39 bdbc
00000040: 9dc7 73bc 8292 0f3a e262 a53d 32b8 78bc
00000050: 7366 633c bd94 8d3d f5d2 8a3d f02a 05bd
0.0026825003 -0.03684256 0.014907891 0.07530713 0.060501605 -0.0038495255 0.06923191 0.052192666
0.05465262 0.077926405 0.06026854 -0.012268017 -0.0020143318 -0.02386433 0.043964535 -0.023098793
-0.0148791345 0.00054768485 0.08075501 -0.015180634 0.013879406 0.06913135 0.06778518 -0.03251165

BN.running_var f4 [24]
00000000: 4915 ad3b 0250 f63b 3d5f ca3b e8d0 e43b
00000010: cbd6 cf3b d9bb 113c d265 203c b710 023c
00000020: af8b e63b 9330 cb3b 2d37 d73b 99fc a73b
00000030: b155 e83b 906f 9f3b 8460 093c 6097 dd3b
00000040: 7aa0 bf3b 287c 7b3b c2b1 1f3c 16fc fe3b
00000050: b98e a83b 5bcc d73b 3a55 c23b 35c9 723b
0.0052820784 0.007516862 0.006175904 0.0069829114 0.006342744 0.008894884 0.009789901 0.007938555
0.0070356946 0.006200859 0.0065678568 0.0051265475 0.0070902933 0.004865594 0.0083848275 0.00676243
0.0058479877 0.0038373563 0.009746971 0.007781516 0.005143967 0.0065856404 0.00593057 0.0037046198

dense.1.weight f4 [6, 24]
00000000: 1310 ad3e 9b81 b5be 0489 ef3e 3e82 f53e
00000010: 3419 bd3e 2dd8 033f a054 213f b09f 243f
00000020: 7f2a d33e 3a7f c53e 8304 fc3e e6c5 71be
00000030: d8ad bc3e b000 32be 7442 2f3f 71f2 94be
00000040: 1931 c2be b620 a2bd f34e 283f d186 e2be
00000050: e12d 72be c654 b93e 4733 9b3e b4e2 48be
00000060: 1730 54be 0781 493e 47ee a0be 01c9 183f
00000070: 2ed8 59be bf50 c3be f543 0dbe 610a 1dbe
00000080: 974c 75be 015e 57be 33b1 1e3f 6deb 073f
00000090: b313 3ebe 16bd 90be 5e34 0fbe 95af 3bbe
000000a0: d955 a13e 3700 a0be 88e2 d4bd 48b6 dbbe
000000b0: 941f 023f b82b 65be 9109 58be 60f1 bf3e
000000c0: e74f 41be 8095 e33e 3b94 223f fa78 85be
000000d0: 2d5f 47be b13e 9abe 7c20 fdbd beee 03be
000000e0: ef70 6cbe 5f15 52be 5e23 8fbe 1b04 95be
000000f0: d52f 56be 36d6 073f e765 debd a5f7 6cbe
00000100: 8696 cb3e ccb5 163f 8e6e f4bd ee65 c6be
00000110: 09ba 93be af88 5abe f61f 54be ac73 9fbe
00000120: c06e f13e d45b d4be ce1b 95be ba1b 89be
00000130: 2c5e 82be e68c a0be 5f54 05be 99b0 37be
00000140: d183 093f 822b 77be 1ffb 87be 829e 80be
00000150: 10f5 7abe 8429 cc3e 6fec 30be c2cf e33e
00000160: 1ec6 a53e ebac afbe b1b4 35be 952b 9c3e
00000170: afca e83e 5490 ff3e da44 083f c72f 78be
00000180: d824 65be 57e3 cabe 8405 90be 6cda 88be
00000190: 1a8c 073f 443d b2be 49d6 0fbe 83c1 2ebe
000001a0: d99b 83be f70f 003f 8b95 82be 8c78 033f
000001b0: ec46 fb3e a0d8 7fbe 2c88 19be 041b f03e
000001c0: c999 a0be bdc8 e43e 37cb 2fbe 7a8d aa3e
000001d0: a9d3 2cbe 946d 69be 26c7 69be 6883 85be
000001e0: c8fb 3bbe c749 fe3e 2879 75be 29d4 a1be
000001f0: 51a1 75be cba1 453f d837 b6bd 2dc2 afbc
00000200: 9706 66be a90d 6abe 4c4c a5be 010f 9bbe
00000210: b0ca 66be 907a 84be 394f d2bd 8811 6abe
00000220: f24f cebe 7cb7 a2be 8663 a6bd d11e 1c3f
00000230: ecfc 96be a5ad 54be a115 46be 9c7e 103f
0.33801326 -0.35450444 0.46784222 0.4795093 0.3693329 0.51501733 0.6301975 0.64306164
0.4124336 0.3857363 0.49222192 -0.23610649 0.36851382 -0.17383075 0.68460774 -0.29091218
-0.37928084 -0.07916395 0.65745467 -0.44243482 -0.23650314 0.3619749 0.3031256 -0.1961773
-0.2072147 0.19678126 -0.3143179 0.5968171 -0.21273872 -0.38147542 -0.13795455 -0.1533599
-0.23954998 -0.21031953 0.61989135 0.53093606 -0.18562202 -0.2826926 -0.1398482 -0.18328698
0.3151081 -0.31250164 -0.1039477 -0.42912507 0.50829434 -0.22379959 -0.210974 0.37488842
-0.18878137 0.44449997 0.6350743 -0.2606886 -0.194699 -0.30125955 -0.123597115 -0.12884042
-0.23089956 -0.20515965 -0.2795667 -0.29104695 -0.20916684 0.53061235 -0.1085928 -0.23141344
0.39763278 0.5887115 -0.11935149 -0.3874964 -0.2885287 -0.21341203 -0.20715317 -0.31142938
0.47154808 -0.4147631 -0.29122776 -0.26778966 -0.25462472 -0.31357497 -0.13020466 -0.1793846
0.5371676 -0.2413769 -0.26558778 -0.25120932 -0.24507546 0.39875424 -0.17277692 0.44494444
0.32377714 -0.34311613 -0.1774471 0.30502 0.45467135 0.499148 0.5323006 -0.24236976
-0.22377336 -0.39626572 -0.28129208 -0.26729143 0.52948153 -0.34812367 -0.14046587 -0.17066006
-0.2570484 0.5002436 -0.25504717 0.51355815 0.49077547 -0.2498498 -0.14993352 0.4689561
-0.3136733 0.446844 -0.17167364 0.33311063 -0.16877617 -0.22795707 -0.22829875 -0.26076818
-0.18357766 0.49665663 -0.23971999 -0.31607178 -0.23987319 0.772 -0.0889737 -0.021454895
-0.22463451 -0.22856773 -0.32284772 -0.30284885 -0.22538257 -0.25874758 -0.10269017 -0.2285825
-0.40295368 -0.31780612 -0.08124451 0.6098452 -0.2948984 -0.20769365 -0.19344188 0.5644319

dense.1.bias f4 [6]
00000000: f769 bf3d 32b9 8cbd bc81 b4ba 39a5 5dbd
00000010: 96ab 44bd 4531 933d
0.09346383 -0.06871261 -0.0013771574 -0.054112647 -0.0480152 0.07187132
