onnx_model/2023_3_16_hj_num_1__/2023_3_16_hj_num_1.onnx (onnx, 129624 bytes, 26 tensors)

block_neck1.block_neck.1.weight f4 [1, 1, 3, 3]
-0.24518871 -0.13315031 -0.28808552 -0.31273594 0.15222742 -0.32371798 -0.1613195 0.076343656
-0.3034487
00000000: c012 7bbe 8e58 08be f27f 93be ed1e a0be
00000010: 81e1 1b3e 5dbe a5be f030 25be 105a 9c3d
00000020: a15d 9bbe

block_neck2.block_neck.0.weight f4 [16, 1, 1, 1]
0.6688564 0.54952 0.59800756 0.9437828 0.23525232 -0.6599408 -0.5105522 -0.2360967
0.5876619 0.69412184 -0.3457507 -0.65704745 -0.719455 -0.396105 0.2816248 0.73865795
00000000: 2c3a 2b3f 58ad 0c3f 0617 193f c09b 713f
00000010: fce5 703e e1f1 28bf 8db3 02bf 55c3 71be
00000020: 0371 163f f8b1 313f 3c06 b1be 4334 28bf
00000030: 342e 38bf 46ce cabe 2031 903e b018 3d3f

block_neck2.block_neck.1.weight f4 [16, 1, 3, 3]
-0.276772 0.07171543 0.5320794 -0.0017152079 0.032939028 -0.058185376 0.44888532 -0.25378108
-0.095966384 0.1692924 -0.10651317 -0.12717243 0.057850417 -0.44163027 0.4522588 -0.21998072
0.14871942 -0.22628185 0.31975022 -0.10420645 -0.09949579 0.3200455 0.33974445 -0.34990224
0.03090415 0.06681902 0.0008521207 -0.06948976 0.24506332 0.13857533 -0.07942106 0.28251258
-0.22278555 -0.27635473 0.010732939 -0.14701179 -0.18609977 0.116324954 -0.48067975 0.005511763
0.3832974 -0.24712336 -0.012044271 -0.068951115 -0.15649243 -0.004875188 -0.30121213 -0.11812107
0.20460519 0.33562934 0.06962085 -0.1090706 0.039350655 -0.0019695468 0.36215505 0.2955702
0.14584386 0.008912903 -0.2670135 0.1627897 -0.12083491 -0.1697791 0.020641916 -0.22234987
-0.2707688 -0.27749318 0.18465395 -0.03847546 -0.53306 0.09210496 -0.23832129 0.14159155
0.017342867 0.18824674 -0.1980215 -0.12684558 -0.10701504 0.07067244 0.3913106 0.17720632
0.13462164 0.03450559 -0.21049222 0.29887778 -0.080776006 -0.3692785 0.09213987 0.23569839
-0.31554377 0.13084564 -0.37456584 -0.14242068 -0.46445987 -0.030215487 0.30407456 0.024858896
-0.0741365 -0.010534707 -0.0093350485 -0.24182175 -0.08332526 -0.035264168 -0.07204269 -0.09241561
-0.15376157 0.3146847 0.0022205822 0.2524367 0.17072752 -0.15065938 0.053354308 0.27523035
-0.26322645 -0.39870283 -0.106667966 -0.02272608 0.19153152 0.38412818 -0.16802959 -0.197938
-0.102008805 0.12497487 -0.21504812 0.2728186 -0.47936878 -0.17498696 0.14346631 -0.24379121
0.059266105 0.0683722 0.012760758 -0.29130065 -0.27364618 -0.0031082795 0.41795442 0.1259774
0.26347306 -0.020553352 -0.42218566 -0.15419258 -0.08815252 0.029968346 0.30094668 -0.11385876
00000000: 0fb5 8dbe 8adf 923d 5b36 083f d4d0 e0ba
00000010: 13eb 063d ca53 6ebd 4cd4 e53e 98ef 81be
00000020: 068a c4bd fd5a 2d3e 9423 dabd 7d39 02be
00000030: 8ff4 6c3d 5d1d e2be 778e e73e a042 61be
00000040: e749 183e 6eb6 67be 4db6 a33e 316a d5bd
00000050: 73c4 cbbd 01dd a33e fcf2 ad3e 6326 b3be
00000060: b32a fd3c 69d8 883d da60 5f3a a650 8ebd
00000070: e1f1 7a3e b1e6 0d3e 82a7 a2bd 7da5 903e
00000080: e521 64be 5e7e 8dbe 35d9 2f3c 428a 16be
00000090: f090 3ebe c73b ee3d a81b f6be 059c b43b
000000a0: 8f3f c43e e80d 7dbe 5655 45bc 3e36 8dbd
000000b0: 8d3f 20be 0bc0 9fbb 7a38 9abe 76e9 f1bd
000000c0: 0684 513e 9cd7 ab3e 6095 8e3d 6860 dfbd
000000d0: 272e 213d 8313 01bb 636c b93e fa54 973e
000000e0: 1858 153e 6d07 123c feb5 88be 58b2 263e
000000f0: 4b78 f7bd 93da 2dbe 3c19 a93c afaf 63be
00000100: 35a2 8abe 9613 8ebe ed15 3d3e 7298 1dbd
00000110: 9f76 08bf 86a1 bc3d 7f0a 74be 60fd 103e
00000120: a112 8e3c c1c3 403e 26c6 4abe cfe3 01be
00000130: b42a dbbd b6bc 903d dd59 c83e 9375 353e
00000140: 41da 093e bc55 0d3d 468b 57be 8206 993e
00000150: e46d a5bd 1212 bdbe d4b3 bc3d eb5a 713e
00000160: f48e a1be 66fc 053e 18c7 bfbe bad6 11be
00000170: afcd edbe 7886 f7bc a9af 9b3e e2a4 cb3c
00000180: e1d4 97bd c499 2cbc 08f2 18bc 1fa0 77be
00000190: 6fa6 aabd 2971 10bd 1e8b 93bd 6544 bdbd
000001a0: ac73 1dbe 5a1e a13e 3087 113b 623f 813e
000001b0: 32d3 2e3e 7446 1abe 0c8a 5a3d feea 8c3e
000001c0: 9ec5 86be c722 ccbe bc74 dabd 0b2c babc
000001d0: d720 443e 73ac c43e f30f 2cbe 42b0 4abe
000001e0: fee9 d0bd d3f2 ff3d 9335 5cbe e1ae 8b3e
000001f0: d36f f5be c82f 33be d5e8 123e 67a4 79be
00000200: 04c1 723d b906 8c3d 8012 513c 5c25 95be
00000210: 5a1b 8cbe 47b4 4bbb 1ffe d53e 3800 013e
00000220: f1e5 863e 815f a8bc b828 d8be a9e4 1dbe
00000230: 4f89 b4bd 2d80 f53c af15 9a3e c82e e9bd

block_neck3.block_neck.0.weight f4 [32, 1, 1, 1]
-0.1498517 0.2817637 0.40896955 -0.7962568 0.46428227 -0.36257204 -0.34381706 -0.5932759
0.8288247 -0.4769031 -0.24352282 0.3830032 0.5169903 0.2639685 0.31578538 -0.6607091
-0.7439556 -0.28520644 -0.3755836 0.34365144 0.5800238 0.5075017 -0.50807947 0.20136479
0.17809296 -0.28806025 -0.2984038 -0.8429934 -0.66031355 -0.6726597 -0.5577796 0.33658594
00000000: b972 19be 5543 903e 7564 d13e 7cd7 4bbf
00000010: 68b6 ed3e 0ba3 b9be ca08 b0be eee0 17bf
00000020: db2d 543f a52c f4be 0c5e 79be ff18 c43e
00000030: 7a59 043f e126 873e 9fae a13e 3b24 29bf
00000040: e073 3ebf 9406 92be 7e4c c0be 15f3 af3e
00000050: 717c 143f a2eb 013f 7f11 02bf 9232 4e3e
00000060: 005e 363e a27c 93be 62c8 98be 6ace 57bf
00000070: 4f0a 29bf 6d33 2cbf a5ca 0ebf fe54 ac3e

block_neck3.block_neck.1.weight f4 [32, 1, 3, 3]
-0.19030324 -0.13454205 -0.33371344 0.25648683 -0.35465306 0.025722025 -0.3365948 -0.22457667
-0.2617496 -0.1818154 -0.3106158 -0.22719689 0.078740306 -0.1545461 -0.18791069 0.12343717
0.29582775 0.40264726 -0.29232395 -0.04041352 -0.090281636 0.049121324 0.18595187 0.10779714
-0.4670163 -0.27223724 -0.056937303 0.25214738 0.34924203 0.3742975 -0.16736943 -0.06752182
0.0600726 -0.06874356 -0.11837841 0.0211313 0.3630885 0.2236339 -0.07720685 -0.06851914
0.0048224456 -0.3181157 -0.49687836 -0.06848874 0.13242017 0.40364695 0.47891283 0.5014938
0.1993452 0.19034255 0.070975184 0.27136716 -0.1829831 0.028603928 -0.3445406 -0.15808187
-0.01690552 -0.44130802 -0.3071382 -0.1007317 -0.2794213 -0.20564894 0.29646784 0.25632164
0.3608017 0.31643397 -0.020651784 0.030631674 -0.06769172 0.33948657 0.16216439 -0.08270023
-0.22286522 -0.15336184 -0.10989953 -0.24001451 -0.13606909 -0.062152836 0.021201558 -0.03250623
0.062389683 0.49899065 0.45731094 -0.039229847 0.37422892 0.28472576 0.113809146 -0.113621615
0.1904358 -0.073985025 0.43682927 0.2407006 0.3583136 -0.15579087 -0.10050979 0.19745092
-0.040254034 0.045069903 0.19524655 0.45720947 0.20488149 0.08989313 0.68298763 0.16614008
0.1339265 0.31864113 0.19666024 0.027063986 -0.32606065 -0.12506522 0.12236241 -0.25714493
-0.14790706 -0.15619445 0.23856473 0.3338912 0.24456999 -0.02328964 -0.09431907 -0.10777234
0.28299645 0.27323386 0.6052938 0.14959285 0.19459535 0.40590695 -0.02295578 0.17153317
0.25865135 -0.3026568 -0.14111389 -0.25962234 0.2819362 0.23709491 0.3336841 -0.21690261
-0.13587464 0.19228154 0.20702384 -0.10230762 0.055865247 -0.12384987 -0.06859356 -0.42130232
-0.06007675 -0.09273403 -0.10313687 -0.121137746 -0.23269351 -0.37482372 -0.08612443 -0.19068258
-0.15848951 0.16369262 -0.3729829 -0.2966633 0.05094632 -0.31151882 -0.44976452 -0.32951722
-0.20294917 0.1520976 0.24893518 0.33703274 0.38497004 -0.008726793 -0.06264485 0.0638269
-0.29842237 -0.10739368 -0.3328583 0.2028904 0.23873973 0.27793404 0.4871112 0.44681677
0.2834883 -0.124387905 0.10049974 0.23112768 -0.44977957 -0.14333032 0.25568742 -0.012204955
-0.138461 0.21903977 -0.11862441 -0.065009266 0.32110664 0.010889141 -0.22140244 -0.20124015
-0.07115472 0.044549793 -0.065392695 0.27046663 0.42654383 0.3552158 0.2488711 0.2584718
-0.10597709 -0.07947586 0.16761547 0.40436164 -0.14873627 -0.112344585 0.18201834 -0.11649972
-0.17201564 -0.09710776 -0.06813524 -0.20257407 -0.30135044 -0.23250629 -0.3171442 -0.5194904
0.04356484 0.21172102 -0.120427415 -0.38958877 -0.24054933 -0.22675109 -0.0868444 0.46726748
0.31164005 -0.06942763 0.1477356 0.16029164 0.27540088 0.4554041 0.023366703 0.37853506
0.18664242 -0.15065032 0.39296496 -0.20889951 -0.2517031 0.43033776 -0.1839506 -0.26062894
0.45218062 0.2933901 0.06315687 -0.13955367 -0.34789628 -0.32654414 0.36999083 0.15101485
0.032809585 0.059077688 -0.1548584 -0.26846272 -0.1678163 -0.21996252 -0.23267467 0.21897574
00000000: dade 42be 64c5 09be 7ddc aabe 3e52 833e
00000010: 1695 b5be ffb6 d23c 2756 acbe 6df7 65be
00000020: 0b04 86be d12d 3abe 0909 9fbe 4da6 68be
00000030: 9942 a13d 5541 1ebe a96b 40be a1cc fc3d
00000040: bc76 973e c827 ce3e 7cab 95be a688 25bd
00000050: 94e5 b8bd 7133 493d 2b6a 3e3e bfc4 dc3d
00000060: c31c efbe ae62 8bbe 1737 69bd 7619 813e
00000070: dacf b23e eca3 bf3e e462 2bbe e148 8abd
00000080: b00e 763d 6cc9 8cbd 6170 f2bd 8c1b ad3c
00000090: bce6 b93e 4900 653e a01e 9ebd c353 8cbd
000000a0: 9b05 9e3b 10e0 a2be d766 febe d343 8cbd
000000b0: 2799 073e d0aa ce3e 1034 f53e e661 003f
000000c0: 2621 4c3e 28e9 423e 705b 913d a3f0 8a3e
000000d0: ec5f 3bbe c952 ea3c a067 b0be 37e0 21be
000000e0: 727d 8abc 20f3 e1be 3841 9dbe 6c4c cebd
000000f0: 4f10 8fbe a395 52be a2ca 973e 973c 833e
00000100: 00bb b83e a203 a23e ee2d a9bc 47ef fa3c
00000110: f5a1 8abd 2fd1 ad3e 6c0e 263e bd5e a9bd
00000120: c836 64be e30a 1dbe 0113 e1bd 5dc6 75be
00000130: b255 0bbe f993 7ebd e4ae ad3c 4125 05bd
00000140: 538c 7f3d b47b ff3e a924 ea3e 7aaf 20bd
00000150: ef9a bf3e 93c7 913e c514 e93d 73b2 e8bd
00000160: 9a01 433e 7685 97bd 16a8 df3e 387a 763e
00000170: e174 b73e a487 1fbe 14d8 cdbd 9330 4a3e
00000180: 6ae1 24bd 389b 383d b6ee 473e 5c17 ea3e
00000190: 74cc 513e e419 b83d 47d8 2e3f a020 2a3e
000001a0: 0724 093e ee24 a33e 4d61 493e 4bb5 dd3c
000001b0: 6cf1 a6be 1911 00be 2599 fa3d 80a8 83be
000001c0: f374 17be 70f1 1fbe 504a 743e caf3 aa3e
000001d0: 8e70 7a3e eac9 bebc 5b2a c1bd bfb7 dcbd
000001e0: e9e4 903e 4fe5 8b3e 89f4 1a3f de2e 193e
000001f0: 0144 473e 09d3 cf3e c30d bcbc 64a6 2f3e
00000200: f36d 843e d5f5 9abe 2980 10be 38ed 84be
00000210: f159 903e 02c9 723e a4d8 aa3e b81b 5ebe
00000220: b922 0bbe 74e5 443e 0ffe 533e a886 d1bd
00000230: f5d2 643d 00a5 fdbd c87a 8cbd f0b4 d7be
00000240: 0a13 76bd 57eb bdbd 6c39 d3bd 1117 f8bd
00000250: 3547 6ebe e5e8 bfbe 0162 b0bd 4b42 43be
00000260: 134b 22be 0a9f 273e 9df7 bebe 41e4 97be
00000270: 17ad 503d 657f 9fbe 8947 e6be 7bb6 a8be
00000280: e8d1 4fbe 79bf 1b3e dde8 7e3e 8e8f ac3e
00000290: cb1a c53e d3fa 0ebc f14b 80bd aeb7 823d
000002a0: d1ca 98be 38f1 dbbd 676c aabe 80c2 4f3e
000002b0: 3078 743e 5f4d 8e3e a466 f93e 2bc5 e43e
000002c0: 6125 913e 16bf febd cfd2 cd3d bcac 6c3e
000002d0: 8249 e6be 2fc5 12be 76e9 823e 4bf7 47bc
000002e0: b8c8 0dbe f64b 603e 5bf1 f2bd 9423 85bd
000002f0: 1768 a43e 5e68 323c 52b7 62be e611 4ebe
00000300: 91b9 91bd d879 363d 9bec 85bd 9a7a 8a3e
00000310: f463 da3e d8de b53e 11d8 7e3e 6a56 843e
00000320: 840a d9bd 3dc4 a2bd 64a3 2b3e 7d08 cf3e
00000330: 524e 18be eb14 e6bd 0463 3a3e 6897 eebd
00000340: de24 30be 6fe0 c6bd 7d8a 8bbd 946f 4fbe
00000350: 9b4a 9abe 2116 6ebe b960 a2be 53fd 04bf
00000360: 0c71 323d 65cd 583e a6a2 f6bd 2e78 c7be
00000370: 9052 76be 7031 68be 7adb b1bd af3d ef3e
00000380: 498f 9f3e 1330 8ebd 0048 173e 7e23 243e
00000390: 5801 8d3e ba2a e93e 876b bf3c 59cf c13e
000003a0: 311f 3f3e 1444 1abe b432 c93e c1e9 55be
000003b0: 3bdf 80be 3b55 dc3e 8c5d 3cbe 2871 85be
000003c0: 3884 e73e 3a37 963e 6458 813d 28e7 0ebe
000003d0: 761f b2be cb30 a7be 706f bd3e a3a3 1a3e
000003e0: 5863 063d 72fb 713d 3393 1ebe f273 89be
000003f0: 09d8 2bbe db3d 61be 4542 6ebe 2d3b 603e

onnx::Conv_125 f4 [16, 1, 1, 1]
49.641293 -19.149721 44.404423 38.026432 -1.0151751 -23.85464 39.62744 -20.721273
-35.436855 -40.11794 -1.208363 -0.07805654 -12.356703 35.000324 25.58159 26.966421
00000000: af90 4642 a132 99c1 219e 3142 111b 1842
00000010: 42f1 81bf 4dd6 bec1 8082 1e42 2bc5 a5c1
00000020: 57bf 0dc2 c578 20c2 a4ab 9abf 1bdc 9fbd
00000030: 0eb5 45c1 5500 0c42 19a7 cc41 3bbb d741

onnx::Conv_126 f4 [16]
-0.96080625 0.32766402 -0.7875191 -0.48048162 -0.08735216 0.6010535 -1.0877062 1.3307619
1.1910183 1.3732173 -0.094031736 -0.02402932 0.5055848 -0.7243248 -0.3516512 -0.2913317
00000000: 66f7 75bf 94c3 a73e da9a 49bf b001 f6be
00000010: b0e5 b2bd a4de 193f f539 8bbf 6856 aa3f
00000020: 4a73 983f 96c5 af3f b693 c0bd 23d9 c4bc
00000030: 016e 013f 5a6d 39bf a00b b4be 6e29 95be

onnx::Conv_128 f4 [16, 1, 1, 1]
1.404217 2.6429763 0.23630421 1.7362751 2.362497 2.1839223 -2.2404218 -3.6566348
2.1084223 -1.9929136 2.6122527 2.0190694 2.572227 2.469806 2.131147 2.4997385
00000000: 62bd b33f 8626 2940 bbf9 713e 433e de3f
00000010: 2733 1740 62c5 0b40 1263 0fc0 4e06 6ac0
00000020: 64f0 0640 cb17 ffbf 262f 2740 6f38 0140
00000030: 5e9f 2440 4d11 1e40 b664 0840 b7fb 1f40

onnx::Conv_129 f4 [16]
-0.685871 -0.3517598 -0.38962632 -0.27898282 -0.5542806 -0.8135823 0.73035717 1.5621281
-0.6950573 0.41095215 -0.2189343 -0.24735302 -0.26953796 -0.9598608 -0.32934803 -0.76482743
00000000: 3e95 2fbf dc19 b4be 1a7d c7be d6d6 8ebe
00000010: 55e5 0dbf ee46 50bf b0f8 3a3f d0f3 c73f
00000020: 46ef 31bf 5268 d23e 5030 60be 1c4a 7dbe
00000030: e100 8abe 70b9 75bf 4ea0 a8be bbcb 43bf

onnx::Conv_131 f4 [32, 16, 1, 1]
-0.91092443 0.14244753 -0.33718517 -0.35808092 -0.38030243 -0.8494834 -0.73889095 0.1039094
-1.15755 -2.4750545 -0.15199183 -0.48169574 0.48616117 -0.8690313 0.35179573 -0.3896295
0.28212747 -0.1837673 1.3511912 0.10844131 2.5287433 0.3287142 2.6290848 0.09668927
0.9026909 -2.168243 -0.5120318 -0.6099383 -0.93155944 0.9179799 2.2357197 -0.11642564
1.3037019 -0.15920968 -0.35374162 -0.51301605 -0.84010774 -0.116634384 0.9884109 0.005158408
-0.2707161 -0.43359447 0.23496874 -0.40007013 0.04137716 1.2546843 1.4139297 -0.084643945
0.50523883 0.80984354 -0.9983494 0.8665407 -0.8218804 0.10557222 -0.5736176 0.12752332
1.0206385 -0.21403486 1.0693041 0.19562194 -0.26536238 -0.4014808 0.03145932 0.6736456
1.703706 0.33892485 0.5417977 0.3724237 0.31603336 -0.15553409 -0.7442704 -0.5613712
-0.089060776 0.928611 -0.5243645 -0.31238383 -0.35691 -0.50874925 -0.66475105 0.2185659
-1.8386221 -0.22575021 0.51682985 0.46911806 0.09027451 0.3506852 0.62505096 0.39184493
-0.3538126 0.31905964 -0.363922 0.13949057 -0.91937923 -0.36678553 1.5663877 -0.19144009
-1.0661038 1.5005121 0.03088817 0.55344236 1.2635435 0.12270754 1.2658459 -1.8518934
-0.35693598 -2.3001974 -0.70328856 0.27257195 0.43474177 -0.15894353 -0.33924258 0.013850031
0.3855009 0.42912376 -0.88123477 -1.2880317 -0.6629488 0.9181607 -0.3556686 2.2883217
0.6577917 -1.02003 1.6955426 0.9270698 -0.93455285 -0.7602802 -0.09320032 -1.0471821
-0.24544638 1.2486396 -1.689944 -0.81698364 -0.7492872 1.0143622 -0.46562126 -0.6022
0.62077016 -0.1402725 1.088036 0.082259476 1.7380763 0.2132478 -1.2407142 0.12531348
-1.0583557 -1.126246 -1.5499794 -0.32042274 0.13189901 0.7629248 0.5106049 -0.79525346
0.30652896 -0.16980569 -0.8638759 0.6575283 0.09139842 1.14032 0.6702648 0.21351878
0.49284512 -0.58122987 -1.9151809 -0.6115083 -0.7947327 0.10980574 -1.1778121 -0.005977266
-0.99460244 1.5769097 -1.7514901 -1.357358 -0.34681255 -0.49805444 0.8230059 -0.80110836
1.1165291 0.44416365 1.3087553 0.42733178 -0.34551826 0.7248702 -0.6036485 -0.9191776
-1.6470896 -0.1661755 -0.4540358 -0.5143653 0.13972889 0.1179299 -0.9592509 -0.02735761
-0.05334813 0.050240856 1.3019733 -1.4006947 -0.50626 -0.14539517 -0.22168897 0.842961
-0.5157546 0.20786819 -0.2697828 -0.30891517 -0.6219686 -0.48955747 -0.47211316 0.34904188
1.7686732 0.58664936 -1.8215785 -0.58716935 1.2527089 0.18980753 0.044670127 -1.6731575
-0.18874213 -0.054235686 -0.41114652 0.06767373 -0.15014467 1.2227802 0.3827569 -0.22653808
0.48201135 0.20379639 -2.2786963 -0.40398863 -1.0468181 -0.70142317 -2.9758828 -0.3026412
-0.016660776 -1.6496533 0.08856483 -0.03400517 -0.06575076 -1.4829186 -0.53743726 -1.0826858
-0.90010947 -0.24977884 0.8524209 -0.53630877 -0.8389491 0.018082635 -0.43954453 0.8502975
-0.9203803 0.43945467 -0.49669072 -0.32700136 -0.41495028 0.44751507 1.9314617 0.09657507
00000000: 5832 69bf c4dd 113e 89a3 acbe 6256 b7be
00000010: 00b7 c2be be77 59bf f527 3dbf 74ce d43d
00000020: 992a 94bf 4b67 1ec0 bfa3 1bbe d3a0 f6be
00000030: 1eea f83e d678 5ebf 921e b43e 857d c7be
00000040: 0373 903e 7f2d 3cbe d5f3 ac3f 7a16 de3d
00000050: eed6 2140 3a4d a83e ed42 2840 0605 c63d
00000060: c016 673f 7ec4 0ac0 8414 03bf eb24 1cbf
00000070: ae7a 6ebf bb00 6b3f 0816 0f40 9170 eebd
00000080: b4df a63f dd07 23be 9f1d b5be 0555 03bf
00000090: 4d11 57bf 02de eebd 7f08 7d3f dd07 a93b
000000a0: 4d9b 8abe 1800 debe a59b 703e fed5 ccbe
000000b0: 197b 293d 7f99 a03f a6fb b43f ce59 adbd
000000c0: 5557 013f e851 4f3f d493 7fbf 9cd5 5d3f
000000d0: c166 52bf 4036 d83d 9ad8 12bf 7995 023e
000000e0: 48a4 823f f42b 5bbe f5de 883f 1e51 483e
000000f0: 94dd 87be e48e cdbe 7ddb 003d 0a74 2c3f
00000100: 0a13 da3f 8f87 ad3e 41b3 0a3f 52ae be3e
00000110: 20cf a13e 5444 1fbe 8188 3ebf 06b6 0fbf
00000120: 7f65 b6bd 73b9 6d3f c03c 06bf c6f0 9fbe
00000130: e8bc b6be 643d 02bf 202d 2abf bdcf 5f3e
00000140: f857 ebbf 102b 67be f64e 043f 3e30 f03e
00000150: d8e1 b83d 038d b33e 5703 203f e69f c83e
00000160: ed26 b5be c95b a33e fc53 babe 9ed6 0e3e
00000170: 705c 6bbf 50cb bbbe 647f c83f df08 44be
00000180: 1776 88bf c810 c03f 3009 fd3c 66ae 0d3f
00000190: cbbb a13f 174e fb3d 3d07 a23f d80a edbf
000001a0: 50c0 b6be 6f36 13c0 b80a 34bf 8d8e 8b3e
000001b0: 7996 de3e 18c2 22be 34b1 adbe 3eeb 623c
000001c0: 6060 c53e 1cb6 db3e 9a98 61bf 39de a4bf
000001d0: 03b7 29bf 940c 6b3f 321a b6be dd73 1240
000001e0: 0965 283f 5890 82bf 8a07 d93f 7254 6d3f
000001f0: db3e 6fbf b9a1 42bf cfdf bebd 100a 86bf
00000200: 4c56 7bbe 6cd3 9f3f 1650 d8bf d725 51bf
00000210: 49d1 3fbf 9fd6 813f e965 eebe c729 1abf
00000220: cbea 1e3f 98a3 0fbe c344 8b3f a877 a83d
00000230: 4979 de3f a25d 5a3e b9cf 9ebf 2d52 003e
00000240: 3378 87bf d428 90bf ba65 c6bf 730e a4be
00000250: 8910 073e 0a4f 433f 01b7 023f bb95 4bbf
00000260: 5df1 9c3e 8be1 2dbe f926 5dbf c653 283f
00000270: 182f bb3d 01f6 913f 7996 2b3f aba4 5a3e
00000280: 3256 fc3e 7bcb 14bf a624 f5bf cf8b 1cbf
00000290: 9a73 4bbf d5e1 e03d 8cc2 96bf f1dc c3bb
000002a0: 449e 7ebf 2dd8 c93f d430 e0bf e8bd adbf
000002b0: 6a91 b1be fe00 ffbe 84b0 523f 7015 4dbf
000002c0: 6dea 8e3f 6b69 e33e 4b85 a73f 3bcb da3e
000002d0: c5e7 b0be 1891 393f b588 1abf 394f 6bbf
000002e0: d5d3 d2bf e929 2abe 6177 e8be 72ad 03bf
000002f0: 1715 0f3e 3b85 f13d 7891 75bf 111d e0bc
00000300: 9283 5abd 5bc9 4d3d 10a7 a63f f749 b3bf
00000310: 419a 01bf 79e2 14be 6f02 63be 4bcc 573f
00000320: 7e08 04bf 66db 543e f920 8abe 212a 9ebe
00000330: 5639 1fbf 47a7 fabe d1b8 f1be 9eb5 b23e
00000340: e263 e23f a72e 163f 7c29 e9bf bb50 16bf
00000350: c458 a03f e85c 423e 06f8 363d 062a d6bf
00000360: 9e45 41be 3d26 5ebd cc81 d2be 8698 8a3d
00000370: 86bf 19be 1084 9c3f b6f8 c33e 99f9 67be
00000380: 31ca f63e 00b0 503e 29d6 11c0 99d7 cebe
00000390: 23fe 85bf 7890 33bf dd74 3ec0 caf3 9abe
000003a0: 2e7c 88bc d727 d3bf 7a61 b53d 0149 0bbd
000003b0: 56a8 86bd 47d0 bdbf 7d95 09bf 7395 8abf
000003c0: 936d 66bf 06c6 7fbe 4238 5a3f 884b 09bf
000003d0: 5ec5 56bf 0922 943c fb0b e1be 19ad 593f
000003e0: 0b9e 6bbf 3400 e13e 3f4e febe b96c a7be
000003f0: 5d74 d4be b220 e53e 233a f73f 26c9 c53d

onnx::Conv_132 f4 [32]
-0.1454623 -0.9891052 -0.69488996 -0.5210861 -0.2232896 0.3488626 1.5261874 -2.2117958
-0.17906277 0.2106924 0.9762405 -0.17986596 -0.626385 1.0031675 -0.44973955 -0.49199033
-0.66457176 -1.1870172 0.19074166 0.29023978 1.080709 1.4520355 -0.40043926 -1.2599071
-0.28240395 0.16221571 0.23895365 0.7134133 1.1266763 0.049360722 -1.7104073 1.2935035
00000000: 12f4 14be 0036 7dbf 4fe4 31bf e665 05bf
00000010: 07a6 64be 1e9e b23e 1c5a c33f 108e 0dc0
00000020: 3b5c 37be c0bf 573e e6ea 793f c82e 38be
00000030: c45a 20bf cb67 803f 4344 e6be 28e6 fbbe
00000040: 6021 2abf 2ef0 97bf c851 433e 4f9a 943e
00000050: ac54 8a3f 4ddc b93f 6006 cdbe a344 a1bf
00000060: 4097 90be e01b 263e 44b0 743e 41a2 363f
00000070: ee36 903f 782e 4a3d a0ee dabf 8691 a53f

onnx::Conv_134 f4 [32, 16, 1, 1]
-0.17392534 -0.09117771 -0.043972615 -0.2007887 0.10055598 -0.009004304 0.07548303 -0.032202795
0.13323042 0.120811604 -0.051024657 -0.010354301 0.13929915 0.012003062 -0.13495456 -0.01835603
-0.31919292 -0.49302387 0.57347906 0.44984215 0.03052223 0.1698597 -0.3745351 1.0154449
-0.34179568 0.4132884 0.5585304 -0.014088199 -0.016555136 0.46198305 -0.123635985 0.35429305
0.037076864 0.12110843 0.06973525 0.12976465 0.16575298 -0.045152146 0.02862761 -0.09458254
-0.02498366 -0.11619003 0.036173504 0.13699993 -0.018051635 -0.08566053 0.006486495 0.013781256
-0.04759154 0.047900055 0.046034 0.018147234 0.039400823 0.08307584 0.026573623 0.024437873
0.099932976 0.11040392 0.13758467 0.17847237 0.052703217 0.050951164 0.11239664 0.040724464
0.18623438 0.040326767 -0.107632585 0.17831586 -0.1136929 -0.00021349915 0.14157839 -0.19995415
-0.0625786 -0.016167792 0.026653986 -0.044539876 -0.05744816 -0.09204569 0.17627686 0.06942091
-0.041103642 0.12427592 -0.07974176 0.18291707 0.25740018 -0.21625942 -0.13930167 0.012208122
-0.12871483 -0.09267723 0.28818357 0.19166835 -0.20336664 -0.17332944 0.10741019 -0.02168362
-0.19530293 0.06133111 -0.020959793 -0.10723683 -0.09610637 0.3766569 -0.11031765 -0.020097233
0.04681154 0.34393612 0.031391867 -0.0034650082 0.17378427 -0.052299615 -0.1331643 -0.035498727
0.2762901 -0.26058197 -0.10749173 0.25928995 -0.104534715 -0.190906 0.4907164 0.14500715
0.049292065 0.0027821967 -0.34815982 -0.20362566 -0.09579578 0.22447604 0.02652012 0.024157993
0.037069928 0.005897576 0.06506023 0.0051475633 0.066574536 -0.08562598 0.009303308 -0.033667017
-0.01673022 -0.08507943 0.076703854 0.042803373 -0.006111257 -0.03124957 0.016258849 0.03068431
0.09398876 -0.10846075 0.075464405 -0.02572483 -0.14310682 0.14729194 -0.17966498 0.12708467
0.07612997 0.20100749 -0.29709917 -0.13989227 0.004942584 -0.073407285 0.12599832 -0.12847118
0.24480936 0.12876067 -0.13118036 -0.38110003 -0.6173065 -0.6731392 -0.255538 -0.9995141
0.18427478 -0.5595433 -0.48338524 0.14165005 -0.24880336 -0.33569732 0.4340117 0.4246454
-0.0019352752 0.104350425 -0.012603786 0.031876586 -0.17995368 0.10430262 -0.010930675 0.1505326
0.09620733 0.13870288 -0.004536569 0.04725729 0.018421108 -0.13450176 -0.13398051 -0.13989842
0.12961143 0.005872091 0.014483088 0.08727495 0.009262084 -0.10722358 0.0031782424 -0.023046235
-0.07513178 0.073146254 0.041179266 0.07701765 -0.072163895 0.07402326 0.15974921 0.022873769
0.06830102 -0.09428306 0.10955982 0.065296374 -0.18220681 -0.0024044889 0.019432245 -0.27291012
0.109642096 -0.12438253 -0.016891008 0.05690395 0.0042831814 0.043785784 -0.040803123 0.0695359
-0.20245063 -0.052865844 -0.17530556 -0.008602754 0.44422618 -0.17530061 0.23614825 0.0842011
0.021918494 -0.11480244 0.10554631 0.29824784 0.0029625986 0.086194545 0.19514467 -0.0042732004
-0.019960443 -0.07829156 -0.016950632 0.1388941 0.15536268 -0.016963243 -0.10633546 -0.0103016645
-0.123483755 -0.07945937 0.10776319 0.117284134 -0.00333355 0.001999607 0.13833536 0.06584041
00000000: 7c19 32be 61bb babd a11c 34bd 8e9b 4dbe
00000010: 4bf0 cd3d ca86 13bc d996 9a3d 14e7 03bd
00000020: 8e6d 083e 136c f73d 3bff 50bd 16a5 29bc
00000030: 70a4 0e3e 7ea8 443c 8731 0abe 635f 96bc
00000040: 416d a3be a06d fcbe 86cf 123f b651 e63e
00000050: c109 fa3c b4ef 2d3e 11c3 bfbe 19fa 813f
00000060: d8ff aebe 8a9a d33e d9fb 0e3f 30d2 66bc
00000070: a39e 87bc 0b89 ec3e dd34 fdbd e665 b53e
00000080: e9dd 173d b207 f83d 5bd1 8e3d 06e1 043e
00000090: 26bb 293e 75f1 38bd 7384 ea3c 7eb4 c1bd
000000a0: 88aa ccbc 0af5 edbd ab2a 143d b649 0c3e
000000b0: 06e1 93bc ca6e afbd aa8c d43b c7ca 613c
000000c0: 59ef 42bd d932 443d 268e 3c3d 82a9 943c
000000d0: c262 213d aa23 aa3d edb0 d93c ef31 c83c
000000e0: a9a9 cc3d 731b e23d ffe2 0c3e 76c1 363e
000000f0: 54df 573d 2bb2 503d 3630 e63d b2ce 263d
00000100: 3ab4 3e3e ae2d 253d 796e dcbd 6f98 363e
00000110: d3d7 e8bd bede 5fb9 edf9 103e c8c0 4cbe
00000120: 3629 80bd 5172 84bc 7659 da3c 726f 36bd
00000130: c34e 6bbd 7382 bcbd ec81 343e 8d2c 8e3d
00000140: 4b5c 28bd 6084 fe3d a64f a3bd 9d4e 3b3e
00000150: f5c9 833e 1c73 5dbe 19a5 0ebe 9304 483c
00000160: d2cd 03be 8fcd bdbd cc8c 933e b544 443e
00000170: 583f 50be 467d 31be e0f9 db3d d9a1 b1bc
00000180: 7efd 47be 5436 7b3d dfb3 abbc fc9e dbbd
00000190: 6bd3 c4bd 2cd9 c03e 38ee e1bd f4a2 a4bc
000001a0: 75bd 3f3d 6518 b03e c294 003d 3115 63bb
000001b0: 81f4 313e 1f38 56bd 395c 08be 1d67 11bd
000001c0: e575 8d3e 006b 85be a024 dcbd a7c1 843e
000001d0: 4c16 d6bd dd7c 43be 2e3f fb3e c17c 143e
000001e0: 7ae6 493d 8455 363b 0142 b2be 3f83 50be
000001f0: 9430 c4bd 0cdd 653e b940 d93c fce6 c53c
00000200: a3d6 173d 7440 c13b 4c3e 853d e4ac a83b
00000210: 3b58 883d ac5c afbd e76c 183c 6de6 09bd
00000220: d00d 89bc 203e aebd e916 9d3d 9752 2f3d
00000230: f040 c8bb 19ff ffbc 4731 853c a95d fb3c
00000240: 2e7d c03d ab20 debd 158d 9a3d e1bc d2bc
00000250: 988a 12be b3d3 163e 19fa 37be 7c22 023e
00000260: 08ea 9b3d e8d4 4d3e 621d 98be eb3f 0fbe
00000270: 66f5 a13b 8f56 96bd b405 013e f38d 03be
00000280: 4eaf 7a3e d6d9 033e 2554 06be 8b1f c3be
00000290: cc07 1ebf da52 2cbf e0d5 82be 28e0 7fbf
000002a0: 87b2 3c3e 3b3e 0fbf 457e f7be b60c 113e
000002b0: 4fc6 7ebe 85e0 abbe c836 de3e 1f6b d93e
000002c0: 0fa9 fdba adb5 d53d 1c80 4ebc 0691 023d
000002d0: c745 38be 9d9c d53d 9316 33bc 3825 1a3e
000002e0: 5908 c53d 2108 0e3e 80a7 94bb dc90 413d
000002f0: dde7 963c d4ba 09be 3032 09be 8841 0fbe
00000300: dcb8 043e ab6a c03b 794a 6d3c 36bd b23d
00000310: ffbf 173c 0998 dbbd 0f4a 503b 75cb bcbc
00000320: b1de 99bd b4cd 953d 97ab 283d 6ebb 9d3d
00000330: aaca 93bd 8299 973d 4c95 233e c561 bb3c
00000340: 68e1 8b3d 7a17 c1bd e660 e03d 1bba 853d
00000350: 6c94 3abe a194 1dbb 5f30 9f3c e0ba 8bbe
00000360: 098c e03d 45bc febd 035f 8abc 1e14 693d
00000370: ee59 8c3b b958 333d 2d21 27bd d768 8e3d
00000380: 384f 4fbe db89 58bd 4d83 33be 91f2 0cbc
00000390: 9d71 e33e 0182 33be d9d0 713e a071 ac3d
000003a0: 6a8e b33c 8b1d ebbd aa28 d83d f1b3 983e
000003b0: 2828 423b c486 b03d 01d4 473e 3406 8cbb
000003c0: 1584 a3bc 5357 a0bd 0ddc 8abc 413a 0e3e
000003d0: 6517 1f3e 80f6 8abc 68c6 d9bd 50c8 28bc
000003e0: 0de5 fcbd 98bb a2bd f3b2 dc3d aa32 f03d
000003f0: b077 5abb d70b 033b c9a7 0d3e 56d7 863d

onnx::Conv_135 f4 [32]
0.07570279 -3.662095 -0.16338722 -1.3528978 -0.28524077 -0.3169356 -0.14375739 -1.1130154
-0.4481312 -0.08216202 3.5743446 -0.4472798 -0.53716874 -0.12226653 -0.88552684 -0.26439017
-1.8211462 1.4471338 1.4525824 -1.7343313 -0.2341531 -0.7170136 -0.5904019 2.6714566
0.2651266 0.30111712 0.16327116 0.124718264 1.1383755 -0.18834847 -0.26811367 0.17418593
00000000: 100a 9b3d c45f 6ac0 fb4e 27be c12b adbf
00000010: 140b 92be 6245 a2be 2335 13be 4a77 8ebf
00000020: 7471 e5be 9044 a8bd 10c2 6440 dc01 e5be
00000030: e483 09bf e066 fabd e3b1 62bf 265e 87be
00000040: 521b e9bf ae3b b93f 38ee b93f 91fe ddbf
00000050: d5c5 6fbe 348e 37bf 9424 17bf 25f9 2a40
00000060: acbe 873e 062c 9a3e 8e30 273e 4a6c ff3d
00000070: 4ab6 913f 6cde 40be 3246 89be cc5d 323e

onnx::Conv_137 f4 [64, 32, 1, 1]
-0.30432487 -0.18306684 0.032332562 0.31270418 -0.020249132 0.20040894 0.2852353 0.28264403
0.13517556 -0.061680924 -0.103324905 -0.08833937 -0.1655271 -0.15718473 0.17934425 -0.028298765
0.12188081 -0.23892209 -0.1762128 -0.033927992 0.19459616 -0.10202585 -0.20893519 0.22386903
0.020818023 -0.20649803 0.47431305 -0.026002206 -0.027654223 0.27299634 -0.26527962 -0.17434037
-0.5981726 -0.27893096 -0.17051697 -0.33569565 -0.019671855 0.64548147 -0.25721234 -0.06998676
0.19522059 0.23933873 0.04538556 -0.07266193 0.07802083 -0.37192822 -0.014213161 -0.2212054
0.43135116 -0.031159416 -0.12459377 -0.14387709 -0.16061589 0.16174431 -0.7327514 0.759381
0.24520952 -0.522446 -0.22690974 -0.29764473 -0.37564063 -0.43140703 0.29179776 0.16874039
-0.6565804 -0.60271776 -0.39977863 -0.1370023 -0.018619042 0.48658898 -0.15399872 0.14673084
0.12692916 -0.03679101 0.08757402 -0.696139 -0.24820575 -0.12046227 -0.44995344 -0.050098363
0.40302005 -0.50628555 0.6480575 -0.21201497 0.26394108 -0.36977613 -0.610976 -0.3945649
-0.5284773 0.59198266 0.66987526 -0.20066611 0.27506858 0.8990222 -0.18150134 -0.63025826
-0.4162669 -0.6395857 0.58518004 -0.15864468 0.23758757 0.217064 -0.3211716 -0.10211707
-0.08605278 -0.32288796 0.26181132 -0.090650685 -0.47735363 -0.08270371 -0.34896916 -0.29987574
0.658725 -0.32868186 0.692378 0.005242788 0.4998414 -0.39069387 0.11805118 -0.26686496
-0.25294033 0.29803354 0.7089424 -0.16585802 -0.35985398 0.45906177 -0.12781443 -0.44787613
0.18535103 -0.47441867 0.25828758 0.21762407 0.46127787 -0.00043383174 -0.2093375 -0.052983303
0.35915574 0.5964997 0.112346254 0.15893559 -0.034941748 -0.52878726 0.5944861 -0.25078648
0.55295634 0.26698413 -0.6255339 0.08546348 -0.04914471 0.8547638 0.49271688 0.016080549
0.9314509 -0.43503025 0.1004293 0.35443386 0.40216085 0.68291706 0.33260787 0.34192067
-0.11867459 -0.124609545 -0.17758393 -0.005150795 0.104029424 0.26838142 0.104560755 0.27308223
-0.1608738 -0.16667809 0.20160022 -0.23072045 -0.15023458 0.087276265 -0.10561431 -0.18240976
-0.012091436 -0.16382995 -0.2936197 -0.44107768 -0.095944606 0.15192215 -0.18106945 0.43156275
0.27649447 -0.029609729 0.0682521 -0.079175785 -0.21427163 -0.3403805 0.43706605 0.14836514
-0.59055114 0.111781724 -0.14470233 0.32257092 -0.17680883 -0.024025733 0.031198287 0.41804665
-0.23348768 0.6290411 -0.11814921 -0.47465166 -0.0511764 0.18279235 0.03385426 0.46458036
0.010043927 -0.36324915 0.16773073 -0.42333892 0.47851002 0.18579121 -0.21491817 0.1370461
0.0033696005 -0.017184766 0.5060991 -0.12680048 0.20117599 0.51963776 0.578211 -0.3196833
-0.038409453 -0.41351038 0.18457529 -0.16077979 0.065816835 0.22693767 0.24065381 0.29752183
0.4229618 -0.2679216 0.39230445 -0.06860845 0.3358746 0.11840604 0.11789663 -0.015837153
-0.18850999 0.18131678 -0.22713125 -0.2889891 -0.18835902 -0.068463795 -0.0472467 0.14213468
0.5312137 -0.07710092 -0.15167476 -0.043965694 0.1362623 0.061569896 -0.2025418 0.1409429
00000000: 78d0 9bbe e075 3bbe 266f 043d c31a a03e
00000010: 82e1 a5bc 0038 4d3e 5c0a 923e b8b6 903e
00000020: 766b 0a3e 23a5 7cbd 029c d3bd 46eb b4bd
00000030: f07f 29be 09f5 20be 05a6 373e d0d2 e7bc
00000040: a59c f93d fea7 74be 2171 34be 14f8 0abd
00000050: 3744 473e eef2 d0bd 1bf3 55be ec3d 653e
00000060: 8f8a aa3c 3874 53be 29d9 f23e 9402 d5bc
00000070: 1c8b e2bc 2dc6 8b3e bbd2 87be 4886 32be
00000080: d721 19bf 0ad0 8ebe 009c 2ebe 4de0 abbe
00000090: df26 a1bc 463e 253f 56b1 83be 3855 8fbd
000000a0: e8e7 473e 3615 753e 35e6 393d c7cf 94bd
000000b0: 63c9 9f3d 606d bebe 51de 68bc ab83 62be
000000c0: 0fda dc3e 0842 ffbc 052b ffbd 8454 13be
000000d0: 7e78 24be 4da0 253e 9995 3bbf cb66 423f
000000e0: 3418 7b3e 05bf 05bf 075b 68be e464 98be
000000f0: f853 c0be 62e1 dcbe 8466 953e 48ca 2c3e
00000100: a715 28bf b64b 1abf c9af ccbe 554a 0cbe
00000110: f686 98bc 3122 f93e d7b1 1dbe 9c40 163e
00000120: b8f9 013e 2cb2 16bd 025a b33d 2a36 32bf
00000130: a629 7ebe ecb4 f6bd 4c60 e6be f133 4dbd
00000140: a558 ce3e ee9b 01bf 19e7 253f 741a 59be
00000150: 4923 873e 4c53 bdbe ec68 1cbf 6904 cabe
00000160: 4a4a 07bf 2d8c 173f f27c 2b3f 6b7b 4dbe
00000170: cad5 8c3e 5226 663f 7ddb 39be 9b58 21bf
00000180: ef20 d5be e3bb 23bf 5cce 153f c073 22be
00000190: 284a 733e 0646 5e3e 9b70 a4be c122 d1bd
000001a0: 713c b0bd 9251 a5be 220c 863e 11a7 b9bd
000001b0: b267 f4be 9060 a9bd 16ac b2be 5089 99be
000001c0: 34a2 283f fd48 a8be af3f 313f b1cb ab3b
000001d0: 36eb ff3e 0709 c8be d1c4 f13d 86a2 88be
000001e0: 6581 81be da97 983e 407d 353f afd6 29be
000001f0: c83e b8be 250a eb3e c9e1 02be 0550 e5be
00000200: a9cc 3d3e 01e7 f2be 453e 843e d8d8 5e3e
00000210: 9d2c ec3e e973 e3b9 925c 56be 0505 59bd
00000220: 43e3 b73e 34b4 183f cb15 e63d 03c0 223e
00000230: 141f 0fbd 9a5e 07bf 3e30 183f 1667 80be
00000240: 8c8e 0d3f 25b2 883e fd22 20bf 7a07 af3d
00000250: f74b 49bd cdd1 5a3f 6345 fc3e 5bbb 833c
00000260: 9173 6e3f 49bc debe e0ad cd3d 5b78 b53e
00000270: 07e8 cd3e a7d3 2e3f 944b aa3e 3a10 af3e
00000280: aa0b f3bd 4a33 ffbd 90d8 35be 00c8 a8bb
00000290: 610d d53d 4a69 893e f323 d63d 6fd1 8b3e
000002a0: 1abc 24be a9ad 2abe 4a70 4e3e fb41 6cbe
000002b0: 18d7 19be e6bd b23d 514c d8bd a0c9 3abe
000002c0: 291b 46bc 0ac3 27be 5255 96be efd4 e1be
000002d0: 9b7e c4bd 7b91 1b3e 456a 39be cbf5 dc3e
000002e0: af90 8d3e 1a90 f2bc c2c7 8b3d ea26 a2bd
000002f0: 066a 5bbe 5a46 aebe 1fc7 df3e 08ed 173e
00000300: 5c2e 17bf d1ed e43d d92c 14be 0428 a53e
00000310: 600d 35be 9dd1 c4bc 8d93 ff3c 360a d63e
00000320: 6517 6fbe d608 213f 37f8 f1bd 8b05 f3be
00000330: 589e 51bd eb2d 3b3e c4aa 0a3d 7add ed3e
00000340: 488f 243c cbfb b9be 9bc1 2b3e e1bf d8be
00000350: 44ff f43e 0d40 3e3e 8213 5cbe d055 0c3e
00000360: 84d4 5c3b 11c7 8cbc b68f 013f fcd7 01be
00000370: 1401 4e3e fb06 053f a305 143f 88ad a3be
00000380: 3b53 1dbd a2b7 d3be 4e01 3d3e 75a3 24be
00000390: faca 863d 5962 683e f46d 763e c854 983e
000003a0: 738e d83e 052d 89be 21dc c83e 9682 8cbd
000003b0: c1f7 ab3e de7e f23d ca73 f13d ebbc 81bc
000003c0: c308 41be 1bab 393e 1895 68be 61f6 93be
000003d0: 30e1 40be bf36 8cbd c185 41bd c18b 113e
000003e0: 9ffd 073f 16e7 9dbd a150 1bbe 5f15 34bd
000003f0: 5888 0b3e b730 7c3d 1e67 4fbe 5653 103e

onnx::Conv_138 f4 [64]
-0.14490113 -0.20696598 0.53926086 -0.104250014 -0.61502457 -0.32540753 0.28375557 0.14276618
-0.8553722 -0.9716332 0.17042622 -0.17113361 0.4123247 -0.16775736 1.1227442 -0.14633478
0.5534325 -0.6594943 -0.8629378 -0.3100751 -0.16316709 -0.6574164 -0.017986268 0.16630816
-0.113927454 0.09727204 0.16576952 0.18493706 -0.7948204 -0.06745291 -0.38259947 -0.2585534
0.2076546 -0.017111808 -0.3713489 0.3883692 0.11550504 -0.14339206 0.4271266 -0.57999843
0.14490458 0.11652517 -0.13597661 -0.040273488 -0.16660345 -0.21238258 0.20124772 0.87227273
0.34710377 -0.55172867 -0.06779185 -0.35094386 -0.71954954 -0.20319703 0.158396 0.25040555
0.19384181 -0.06273264 -0.18875733 0.20930785 0.15702409 -0.36270225 -0.43257785 0.1761238
00000000: f660 14be e4ee 53be 000d 0a3f 0881 d5bd
00000010: 4072 1dbf d19b a6be 6948 913e 4c31 123e
00000020: acf9 5abf f4bc 78bf 3684 2e3e a63d 2fbe
00000030: 391c d33e 96c8 2bbe 15b6 8f3f c9d8 15be
00000040: c1ad 0d3f 9ed4 28bf 7ee9 5cbf 2ac2 9ebe
00000050: 4615 27be 714c 28bf f057 93bc b04c 2a3e
00000060: cc52 e9bd 9036 c73d 7cbf 293e 2460 3d3e
00000070: 5a79 4bbf c024 8abd 14e4 c3be 1c61 84be
00000080: 68a3 543e 102e 8cbc 7121 bebe 54d8 c63e
00000090: e88d ec3d 5ed5 12be 56b0 da3e c77a 14bf
000000a0: de61 143e c0a4 ee3d 743d 0bbe d0f5 24bd
000000b0: 189a 2abe d27a 59be e213 4e3e 444d 5f3f
000000c0: 96b7 b13e 173e 0dbf 74d6 8abd eaae b3be
000000d0: 6634 38bf e212 50be 9032 223e 2835 803e
000000e0: 787e 463e f879 80bd 9a49 41be cc54 563e
000000f0: ecca 203e 1cb4 b9be d87a ddbe cc59 343e

onnx::Conv_140 f4 [64, 1, 1, 1]
-0.34945786 -0.34493187 -0.15081967 0.33627784 0.21212462 -0.32033196 -0.1754004 0.442431
0.33907124 0.1584715 -0.1631632 -0.5297446 -0.2247295 -0.18417104 0.007032567 0.40613997
0.256764 -0.42874408 -0.29000574 -0.13273008 -0.12652005 -0.37026894 -0.439643 -0.30324376
-0.29506403 -0.24540956 -0.23588401 -0.066991486 -0.07353516 -0.34854925 -0.41118076 -0.1291113
0.14611152 0.24243759 -0.23194674 -0.23705862 -0.32887664 0.18220696 -0.4574736 -0.54938114
0.19478212 -0.28558218 0.15219 -0.3429962 0.24034174 0.26978382 -0.24360119 0.46918765
0.17229035 0.19782673 0.19995704 -0.3058685 0.20888846 -0.2428658 -0.3251959 0.3719757
-0.37539545 -0.023826608 -0.56175077 0.038456243 0.20812126 -0.037283733 -0.23438585 0.41671637
00000000: 24ec b2be e99a b0be 7970 1abe 9c2c ac3e
00000010: 3237 593e 8d02 a4be 2a9c 33be 5186 e23e
00000020: bf9a ad3e 5a46 223e 4114 27be 589d 07bf
00000030: 7d1f 66be 5597 3cbe 7371 e63b 94f1 cf3e
00000040: 9276 833e 5884 dbbe a27b 94be 65ea 07be
00000050: 798e 01be e493 bdbe e318 e1be c442 9bbe
00000060: a212 97be a54c 7bbe 948b 71be d532 89bd
00000070: 9a99 96bd 0c75 b2be 4986 d2be c135 04be
00000080: 429e 153e 8f41 783e 7283 6dbe 7fbf 72be
00000090: 8562 a8be 7694 3a3e fb39 eabe 3ea4 0cbf
000000a0: f774 473e d437 92be b2d7 1b3e 339d afbe
000000b0: 251c 763e 1b21 8a3e 9772 79be 5d39 f03e
000000c0: e26c 303e 1793 4a3e 8ac1 4c3e cc9a 9cbe
000000d0: dbe6 553e d0b1 78be 1480 a6be 9973 be3e
000000e0: d533 c0be 0530 c3bc e6ce 0fbf 4b84 1d3d
000000f0: bd1d 553e d4b6 18bd d802 70be d95b d53e

onnx::Conv_141 f4 [64]
-0.06784576 -0.11829093 -0.6179788 -0.95579207 -0.88148564 -0.14984581 -0.37049252 -0.85567963
-0.9312928 -0.73896307 -0.5489741 -0.088063896 -0.09817809 -0.1927281 -0.4352707 -0.8212853
-0.557036 0.024709374 -0.36207744 -0.7280459 -0.50095284 -0.15454602 -0.095912546 -0.16016081
-0.09972519 -0.17638326 -0.09262937 -0.49809182 -0.40362057 -0.1292066 -0.0902212 -0.6912398
-0.6772247 -0.85542023 -0.22586808 -0.295833 -0.30218333 -0.7714914 -0.14975967 -0.18366686
-0.93860096 -0.005851686 -0.7835938 0.089636594 -1.0058881 -0.6579712 -0.15211087 -0.9268817
-0.75305706 -0.99354595 -0.8399174 -0.1378791 -0.84712476 -0.0835987 -0.1644201 -0.84463865
-0.15092957 -0.12865914 -0.07538748 -0.7411524 -0.9610374 -0.862611 -0.19411752 -0.77647793
00000000: b8f2 8abd 8442 f2bd dc33 1ebf caae 74bf
00000010: 0ba9 61bf 2e71 19be 32b1 bdbe d20d 5bbf
00000020: 3469 6ebf af2c 3dbf 9189 0cbf d85a b4bd
00000030: 9811 c9bd 845a 45be cddb debe c13f 52bf
00000040: e999 0ebf 506b ca3c 3762 b9be 3761 3abf
00000050: 723e 00bf 5041 1ebe cc6d c4bd 3201 24be
00000060: b83c ccbd d09d 34be 78b4 bdbd e405 ffbe
00000070: 5ba7 cebe bc4e 04be e4c5 b8bd 17f5 30bf
00000080: 995e 2dbf d2fc 5abf f649 67be 6c77 97be
00000090: c6b7 9abe 7680 45bf 995a 19be 2a13 3cbe
000000a0: 2748 70bf 80bf bfbb 9a99 48bf 6493 b73d
000000b0: f1c0 80bf cd70 28bf f4c2 1bbe 1e48 6dbf
000000c0: 59c8 40bf 0759 7ebf d404 57bf 2e30 0dbe
000000d0: 2bdd 58bf cc35 abbd be5d 28be 3d3a 58bf
000000e0: 488d 1abe 39bf 03be c064 9abd 2abc 3dbf
000000f0: 8c06 76bf 13d4 5cbf bec6 46be 42c7 46bf

onnx::Conv_143 f4 [64, 1, 1, 1]
8.399635 4.164323 -0.8138751 2.0642478 -1.2128597 7.7147126 -0.07114847 -2.5554736
1.6095492 -1.1074042 -1.039948 -0.5407666 -1.7416332 4.350644 -0.5420272 0.6962803
-1.2837691 -3.8096616 3.257579 8.121905 -2.1943388 -4.979328 -1.3930911 -3.694736
6.029824 5.8506746 6.124923 7.3692303 1.9893646 -9.670065 3.0538533 4.1016083
3.968601 5.1688514 5.433426 -1.6402115 -3.2387557 3.3654425 -1.968852 -1.9235698
-3.2714849 -1.5281885 -12.6422615 13.570337 6.9067144 -1.0451165 5.6250076 -0.6661655
-1.4766805 -1.0114204 -1.3438717 -0.7537826 -0.9531421 9.306873 8.639808 3.7830796
-5.625485 15.186122 7.5074844 -1.9091983 4.642692 -1.2625829 -1.6892347 3.8332012
00000000: e864 0641 2242 8540 1e5a 50bf a31c 0440
00000010: fd3e 9bbf edde f640 4ab6 91bd e18c 23c0
00000020: b505 ce3f 6cbf 8dbf 041d 85bf ae6f 0abf
00000030: d6ed debf 7a38 8b40 4bc2 0abf 6d3f 323f
00000040: 8c52 a4bf 7fd1 73c0 2d7c 5040 53f3 0141
00000050: 0c70 0cc0 a856 9fc0 cf50 b2bf 8e76 6cc0
00000060: 51f4 c040 ba38 bb40 5fff c340 bcd0 eb40
00000070: 80a3 fe3f 96b8 1ac1 5572 4340 6040 8340
00000080: 8ffd 7d40 3b67 a540 a0de ad40 73f2 d1bf
00000090: c647 4fc0 6963 5740 5803 fcbf 8937 f6bf
000000a0: 0260 51c0 ae9b c3bf b446 4ac1 1a20 5941
000000b0: ce03 dd40 61c6 85bf 1000 b440 d289 2abf
000000c0: de03 bdbf 3976 81bf fd03 acbf e5f7 40bf
000000d0: 1f01 74bf f4e8 1441 a73c 0a41 fa1d 7240
000000e0: f903 b4c0 5bfa 7241 503d f040 9c60 f4bf
000000f0: ef90 9440 519c a1bf d838 d8bf 2b53 7540

onnx::Conv_144 f4 [64]
-0.52967954 -0.49187136 -0.06393525 -0.6297304 -0.12136847 -0.6034407 -0.3918874 0.39988303
-0.71702707 -0.13453269 0.0152851045 -0.2272846 0.2983768 -0.43997017 -0.03642258 -0.6801305
0.33208808 0.13400832 -0.68964106 -0.54627794 -0.15010898 -0.021072745 -0.25574893 0.17074779
-0.48625085 -0.800995 -0.91344744 -1.1301663 -0.56703985 0.006191939 -0.49473375 -0.43264407
-0.890603 -0.56512165 -0.5624532 0.18098056 -0.056819826 -0.6682223 0.29231054 -0.0050676763
0.2873009 -0.22499537 0.17901249 -1.1324015 -0.43131587 -0.14225341 -0.940013 0.23022696
0.050469518 -0.14738587 -0.14613703 -0.19120108 0.054942787 -0.49498463 -1.1440438 -1.043918
0.2902297 -0.43495485 -0.53849053 0.0633322 -0.9534 -0.029298782 -0.1015238 -0.99472815
00000000: 1499 07bf 90d6 fbbe 7cf0 82bd 0336 21bf
00000010: 0890 f8bd 177b 1abf 77a5 c8be 78bd cc3e
00000020: 168f 37bf f0c2 09be 606e 7a3c 4bbd 68be
00000030: d8c4 983e c543 e1be d82f 15bd 081d 2ebf
00000040: 7307 aa3e 7a39 093e 518c 30bf dfd8 0bbf
00000050: 2bb6 19be c0a0 acbc 86f1 82be 82d8 2e3e
00000060: dff5 f8be 020e 4dbf b1d7 69bf 4aa9 90bf
00000070: 8629 11bf c0e5 ca3b be4d fdbe 8683 ddbe
00000080: 8ffe 63bf d0ab 10bf effc 0fbf f852 393e
00000090: e8bb 68bd 9e10 2bbf baa9 953e c00e a6bb
000000a0: 1b19 933e 3065 66be 0d4f 373e 88f2 90bf
000000b0: 6fd5 dcbe e1aa 11be b1a4 70bf 9ec0 6b3e
000000c0: 20b9 4e3d 52ec 16be f2a4 15be 37ca 43be
000000d0: b00b 613d a06e fdbe 0770 92bf 1b9f 85bf
000000e0: fd98 943e 67b2 debe 84da 09bf 50b4 813d
000000f0: 0612 74bf 0004 f0bc b6eb cfbd 81a6 7ebf

onnx::Conv_146 f4 [64, 1, 3, 3]
-1.9794067 0.8683133 0.84099317 0.1956386 -2.7800272 0.6212618 -0.811934 2.1189346
-2.0511248 1.204213 1.321708 0.39337546 0.63564765 -0.016347945 0.20127328 0.21261011
-0.0748765 -1.3026929 0.28162506 -0.49485365 -0.42697462 0.9461662 0.20333098 0.41925997
-0.3352289 0.5025487 -0.117729284 -0.19742072 -0.007856235 -0.190208 0.5016006 -0.05605186
-0.027321327 -0.55795956 -0.518939 -0.67076874 -0.33172107 -0.027877232 0.39363435 -0.6166572
-0.14717819 -0.09594334 -0.2615142 -0.06909669 -0.2059855 -1.5313592 0.32762492 0.2064913
-1.3608786 -1.3557931 -1.4960762 -1.0764883 0.2450449 0.42392322 0.77773064 0.54751915
0.5314774 -0.24643523 0.30164254 0.21118522 0.8556062 -1.2217035 1.1938299 -0.29521558
-0.9094757 -0.3553457 -0.13014264 0.6098642 0.44060066 0.1591986 0.17069183 -0.8064209
0.02448265 0.20341302 -0.29036564 -0.2992939 0.18545847 -0.40554905 -0.10908119 0.44559097
-0.64383936 0.5700146 0.55629194 0.22836004 0.2257765 -0.35495266 0.10267585 -0.37129882
-0.3320839 -0.28238457 0.26395842 -0.38922194 -0.3342029 0.34946066 -0.4483576 0.09058908
-0.32141212 -0.061021935 -0.34159043 1.1800411 1.0293899 1.6595979 -1.9198818 -1.13428
-0.6707936 -0.3944975 0.2210917 1.1139371 -0.56232065 -0.22709548 0.50254893 0.43157005
-0.79563755 -0.4189312 -0.5956379 0.28963497 0.06967695 -0.9252779 0.34747517 0.4707637
-0.703715 -0.77657884 0.25359234 -0.8478447 -0.9683745 0.9807641 0.11441227 -0.0721602
-0.35827243 0.06178525 -0.121801674 0.016784979 -0.14842752 -0.21988207 0.041144636 -0.42835268
-0.19870797 -0.39797065 0.24645826 0.017649531 0.055964418 0.3691681 0.21711287 0.16084564
-0.38217387 -0.06942456 -0.27354494 -0.11628474 -0.0227825 0.19386084 -0.44903874 -0.15954334
0.21691759 -0.72382313 1.8879706 0.46229994 -0.6953841 -0.08321331 -0.08806784 -0.6726708
1.5623488 -0.29920545 -0.57492596 -0.011670432 -0.71554273 0.026907932 -0.5625907 -0.14429356
0.39561138 -0.6646861 -0.4393929 -2.3765512 -1.3124598 -3.6578588 -1.3407989 0.15561736
-0.9084795 2.488255 1.8455367 3.679827 -1.1433609 0.6014865 0.6591144 1.6497082
-0.09896961 -0.2662952 -0.5714016 -0.019889044 0.7546058 0.5652493 -1.167949 0.7286207
-2.5464675 0.68602484 -1.1003842 -2.1191015 0.68946826 -1.2916743 2.1226814 -0.46031722
0.857814 -0.26088813 1.4656713 -0.60458434 1.0183783 -0.3570756 -0.12788662 0.38809946
-0.569374 -0.15660451 0.6500537 -0.21976833 -0.45032802 0.6408452 -0.27014235 -2.29421
-1.4819969 1.2099715 -1.524637 -1.4517852 1.6688104 1.0962597 0.8542233 1.0244275
0.6694231 0.050807595 -1.1651154 1.7594728 -1.8834827 0.66007715 -0.29362035 -0.11102185
-0.8800306 -0.99361634 -0.61273897 0.06250156 -1.5673567 -0.28808865 0.385293 -1.0836157
1.8617858 1.5974964 2.1816185 1.819203 -0.3952829 -0.29125604 -1.7652886 1.3321786
0.5830426 -2.3403904 0.46520784 -0.5388902 0.10025614 -0.22758886 0.1531484 -0.5630306
00000000: 335d fdbf c849 5e3f 544b 573f 7c55 483e
00000010: f7eb 31c0 030b 1f3f e8da 4fbf a09c 0740
00000020: a145 03c0 a723 9a3f ba2d a93f 8268 c93e
00000030: ceb9 223f 20ec 85bc 951a 4e3e 77b6 593e
00000040: da58 99bd a4be a6bf 2931 903e 755d fdbe
00000050: 6b9c dabe f337 723f ff35 503e 3ea9 d63e
00000060: 1fa3 abbe 08a7 003f 0d1c f1bd a828 4abe
00000070: 70b7 00bc e3c5 42be e668 003f a396 65bd
00000080: fad0 dfbc 70d6 0ebf 30d9 04bf 80b7 2bbf
00000090: 58d7 a9be cb5e e4bc 718a c93e 3fdd 1dbf
000000a0: e1b5 16be f17d c4bd 30e5 85be 9182 8dbd
000000b0: dded 52be 9403 c4bf 74be a73e 7572 533e
000000c0: 4531 aebf a18a adbf 6d7f bfbf 5eca 89bf
000000d0: 0ded 7a3e 770c d93e 5b19 473f 372a 0c3f
000000e0: e70e 083f 8459 7cbe e470 9a3e f040 583e
000000f0: 0209 5b3f c860 9cbf 6bcf 983f 7f26 97be
00000100: 66d3 68bf dfef b5be 1d44 05be 0f20 1c3f
00000110: 6996 e13e f504 233e d7c9 2e3e 9a71 4ebf
00000120: d78f c83c 814b 503e ceaa 94be 0d3d 99be
00000130: d3e8 3d3e 20a4 cfbe f565 dfbd 8024 e43e
00000140: a8d2 24bf 7aec 113f 2669 0e3f 37d7 693e
00000150: f431 673e 5bbc b5be b747 d23d e11a bebe
00000160: e706 aabe b694 90be 8f25 873e 1948 c7be
00000170: a41c abbe 82ec b23e 218f e5be c486 b93d
00000180: 2190 a4be 23f2 79bd f1e4 aebe 960b 973f
00000190: 0cc3 833f b46d d43f b0be f5bf 1630 91bf
000001a0: 21b9 2bbf 94fb c9be dd65 623e 7e95 8e3f
000001b0: 3ff4 0fbf b88b 68be 0ca7 003f c0f6 dc3e
000001c0: e7ae 4bbf 267e d6be ba7b 18bf 094b 943e
000001d0: cab2 8e3d 03df 6cbf 44e8 b13e f107 f13e
000001e0: ab26 34bf dfcd 46bf dbd6 813e 5a0c 59bf
000001f0: 64e7 77bf 5b13 7b3f fb50 ea3d bac8 93bd
00000200: 7c6f b7be 8812 7d3d 2873 f9bd a780 893c
00000210: 62fd 17be c428 61be 4787 283d 0b51 dbbe
00000220: 1a7a 4bbe cfc2 cbbe 8e5f 7c3e c095 903c
00000230: f23a 653d 9a03 bd3e d652 5e3e b8b4 243e
00000240: 4bac c3be 772e 8ebd 150e 8cbe b226 eebd
00000250: 5ea2 babc 7583 463e 68e8 e5be 545f 23be
00000260: a51f 5e3e 794c 39bf 05a9 f13f 94b2 ec3e
00000270: b104 32bf bd6b aabd e95c b4bd 2734 2cbf
00000280: 0cfb c73f 7531 99be 592e 13bf 5735 3fbc
00000290: cf2d 37bf 066e dc3c f205 10bf b1c1 13be
000002a0: 938d ca3e de28 2abf 1bf8 e0be 6a19 18c0
000002b0: affe a7bf 5c1a 6ac0 4c9f abbf 285a 1f3e
000002c0: 1d92 68bf 923f 1f40 8c3a ec3f 4982 6b40
000002d0: a659 92bf 05fb 193f b9bb 283f a329 d33f
000002e0: 94b0 cabd d857 88be 6047 12bf 59ee a2bc
000002f0: d92d 413f 2eb4 103f 5a7f 95bf e386 3a3f
00000300: 53f9 22c0 539f 2f3f 64d9 8cbf 5c9f 07c0
00000310: fe80 303f 9555 a5bf 03da 0740 b3ae ebbe
00000320: b399 5b3f 2193 85be 1e9b bb3f 0ac6 1abf
00000330: 385a 823f 9dd2 b6be b6f4 02be f9b4 c63e
00000340: 7fc2 11bf ef5c 20be eb69 263f f30a 61be
00000350: 6591 e6be 6e0e 243f 1950 8abe 56d4 12c0
00000360: 13b2 bdbf 59e0 9a3f 4e27 c3bf 19d4 b9bf
00000370: 949b d53f 3d52 8c3f 61ae 5a3f 7120 833f
00000380: 505f 2b3f a01b 503d 8022 95bf 6836 e13f
00000390: f615 f1bf d1fa 283f 6855 96be 6c5f e3bd
000003a0: af49 61bf a45d 7ebf 76dc 1cbf d100 803d
000003b0: 259f c8bf 5b80 93be 2045 c53e ebb3 8abf
000003c0: ff4e ee3f c37a cc3f a39f 0b40 a5db e83f
000003d0: 8562 cabe 831f 95be faf4 e1bf d484 aa3f
000003e0: 4842 153f f5c8 15c0 b92f ee3e b5f4 09bf
000003f0: 1753 cd3d 0e0d 69be efd2 1c3e c622 10bf

onnx::Conv_147 f4 [64]
-0.36948484 -0.3835299 -0.61228883 -0.19050966 -0.123125404 -0.14837559 -0.7385331 -0.25063217
-0.15026253 -0.28809217 0.061529562 -0.3973054 0.10308877 -0.11083928 -0.07309827 -0.3865886
0.17283228 -0.52751124 -0.20597512 -0.19821058 -0.3869231 -0.16373236 -0.489467 -0.22745346
-0.31815255 -0.09826423 -0.40235674 -0.32863003 -0.15211467 -0.43170005 -0.27529714 -0.19079447
-0.16474901 -0.22373332 -0.28205222 -0.7650202 -0.2408645 -0.14672697 -0.7635303 -0.3480519
-0.03561029 -0.38360718 -0.23507921 -0.88178885 -0.34584373 0.07457185 -0.7613977 0.1727489
-0.70501757 -0.52332544 -0.2293237 -0.61160016 -0.19182537 -0.22951314 -0.5539378 -0.97239244
-1.0133884 -0.50450337 -0.4451079 0.16132069 -0.36541498 -0.62871027 -0.23286355 -0.48084748
00000000: 1e2d bdbe 085e c4be f6be 1cbf f714 43be
00000010: 2c29 fcbd c5ef 17be 8110 3dbf dc52 80be
00000020: 6cde 19be d180 93be 6c06 7c3d 9d6b cbbe
00000030: 3420 d33d b4ff e2bd 8cb4 95bd f1ee c5be
00000040: f2fa 303e fa0a 07bf 24eb 52be b7f7 4abe
00000050: c91a c6be 75a9 27be 6b9b fabe 8fe9 68be
00000060: e4e4 a2be c23e c9bd b401 cebe 3242 a8be
00000070: f3c3 1bbe ca07 ddbe bff3 8cbe a05f 43be
00000080: f7b3 28be 591a 65be 2669 90be 5dd8 43bf
00000090: 2fa5 76be 983f 16be b976 43bf dc33 b2be
000000a0: 18dc 11bd 2968 c4be 9bb8 70be eabc 61bf
000000b0: 6e12 b1be 20b9 983d f6ea 42bf 16e5 303e
000000c0: 087c 34bf a8f8 05bf d5d3 6abe d491 1cbf
000000d0: df6d 44be 7e05 6bbe dece 0dbf b6ee 78bf
000000e0: b6b6 81bf 2227 01bf 2fe5 e3be 4031 253e
000000f0: ac17 bbbe 28f3 20bf c873 6ebe a431 f6be
