onnx_model/2023_4_21_hj_num_1/2023_4_21_hj_num_1.onnx (onnx, 133910 bytes, 29 tensors)

block_neck1.block_neck.0.weight f4 [3, 1, 1, 1]
000000 9d 0c 02 bf 4b a4 63 be 25 e7 13 3f
       -0.50800496 -0.22230642 0.57774574

block_neck1.block_neck.1.weight f4 [3, 1, 3, 3]
000000 c4 82 b4 3e d4 f9 6f 3e c9 bd 25 3f b1 b3 3d bd
       0.35256016 0.23435146 0.64742714 -0.046313945
000010 89 9f ef 3c 7a 7a ae 3e 30 b5 02 be ef ee bd 3e
       0.029250877 0.34077817 -0.1276443 0.37096354
000020 3b 61 61 3e 29 a2 e3 bd 68 ed 61 3e 22 08 5d 3e
       0.22009747 -0.11114914 0.2206322 0.21585134
000030 fd c4 8f 3e 3c a7 bd bd 60 ed 1d 3e 75 93 b0 3e
       0.28079978 -0.09260413 0.15422583 0.344875
000040 94 6c 27 3f 31 e3 78 3e c5 5a 81 3e 04 01 9d 3e
       0.6540005 0.24305417 0.25264564 0.30664837
000050 0d 34 08 3f ea ea 5c 3b 7a 36 3a bd bd 9b 91 3e
       0.53204423 0.0033709356 -0.04546211 0.2843913
000060 79 27 e2 be 2e c8 e7 3d b5 3a 00 3f
       -0.4417074 0.11317478 0.5008958

block_neck2.block_neck.0.weight f4 [16, 1, 1, 1]
000000 a9 94 ec 3e 9c d3 47 bf d5 eb 5a bf 6e 8b 0e bf
       0.4620717 -0.78057265 -0.855161 -0.556815
000010 da ea 22 3f fd 7c 1d 3f 36 fc 03 bf b9 a7 0f 3f
       0.63639605 0.6151884 -0.5155672 0.561153
000020 2b f6 3e 3f af c2 fb be bd d4 db 3e 4c 16 5b 3f
       0.7459437 -0.4917197 0.42935744 0.855809
000030 08 d9 d3 3e 07 72 24 bf 27 86 c9 be dc ca 0b 3f
       0.4137652 -0.6423649 -0.39360163 0.54606414

block_neck2.block_neck.1.weight f4 [16, 1, 3, 3]
000000 0c 58 09 3d 4a 86 fd 3a d2 fc 6b be 4b 98 37 3e
       0.033531234 0.001934239 -0.23045662 0.17929189
000010 ac 86 23 3e d4 8f 95 be d6 27 9b be c1 bd 3c bf
       0.15969342 -0.29211295 -0.3030383 -0.7372704
000020 a6 71 24 bf e9 12 02 be 38 dd ce be 81 46 97 bc
       -0.64235914 -0.12702526 -0.40403152 -0.018466236
000030 e4 11 69 be 5f 67 89 be a3 8f e4 be be 42 ec be
       -0.22760731 -0.26836678 -0.44640836 -0.4614467
000040 ec c8 e6 be 5c aa 43 bf bc 87 00 3f 80 b8 00 3f
       -0.45075166 -0.7643182 0.50207114 0.50281525
000050 73 18 b6 3e f2 6a 81 3e 93 f9 20 3e a5 c9 5b be
       0.35565528 0.25276905 0.15720205 -0.2146364
000060 b4 85 b0 3d 4a b6 42 3d c0 99 ef be 76 0d c9 3e
       0.08619252 0.047537126 -0.4679699 0.39268082
000070 68 a9 84 3d 60 a2 12 3e f9 c0 10 3f c8 fa ed be
       0.06477624 0.14319754 0.5654445 -0.46480393
000080 5e f3 5c be 35 d4 fb 3e 78 ea 2e be 08 7e 29 bd
       -0.21577212 0.4918534 -0.1708163 -0.04137996
000090 80 ec df 3e b6 89 97 bd a1 fe 68 3e e4 c0 7f be
       0.43735123 -0.07399313 0.22753383 -0.24975926
0000a0 88 5a 01 be f5 e8 16 bd 6d 83 01 bf 3f 4b c2 bc
       -0.12632191 -0.03684326 -0.50591165 -0.02371752
0000b0 84 2e 6a be db 32 01 bf b4 9f 58 bd 4a 8c 85 be
       -0.22869307 -0.50468224 -0.05288668 -0.26083595
0000c0 2c 2d b6 be a1 55 a0 3e 0d a8 4b be 4a 76 11 be
       -0.35581338 0.3131533 -0.19888325 -0.1420528
0000d0 52 28 4e 3e 33 69 83 be 0e e9 e5 3e 48 15 41 3f
       0.20132568 -0.25666198 0.4490437 0.754231
0000e0 c1 a0 26 3f 78 1c 01 3f 6f 1d 02 bd ba 6b 66 bd
       0.6508904 0.50434065 -0.03176635 -0.05625508
0000f0 e9 b6 d9 3e 0d 14 13 3e 50 40 94 be 8e fd 1c bf
       0.42522362 0.14363118 -0.28955317 -0.61324394
000100 b4 97 e7 bd b8 9b 61 be 0e 41 0d be e2 05 80 3d
       -0.11308232 -0.22032058 -0.13794348 0.06251122
000110 f7 7d 86 be 64 9c ac 3e 11 ca 55 3e 3c 0a fd be
       -0.2626798 0.33713067 0.20877863 -0.4942187
000120 79 4a 42 be 75 c2 31 3e 2d 1a a2 3e 93 d4 f0 be
       -0.18973722 0.17359336 0.31660596 -0.4703718
000130 cb bf 85 be 21 d7 20 3f cf a8 30 be 6d b5 d8 be
       -0.2612289 0.6282826 -0.17251895 -0.42325917
000140 9a ff 6e be c4 48 f6 be a5 8d b7 be f1 f2 d1 be
       -0.23339692 -0.4810239 -0.35850254 -0.41005662
000150 3c f7 36 3e 97 59 e3 3c 81 4e 94 be 09 17 b7 3e
       0.1786775 0.02775268 -0.28966144 0.35759762
000160 c7 d9 53 3f 20 41 08 3e e1 79 ac 3c 59 e7 41 be
       0.82754177 0.13306093 0.02105421 -0.18935908
000170 ed e3 14 bf 5c 9a 38 bd 89 03 d3 3e 0e bb 14 bd
       -0.5816029 -0.045069084 0.41213635 -0.0363112
000180 74 6f b0 3e c8 43 9e be 23 fd 0e bf dd 30 9f be
       0.34460032 -0.30911088 -0.55855006 -0.31091967
000190 73 4e de bc 83 80 9a 3e d5 d2 a8 bd 3e 30 15 be
       -0.027137017 0.30176172 -0.08243338 -0.14569184
0001a0 e7 95 0c 3f a1 b9 c5 3e 56 a4 5b 3e 3e 93 fd 3e
       0.5491623 0.38618186 0.21449408 0.495264
0001b0 d3 df a1 3e 8a 0a 0c be 53 e4 16 be dc ce 97 3e
       0.31616077 -0.13675895 -0.14735536 0.2965001
0001c0 32 ee ba be 50 36 05 be 0a 5c 21 bf f1 cf 40 bf
       -0.36509854 -0.13009 -0.63031065 -0.75317293
0001d0 9c 71 d2 3e c6 73 c7 be 02 58 ae be 2d ae 69 bf
       0.41102302 -0.38955516 -0.3405152 -0.91281396
0001e0 1d 79 11 b9 f0 a8 58 3e 07 0c 23 be 44 09 8c 3e
       -0.00013873396 0.21158195 -0.15922557 0.2735082
0001f0 88 40 9c 3e 62 56 a3 be ff 4e 11 bf 9a 05 a9 be
       0.30517983 -0.31901842 -0.56761163 -0.33012086
000200 61 3f 9b 3d 7e f6 76 be ce b8 9e be 86 aa 2e bd
       0.07580448 -0.24117467 -0.3100037 -0.042643093
000210 53 a1 02 3e d5 86 1f bf 24 89 e8 bd 3f bd 8a be
       0.12756853 -0.6231511 -0.113542825 -0.27097508
000220 b0 6d 35 3d 62 b7 5f 3e 5f af a0 bb 16 15 ae 3c
       0.04429406 0.21847299 -0.0049037184 0.021250289
000230 09 87 85 3e 48 f5 16 3e 95 77 02 3f 75 e3 c8 3d
       0.26079586 0.14742005 0.5096372 0.09809009

block_neck3.block_neck.0.weight f4 [32, 1, 1, 1]
000000 ea b3 35 3f a9 5c 39 bf d0 7f 9c 3e d8 32 1e 3f
       0.7097765 -0.72407013 0.30566263 0.6179633
000010 65 a7 99 be fd 62 e8 3e 75 b4 13 bf 47 d8 a7 3e
       -0.30010524 0.45388022 -0.5769723 0.32782194
000020 61 42 1b bf ea 2e 5b bf af 0e 77 bf 78 dc 76 3f
       -0.6064816 -0.8561846 -0.9650678 0.9643016
000030 bd 9c b6 3e a1 21 ca 3e 98 f9 36 bf b3 a3 f4 3e
       0.35666457 0.39478782 -0.714746 0.47781143
000040 5d 52 96 3e b8 db 44 bf 66 fc 15 bf 1b d9 2b be
       0.29359713 -0.76897764 -0.58588254 -0.16782038
000050 df a5 9c be 13 e4 00 3f fe 45 6f 3f 30 8a 0f bf
       -0.305953 0.50348014 0.93466175 -0.5607023
000060 e3 43 dd be 9d fe 5f bf e8 3c 51 be 62 54 80 3e
       -0.43215856 -0.87497884 -0.2043339 0.2506438
000070 44 b8 03 3f 8a a5 77 3f 74 fd 45 3f 91 6c 4c 3f
       0.5145304 0.9673697 0.77339864 0.7985316

block_neck3.block_neck.1.weight f4 [32, 1, 3, 3]
000000 c0 e4 db be 71 47 9a be 33 d1 73 be 51 28 c1 3e
       -0.4294796 -0.3013263 -0.23810272 0.3772607
000010 50 5b 93 bd d8 75 d7 3e 9b ae 9b bd db 84 5e 3e
       -0.07195151 0.42082095 -0.07601663 0.21730368
000020 d9 f0 84 be 77 dd 09 3e 13 cf 03 3f 36 57 64 3e
       -0.25965002 0.13463388 0.51487845 0.22298893
000030 b1 75 64 3e 9e 0d 08 be 22 57 25 3e 24 d9 43 3a
       0.2231052 -0.13286445 0.1614652 0.0007471016
000040 89 14 24 bf b0 b9 ad be 9d c3 a6 be d6 09 cc be
       -0.64093834 -0.3393073 -0.32571116 -0.39851254
000050 8c a7 e7 be 52 16 c2 3e 6a 28 fa 3e ac 97 95 be
       -0.45245016 0.37907654 0.48858958 -0.2921728
000060 f4 b6 91 3e e0 68 63 3d be 84 76 3e 8c d5 29 bf
       0.28459895 0.05551994 0.24074075 -0.6634147
000070 1d a1 fd be 56 ef 0f bf 7c 97 9b 3d b8 f9 b6 3e
       -0.49536982 -0.5622457 0.07597253 0.35737395
000080 b1 c1 43 3d c4 d3 f1 3d 93 b8 4c 3f fc 00 be 3d
       0.04779214 0.11807969 0.7996914 0.092775315
000090 51 74 f6 3d 55 c7 f3 bd 28 e2 d3 3e cc 57 94 3e
       0.12033904 -0.11903254 0.4138348 0.28973234
0000a0 e5 c5 10 bf b5 2d fb be c7 8e 17 be 71 1d 4c 3e
       -0.56551963 -0.4905831 -0.14800559 0.19933106
0000b0 57 d9 33 3e d9 7f 4a be c5 2c 1b 3e aa d4 f3 bd
       0.17563377 -0.19775333 0.15153797 -0.11905797
0000c0 2a c7 93 3e 30 c9 c1 be d6 22 96 3e 2b f9 e8 3e
       0.28862888 -0.37848806 0.29323453 0.455026
0000d0 4d 26 40 bf 1b a2 99 3e 81 91 21 3e 3c e8 9b bd
       -0.7505844 0.3000649 0.15778162 -0.076126546
0000e0 ad a9 b3 3e 35 32 f8 be 84 52 ed be 44 47 14 3c
       0.3509039 -0.48475805 -0.46352017 0.009050194
0000f0 a0 d9 d8 3e 7c fd de 3e ea 20 c0 be de c1 28 3f
       0.42353535 0.43552768 -0.3752511 0.6592082
000100 52 36 16 3e 3c e6 89 be 13 47 04 3d a4 ef 2c bd
       0.14669159 -0.26933467 0.032294344 -0.042220727
000110 29 b0 ac 3e be 0d b7 3e 30 29 b0 be e1 a7 5e 3c
       0.3372815 0.35752672 -0.34406424 0.01358983
000120 4d 75 67 3e be d8 32 3f 0f 52 c8 bd 15 dd d0 bd
       0.2260334 0.6986197 -0.097812764 -0.10198418
000130 12 4b 1a bd 23 b2 57 be 08 51 9b 3e 81 ac a1 3e
       -0.03766925 -0.21064048 0.3033526 0.31576923
000140 a6 4b 61 3e 3d 10 15 3f dc 06 3f be d9 23 05 bf
       0.22001514 0.582279 -0.1865496 -0.52007824
000150 1e 46 df 3d 05 81 9e bb 6c 1e c5 3d 9a ab da be
       0.10902046 -0.0048371577 0.09624943 -0.42709047
000160 02 54 74 3e e2 99 fd 3d dd 86 05 3e 11 ef a7 3d
       0.23860171 0.123828664 0.13039728 0.08199895
000170 0f 6c 3c bb 78 b7 80 3d 17 c7 af be db 5a ec 3b
       -0.0028750931 0.06284994 -0.3433158 0.0072129793
000180 18 88 bf be b3 5b fa be 28 ae 16 3f 84 ca 61 3e
       -0.3740852 -0.48898086 0.5885949 0.2204991
000190 72 8a 41 bf 04 cf a2 be 9c 83 e6 bd 18 9f 61 be
       -0.75601876 -0.31798565 -0.11255571 -0.22033346
0001a0 8b 51 ad bd a2 26 f8 bd 48 f8 6b be b3 3d 90 3e
       -0.08462819 -0.121167436 -0.2304393 0.28172073
0001b0 9a 70 f1 3e a3 90 b1 3e ae 1f de 3e df 4a 46 be
       0.4715622 0.34680662 0.43383545 -0.19364499
0001c0 3c fc 2c be 6b de 9f be a1 87 f3 be 05 79 46 3e
       -0.16893095 -0.3122438 -0.47564414 0.19382103
0001d0 71 f2 ac be 84 d1 27 be 47 5c 92 3e 07 56 53 bd
       -0.33778718 -0.16388518 0.28586027 -0.051595714
0001e0 24 cc 8a bd 63 65 eb be 1f 70 ee bd 00 bb 53 bf
       -0.06777218 -0.4597579 -0.11642479 -0.82707214
0001f0 16 36 21 bf e1 7d 17 be 51 6c 00 bf b7 9d dd bc
       -0.62973154 -0.14794113 -0.5016528 -0.027052743
000200 93 12 a4 3e 2d f3 93 3e a0 b8 77 3d 35 24 af bd
       0.3204542 0.28896466 0.060478806 -0.08551828
000210 c6 cc e9 3e d6 72 c2 bd fc c7 a2 be ff ae 0c bf
       0.45664042 -0.094945595 -0.317932 -0.5495452
000220 c9 b0 a5 be c1 cf 62 3e 55 fb 84 bd 43 80 02 bf
       -0.3236144 0.22149564 -0.0649325 -0.5097696
000230 54 2e 3d 3e ba a9 45 bc 81 e5 be 3e b3 2d 2f 3e
       0.18474704 -0.012064392 0.37284473 0.17107277
000240 35 25 94 bb c2 4d 17 bf d5 34 aa be 8f 80 10 3f
       -0.004521037 -0.59103024 -0.33243433 0.56446165
000250 1e e6 f9 bd 78 09 09 3e 76 0b 0c 3c 8d 93 e8 3d
       -0.122020945 0.13382518 0.008547654 0.11356268
000260 41 39 f5 3e f2 c9 bc 3c c7 6c b5 be 8d b5 e3 be
       0.47895244 0.023045514 -0.35434553 -0.4447445
000270 d6 92 3c 3f 55 d0 9c 3e 1c aa 62 be b1 8a 09 3e
       0.73661554 0.30627695 -0.22135204 0.13431813
000280 7b c2 ff 3e 93 ad 8f bd 39 13 44 3e f6 19 f8 bb
       0.49953064 -0.070155285 0.19147958 -0.007571454
000290 b7 80 ab be a7 08 4f bd b5 89 3b 3d 2a e4 8b 3e
       -0.3349664 -0.05054536 0.045785625 0.27322513
0002a0 b6 d1 2d 3f e2 45 f6 be c8 f4 26 be 18 51 dd be
       0.6789812 -0.4810019 -0.16304314 -0.43225932
0002b0 92 ce f1 3d 68 e3 d8 3e da ab c1 be 68 73 16 bd
       0.11806978 0.42360997 -0.37826425 -0.036731154
0002c0 f5 9d 99 3e ac 1b 15 bd 9a f4 85 be c4 1c be 3e
       0.30003324 -0.036403343 -0.2616318 0.3713132
0002d0 a4 37 57 be 34 0e c2 be 22 32 3e 3e 87 6f 8b be
       -0.21017319 -0.3790146 0.18573812 -0.27233526
0002e0 df c9 0a 3f 96 25 11 3f 6d e9 05 bd c5 bf 69 3e
       0.5421428 0.56697977 -0.032693315 0.2282706
0002f0 3c 97 8d be 33 5f 5c 3e ae 22 cb 3e d2 59 4e 3e
       -0.27654445 0.2152069 0.39674896 0.20151451
000300 b3 4b 1c bd f4 10 62 3e 73 b2 1f bf 34 0b c2 3c
       -0.03815813 0.2207678 -0.62381667 0.023686983
000310 b5 c7 01 bf 5a b0 0b bf 14 1f 92 3e c3 f2 ab 3d
       -0.50695354 -0.54565966 0.28539336 0.083959125
000320 36 4a 29 3e 6c c2 06 3d a6 09 b6 bd 39 22 3c be
       0.16532215 0.03290026 -0.08888559 -0.1837243
000330 fa a8 98 be 35 ea 2c be 94 61 39 bf a0 cc 15 3e
       -0.2981642 -0.16886218 -0.7241452 0.1462884
000340 46 f6 f1 be bd f1 ac be c1 09 d1 3e 24 12 d7 3e
       -0.47258204 -0.33778182 0.40827754 0.42006028
000350 c9 a7 d7 3e cc fa ad be 35 24 ec 3d d1 ff 8b 3e
       0.42120197 -0.33980405 0.115303434 0.2734361
000360 6f 65 a4 be 98 0c ba be 80 f8 5b 3f cf 70 3d be
       -0.32108638 -0.36337733 0.85926056 -0.18500064
000370 d9 91 18 3e 4a a9 05 3f 08 38 71 3e 60 c4 c8 3d
       0.14899386 0.5221144 0.2355653 0.098030806
000380 47 cc ab be b3 db e9 be 4c 4a b9 be e1 83 93 bd
       -0.3355429 -0.4567543 -0.36189497 -0.07202888
000390 cf 6e e5 be c5 9c 02 3e 5d d9 84 3e 67 b3 10 3f
       -0.44811103 0.12755115 0.25947085 0.56523746
0003a0 27 90 94 3c 99 6d 83 be cc 25 df be 7d cf e5 3d
       0.018135143 -0.25669554 -0.43583524 0.11221216
0003b0 f7 f6 a0 3e e9 de 9e be 7f 19 6b be be 31 19 be
       0.3143842 -0.31029442 -0.22958945 -0.14960381
0003c0 53 90 ba bb 21 b0 c0 be d8 24 f7 3c f9 47 cc 3e
       -0.0056934743 -0.37634376 0.030168936 0.3989866
0003d0 40 31 b6 be b4 9c 3d be 49 2d 28 be 8f 38 74 be
       -0.3558445 -0.18516809 -0.16423525 -0.238497
0003e0 80 a2 9b 3e c3 9e aa 3e e2 48 bf 3c 8d c9 1c bf
       0.30397415 0.3332425 0.023350183 -0.6124504
0003f0 8b 1f 84 3e 46 20 d7 3e d9 5d c3 3e 37 fb 17 bf
       0.25805315 0.4201681 0.38157538 -0.593677

onnx::Conv_126 f4 [3, 1, 3, 3]
000000 d4 8e 46 3e e1 f6 13 3f b4 7e 6b 3f 14 12 ea 3e
       0.19390422 0.5779858 0.9199021 0.45716918
000010 12 b5 84 3c 9e ff 3f 3b 77 42 1e bd 92 5a bf be
       0.016199622 0.0029296647 -0.038637605 -0.37373787
000020 42 8b 6a bf 5a ec 8a bd a0 fa 8b 3f 29 79 de 3e
       -0.9161874 -0.06783362 1.093586 0.43451813
000030 4e 9c 51 3e 22 b5 92 3f a8 05 00 bf 05 13 b2 3e
       0.20469782 1.1461527 -0.5000863 0.34780136
000040 9c c6 81 3f 41 c2 25 bf c8 38 d0 3e cc d1 0e 3e
       1.0138736 -0.6474953 0.4066832 0.13947219
000050 7a 50 75 bd 14 2b ef 3e 82 85 2d 3e 0e f7 b8 3d
       -0.0598912 0.46712554 0.1694546 0.09031497
000060 3b bf a3 bc 93 3f 08 3f 08 37 1d 3f
       -0.019988647 0.53222007 0.61412096

onnx::Conv_127 f4 [3]
000000 5b 8f 10 be 50 57 90 bf d8 1a bf be
       -0.14117186 -1.1276646 -0.37325168

onnx::Conv_129 f4 [16, 3, 1, 1]
000000 6f 20 6b c0 07 63 da be bd 30 a1 bf e9 e4 a3 3f
       -3.6738546 -0.42653677 -1.2592999 1.2804233
000010 53 df 7e 40 04 12 ac 3f da 21 f3 bf bf fb 52 c0
       3.9823806 1.3442998 -1.8994706 -3.2966154
000020 5c 3b 0a bf 49 ce 57 c0 31 c9 1e c0 64 1a d0 bf
       -0.53996825 -3.3719656 -2.4810297 -1.6258054
000030 b0 45 de bf 18 a1 44 40 e9 74 bb 3f a1 96 7b 3f
       -1.7365017 3.0723324 1.4645053 0.98276716
000040 f4 08 65 bc 5c 3c 4c bd f1 1f dc 3e f6 14 00 c0
       -0.013979185 -0.04986225 0.4299312 -2.0012794
000050 52 c5 60 c0 a5 62 43 bf 1b 4c a7 3f 2f 99 38 40
       -3.5120435 -0.76322395 1.30701 2.8843496
000060 8d b1 80 be 0e 5d 60 3f 7a 12 98 bf a4 b5 7b be
       -0.2513546 0.8764199 -1.1880639 -0.24581009
000070 c4 49 76 40 b2 0f 27 40 7a dd df 3f 0f a2 87 3f
       3.8482523 2.610333 1.7489464 1.0596331
000080 b0 a9 33 40 71 44 4e 3f 14 d4 b9 bf ac 30 b4 3f
       2.807232 0.80573183 -1.4517846 1.4077353
000090 cf c5 19 bd fa a5 44 bf 17 b7 91 bf 73 97 81 c0
       -0.03754216 -0.7681576 -1.1384 -4.0497375
0000a0 9d 94 8b 40 32 6f 44 be 3f a1 4b 3f dd 3e 59 be
       4.3618913 -0.19183043 0.79542917 -0.21215387
0000b0 d0 e3 d5 3f 3b d6 64 be d0 3c 47 bf f1 55 e8 bf
       1.6710148 -0.22347347 -0.7782717 -1.8151227

onnx::Conv_130 f4 [16]
000000 02 c2 fe be 32 2d 0c 3f 26 37 31 bf d6 6b 55 bf
       -0.4975739 0.5475646 -0.69224775 -0.8336767
000010 7e ad 4a bf 88 2e d1 bd 3c d3 b4 3f c6 6e 9d bf
       -0.7917098 -0.10213953 1.4126964 -1.229943
000020 50 08 95 3f d0 40 7b bf 40 5a f6 bd 0b 03 ea be
       1.1643162 -0.9814577 -0.120289326 -0.45705447
000030 18 88 7e bd d5 23 c7 be 7a 9c c9 be 9e 10 32 3f
       -0.062141508 -0.38894525 -0.39377195 0.69556606

onnx::Conv_132 f4 [16, 3, 1, 1]
000000 d6 a8 26 be 54 bb 47 bf 62 56 e5 bd af 9b 42 b9
       -0.16275343 -0.78020215 -0.11198117 -0.00018559278
000010 19 73 f4 3f ad 12 b1 bf 31 43 87 3e 14 4a 50 3f
       1.9097625 -1.3833824 0.2641845 0.81363034
000020 71 78 51 3e ae dc 76 bf 79 a0 d8 3e 31 7e 2a 3f
       0.20456101 -0.9643048 0.4230993 0.665988
000030 d7 57 25 3f 36 cd 5e bf 84 27 eb 3f 04 51 4a 3f
       0.6458716 -0.8703188 1.8371434 0.7902987
000040 da 2f 41 3f d6 7a 93 bf 5a 26 1c be 9d a3 de be
       0.7546364 -1.1521862 -0.15249005 -0.43484202
000050 3e af 9f bf ca 27 c1 3e ec d8 b8 3e 15 06 2e 3f
       -1.2475355 0.3772567 0.36102998 0.6797803
000060 0d 6d 59 be fe 10 b5 bf ac 5a 13 bf a1 4e ca 3e
       -0.21233006 -1.4145811 -0.5756023 0.39513114
000070 28 49 15 bf 3a e4 53 bf 23 eb 85 3e 57 13 a1 be
       -0.5831475 -0.8277012 0.26155958 -0.31460068
000080 07 84 a1 3f 0b b2 37 3f 62 cc bf 3e ab 5d d4 3e
       1.2618417 0.71756047 0.3746062 0.41477713
000090 d6 8a b7 bf 90 44 de 3f 6c 72 2d be a4 32 ab bf
       -1.4339244 1.7364674 -0.1693818 -1.3374829
0000a0 13 b3 9e be 06 6b 33 3b 1b d4 f4 bf 56 9e 99 3f
       -0.30995998 0.0027377023 -1.912723 1.2001445
0000b0 24 e2 24 3f 3e cd d6 3f 0d e5 7b 3c 3a e9 40 be
       0.64407563 1.6781385 0.015374434 -0.18838969

onnx::Conv_133 f4 [16]
000000 9f a4 ce 3e 5f 41 18 bf 1a 27 39 bf cc 8e 49 be
       0.4035997 -0.5947475 -0.7232529 -0.19683379
000010 76 30 5b bf b5 38 38 be 46 ab 8a 3f 33 3a c0 be
       -0.8562082 -0.17990382 1.0833519 -0.37544402
000020 e0 ef dd 3f 09 f8 d4 3e b4 e1 58 bf ca 24 56 bf
       1.7338829 0.41595486 -0.84719396 -0.83649886
000030 99 aa 60 be 30 e2 28 3f 16 9a 03 be 42 a2 e9 be
       -0.21940078 0.65970135 -0.12851748 -0.45631605

onnx::Conv_135 f4 [32, 16, 1, 1]
000000 f0 4c b6 3d 36 e2 5f 3e 51 12 5f be fd d6 cd be
       0.089013934 0.21863636 -0.21784331 -0.40203086
000010 2c 47 97 3d ad 3a 93 be 98 59 7f 3e b2 bd 0b be
       0.07386622 -0.28755704 0.24936521 -0.13646582
000020 f5 a1 c9 bd c6 40 95 bb 88 1a 4e be 26 2a 5c 3d
       -0.09845344 -0.0045548407 -0.20127308 0.053751133
000030 85 d0 09 3e e7 42 76 3c b1 d7 ab 3c 8a c7 63 be
       0.1345845 0.015030599 0.020976873 -0.22244087
000040 55 78 7a 3e 33 ad ce 3e 01 ce b9 be 0e f5 18 be
       0.24459966 0.40366516 -0.3628998 -0.14937231
000050 9c 0e 1d 3b 9b 63 a8 be 03 e5 1d 3f 39 5b d9 3e
       0.0023965007 -0.32888493 0.6167757 0.4245241
000060 98 ff 14 3e 49 30 6b be 97 14 5f 3e aa 24 12 3d
       0.14550626 -0.22967638 0.21785198 0.035679497
000070 d1 a5 4a bd 33 ec 08 3d d3 28 c4 bd e1 14 20 3e
       -0.04947454 0.033428382 -0.09578099 0.15632965
000080 e2 7b 78 3e a4 f4 a6 bd 5d aa b6 bd 6e 84 6c 3e
       0.24266008 -0.0815213 -0.08919213 0.23097393
000090 e1 14 cd 3e 13 8b 68 3e 65 f0 ba bd 20 c8 19 be
       0.40054992 0.22709303 -0.09127883 -0.15017748
0000a0 ac 37 80 3e 98 3a 1f 3e da 4d 86 be 58 56 0f be
       0.25042474 0.15549695 -0.2623127 -0.13997781
0000b0 ea b8 0e bf 42 b5 55 bc 5d c0 17 3f 32 e5 c6 bd
       -0.55750906 -0.0130437035 0.592779 -0.09711684
0000c0 70 18 94 3e d5 26 15 3e f7 f0 b4 bd 02 05 3e bd
       0.28924894 0.14565594 -0.08835023 -0.046391495
0000d0 3d d1 9a 3d 10 3a ab 3d 70 ba 03 bf 61 d8 a6 bd
       0.0755944 0.08360684 -0.51456356 -0.0814674
0000e0 f4 d7 49 bb f1 94 81 bd 22 42 ec 3d b3 24 05 bf
       -0.0030798884 -0.063272364 0.11536051 -0.52009124
0000f0 7a e4 df 3c 65 e0 9e bc 61 c4 35 be 4f 2a 7f bd
       0.027330626 -0.019394109 -0.17750694 -0.062296208
000100 56 98 3a 3e d3 7e 1e 3e 8d a9 ba be 71 d9 97 bd
       0.18222174 0.15478067 -0.36457482 -0.074145205
000110 1c 82 09 bd 8f e8 af be 52 fb d5 3e da dc 59 3e
       -0.033571348 -0.34357116 0.41793305 0.21275654
000120 ce 43 9d 3e 3c c4 37 be 48 56 9f bd c2 ab d2 3d
       0.30715793 -0.17945951 -0.07780129 0.102866665
000130 16 62 68 3d 18 f9 a3 3e 1d db 7c bd fd f0 3f be
       0.056734167 0.3202598 -0.0617324 -0.18744273
000140 b3 21 7e 3e 5f 3b 5d 3d 09 57 15 be 7a 9e 01 3f
       0.24817543 0.0540117 -0.14583983 0.5063244
000150 63 19 8d 3e d9 22 63 be 9e 02 25 be 24 47 15 3c
       0.2755843 -0.22181262 -0.1611428 0.0091111995
000160 8b 85 20 be 09 82 82 3e 4e 66 37 be fc 89 45 3e
       -0.15675943 0.25489834 -0.1791012 0.19290918
000170 30 36 2d bf bb cc 0b 3d 3f e4 17 3f 96 cd dd bd
       -0.6766081 0.034130793 0.5933265 -0.10830228
000180 96 6d a8 be 28 e6 8f bc b4 98 42 be c4 0f a5 be
       -0.32896107 -0.017565802 -0.19003564 -0.3223859
000190 63 1e db 3c df 42 a2 be 4a a7 e6 3e 19 0b 40 be
       0.026747888 -0.31691644 0.45049506 -0.18754233
0001a0 b2 e5 76 be 35 92 a5 bd b6 07 30 be ce 5a ad bc
       -0.2411106 -0.080845274 -0.17190441 -0.021161463
0001b0 61 43 0d 3e 64 7b 76 3d 24 f3 df bc 3d 75 10 3e
       0.13795234 0.06017627 -0.027337618 0.14107223
0001c0 c5 ba 50 3e 7e 6d e5 3d fd 8c 33 3d e6 e5 c4 be
       0.20383747 0.112025246 0.04383563 -0.3845665
0001d0 6f 5c 00 3e 4e 9c 02 bd 84 6d 7e 3c d1 f1 d5 bd
       0.1253526 -0.031887345 0.01552904 -0.104465134
0001e0 a7 e6 06 3d b9 20 c3 3e 4c 08 39 be 11 f6 c7 3e
       0.03293481 0.38110903 -0.18069571 0.3905492
0001f0 54 6c b8 3c 7e fb 83 3e 9a 46 ef 3d f1 3f 0f be
       0.022512592 0.2577781 0.11683388 -0.13989235
000200 cc fa 36 3e af 8a 3f be 1c f4 27 3b 1a cc f9 3d
       0.17869109 -0.18705247 0.0025627678 0.121971324
000210 c9 28 0c 3e 64 9a 26 3d f7 06 a2 be 20 e0 45 3d
       0.13687433 0.040674582 -0.3164594 0.048309445
000220 5a e7 92 3e 92 0e 73 be 88 db b2 3e f6 e1 8e bd
       0.28692132 -0.23736027 0.34933114 -0.069766924
000230 66 7d 10 be ca 7d 7e 3e 76 19 00 3e 99 67 83 bd
       -0.14110336 0.24852672 0.12509713 -0.06416244
000240 75 4d 38 3e b9 fd 89 3d 81 9b bf be 02 b7 01 be
       0.17998298 0.06737847 -0.37423328 -0.12667468
000250 b1 e4 82 be 63 4f 53 be 1c ba 0c 3f 6f 6a db 3d
       -0.25565103 -0.20635752 0.5497148 0.1071366
000260 35 a4 71 3c 8c 67 fb bc 6b 9c d7 bd 71 b2 31 3e
       0.014748623 -0.030689023 -0.10527881 0.17353226
000270 e3 db 25 3e 31 cd 3b 3e 21 90 81 bd f8 ef df bb
       0.16197161 0.18339993 -0.063263185 -0.0068340264
000280 e2 79 74 be 25 4c d4 3e f1 29 b5 3e 21 dc 87 3e
       -0.2387462 0.41464344 0.3538356 0.26535133
000290 3a 00 a8 3a 30 5b 7c be a0 6b 8b be e7 c0 c0 3d
       0.001281745 -0.2464416 -0.2723055 0.09411793
0002a0 a3 60 a8 be b1 18 4c be 42 14 86 3d 0c 42 c3 3d
       -0.32886228 -0.19931294 0.065468326 0.09534082
0002b0 d1 e7 22 3e 0d 40 3d 3e 42 c5 80 be f7 ff 0a bc
       0.15908743 0.18481465 -0.25150496 -0.008483878
0002c0 03 1b 06 be 82 d3 3e be ce 17 89 bd a4 aa 58 bb
       -0.13096242 -0.18635371 -0.066939935 -0.0033060694
0002d0 2a 1e 80 3e dd 68 47 be f1 7e 3a 3c 3d 73 0b 3e
       0.25023013 -0.19473596 0.011382804 0.13618179
0002e0 47 71 b7 be b7 ca 1a 3f 88 87 5c be 37 ac c3 ba
       -0.3582861 0.6046557 -0.21536076 -0.0014928643
0002f0 c1 46 97 be ab fc 1b 3f 1a c0 c0 be 53 a6 e1 3e
       -0.29546168 0.60932416 -0.37646562 0.44072208
000300 bf e2 76 bd 0e 49 81 be bd 65 b1 3d 77 fe 3d 39
       -0.060274836 -0.2525105 0.08661983 0.0001811924
000310 2b 8c ea 3d d7 86 35 be be 49 67 3e ae 41 fa 3d
       0.11452516 -0.17727219 0.22586724 0.12219559
000320 18 44 49 be 05 0c 70 be a5 77 d4 3b e7 0f a3 be
       -0.19654882 -0.23442085 0.0064839893 -0.3184807
000330 b5 06 24 3e 1f d0 99 bd 0d 81 8e be 59 e3 9e 3d
       0.16018184 -0.07510399 -0.27832833 0.07758207
000340 e8 3b 25 3e d0 39 a0 be 57 c1 94 3c 6e f5 95 bc
       0.16136134 -0.31294107 0.018158598 -0.018305507
000350 ca ea 97 be 9f 80 1f 3e fb a4 a0 3d 85 b9 f5 be
       -0.29671317 0.15576409 0.078439675 -0.47993103
000360 d4 f8 2e bf 11 ff 69 be 00 70 ba be cf 6b 98 3c
       -0.6834843 -0.22851206 -0.36413574 0.018606095
000370 a9 2a 43 3e b3 f1 2e 3d 48 4e 43 3d fd 29 97 bd
       0.19059242 0.04271097 0.047682077 -0.073810555
000380 8b bf bb be e9 de b7 3d 98 fa d7 3d d0 05 4d 3e
       -0.36669573 0.089780636 0.10545844 0.20021749
000390 f0 19 85 bd 59 fd 4e ba a3 04 c0 3d 6c 18 f8 3d
       -0.06499088 -0.0007896028 0.093758844 0.12114033
0003a0 9b ca 67 be 78 52 c9 3e c3 d3 d2 bd 44 c5 b0 3e
       -0.22635882 0.3932073 -0.102942966 0.34525502
0003b0 95 4c d4 be 0a fe a1 bd bc a4 8d bd 82 4b 13 3e
       -0.41464677 -0.07909782 -0.06916186 0.14384273
0003c0 fe 26 f1 bd fc fb 0d bf 48 f9 c4 bd ce 1a 40 be
       -0.11775015 -0.5546262 -0.09617859 -0.18760225
0003d0 4e b2 34 bf b0 4f 82 bd 60 87 a9 bb aa e1 6c bc
       -0.7058457 -0.063628554 -0.0051736087 -0.014458099
0003e0 b0 62 13 3f 2d 9b 86 be 00 a6 8f 3e ae 3d 84 3e
       0.5757246 -0.26290265 0.28056335 0.25828308
0003f0 be 1e 35 be c6 1b e3 3e c2 b8 12 3e c9 67 8e be
       -0.17687508 0.44357127 0.14328292 -0.27813557

onnx::Conv_136 f4 [32]
000000 f5 ad a0 be 4e de 29 3f 3f a7 d4 bd 64 a5 77 3e
       -0.3138272 0.66354835 -0.10383462 0.24184185
000010 7c bd 61 3e a2 95 23 bf 28 b2 90 bd bb 69 94 bf
       0.22044939 -0.63900197 -0.070652306 -1.1594766
000020 9e 45 ec 3e 02 75 b2 3e fd 3f ae bf eb 0d 20 bf
       0.46146864 0.34854895 -1.3613278 -0.6252124
000030 f8 aa e8 3f 53 48 1a bf 69 88 c8 be 18 59 aa 3e
       1.8177176 -0.6026661 -0.39166573 0.33271098
000040 41 a5 be bf 54 f6 9a bf 46 77 48 bf 7e c4 17 be
       -1.4894181 -1.2106423 -0.78306997 -0.1482105
000050 6d 3d df bf d7 a5 7b be 64 77 5c be 5b d0 ac bf
       -1.7440621 -0.24574982 -0.21529919 -1.3501085
000060 db b6 46 3e a2 3c 4f be 2d 45 a9 be 53 10 5e 3f
       0.19405691 -0.20237973 -0.3306059 0.8674366
000070 d6 84 80 bf 93 da ad bf 66 1e 11 bf d5 28 08 3f
       -1.0040538 -1.3582329 -0.5668701 0.53187305

onnx::Conv_138 f4 [32, 16, 1, 1]
000000 19 71 68 bd f7 fd c1 bd 5a 5e aa bd 8b 87 dc bc
       -0.056748483 -0.09472268 -0.083187774 -0.0269201
000010 3e cf 3b 3c a6 72 1e be 3e 0d 4b 3c b8 2c 0a bd
       0.011462985 -0.15473422 0.012393294 -0.033734053
000020 61 32 3a 3d 4b 62 49 bd 4c 2e dc 3c f4 89 8b bc
       0.0454582 -0.049166005 0.026877545 -0.017033555
000030 47 c6 26 bc 0e 9a 0f bd 67 96 0b bd ac f7 ac 39
       -0.010179109 -0.035059027 -0.03407898 0.00032990926
000040 ed 14 2d 3c a1 ab 90 3d f9 75 36 3d 6a ba 55 bc
       0.010564071 0.070639856 0.0445461 -0.013044933
000050 d9 5d 5a bd e1 55 80 3d 66 0c ab bc 81 c4 66 bd
       -0.053312156 0.0626638 -0.020879935 -0.056339744
000060 b5 32 2c bd 25 65 c6 bd e5 14 e8 bd 59 b1 00 bb
       -0.042040545 -0.096872605 -0.1133211 -0.0019636957
000070 81 c4 0c 3c b0 14 ef bc d5 41 b7 bd 27 90 64 3d
       0.008591772 -0.02918467 -0.08948103 0.055801537
000080 26 4e 0e bd 4f 91 0c 3d 91 e7 53 3e c7 cc 1d 3e
       -0.034742497 0.034318265 0.20693804 0.15410148
000090 22 10 5c bd 35 ad 6e bc 96 8b 08 3e c6 a0 b8 3d
       -0.053726323 -0.014567663 0.13334498 0.0901504
0000a0 df 0e 53 3e 09 db 31 bc 49 80 b5 bc fa 8a 84 3c
       0.20611142 -0.010855445 -0.022155898 0.01617955
0000b0 12 8b c3 3e 7b 7b 67 bd 9a c5 3f 3e e6 ec 8d bd
       0.3819204 -0.056514245 0.18727723 -0.069299504
0000c0 97 6f c7 bd 60 ce 91 3d ad cb 36 be df 45 ea bd
       -0.09738081 0.07119441 -0.17851134 -0.11439108
0000d0 cf fd 1d be ef e9 93 3e ad 85 3a 3e 60 1a 1a be
       -0.15428852 0.28889415 0.18215056 -0.15049124
0000e0 09 4d 88 3d cf c7 d2 3c e5 38 c2 bd f3 c8 7a bd
       0.06655318 0.025730042 -0.09483508 -0.061226796
0000f0 13 8a 4b 3d a8 4f 00 be 37 3f 45 bd 5b 9b 1c 3e
       0.049692225 -0.12530386 -0.04815599 0.15293638
000100 c4 56 67 3d c5 89 19 3e 63 9e 8c 3e 54 07 eb 3d
       0.05647923 0.14993961 0.2746459 0.11476007
000110 b4 48 6b bd 1d 77 a1 3d 1e 93 2a be d0 4d 96 bc
       -0.057442382 0.07884047 -0.16657683 -0.01834765
000120 37 a8 b1 bd 84 ef 10 be 8b 5f 84 bd 3b 96 5c bc
       -0.086746626 -0.14153868 -0.06463536 -0.013463552
000130 fc 93 94 bd b0 fa e6 3d 46 93 89 bd 02 86 93 3d
       -0.07254788 0.112782836 -0.06717543 0.07203294
000140 12 1c 79 bc a9 b3 95 3d 47 c9 36 3e 75 c0 b7 bc
       -0.015204446 0.07309658 0.17850219 -0.022430638
000150 72 ea c9 bd 46 95 92 3d 15 54 7b bd 5b 5c d3 3d
       -0.0985917 0.07157378 -0.061359484 0.1032035
000160 f5 cb e8 3b 54 f3 63 bc 00 1b 09 3b a1 96 de b9
       0.0071043917 -0.013912994 0.0020920634 -0.00042455367
000170 f6 38 63 3e df c4 17 be ce b9 06 3e 5b 02 69 bd
       0.22189698 -0.14821194 0.13156816 -0.056887012
000180 c5 a3 5d 3e 92 1d 2f bd 0f 32 01 3e b1 e2 39 3e
       0.21644504 -0.04275281 0.12616752 0.18152882
000190 2e a9 4f 3e d1 a4 3e be 85 ed 61 be 74 e6 12 bd
       0.2027938 -0.1861756 -0.22063263 -0.03586431
0001a0 c3 57 5d 3d 37 02 8f 3d ab 84 39 bd d6 df 24 be
       0.054038774 0.06982844 -0.045292538 -0.16101012
0001b0 41 ab d1 bd 36 93 be 3e 83 37 a2 3d 4d 5b 31 bd
       -0.10237742 0.37221688 0.07920744 -0.04329996
0001c0 98 28 32 3c a6 b6 66 3d 23 50 b7 3c 86 87 75 bd
       0.010873936 0.05632653 0.02237708 -0.0599437
0001d0 5d 86 fe bc 2b 84 e1 bb 0b 1a d7 bd 99 16 84 3d
       -0.031069929 -0.0068822107 -0.10503014 0.06449623
0001e0 76 04 22 be 26 36 86 bd e1 63 47 3e 3d af 5d 3e
       -0.15822014 -0.06553297 0.19471695 0.2164888
0001f0 23 ba 33 3d a8 79 35 3c e9 11 83 bc b8 9c 5d bc
       0.043878686 0.011076368 -0.015999751 -0.013526134
000200 37 f9 0b bd 04 c6 27 3e 06 c3 3d be 4e 4b a2 bd
       -0.034173217 0.1638413 -0.18531427 -0.079245195
000210 72 6b ba 3d 60 48 0f bd c6 60 e1 3e ba 81 8e 3e
       0.09102525 -0.03498113 0.44019145 0.2783335
000220 15 e6 0d 3e fa 92 cf 3e 83 a9 b6 3e fd 68 5c 3e
       0.138573 0.40541822 0.35676202 0.21524425
000230 3b 57 8e bb 53 f1 9c 3d 06 c1 ba 3d 73 d8 9c 3c
       -0.004343895 0.076632164 0.091188475 0.01914618
000240 42 a4 75 bc 70 b8 14 bd 78 0f 02 3c fb 02 75 3c
       -0.014992775 -0.036308706 0.007938258 0.014954324
000250 26 21 6b bd 00 70 26 bd f3 cf 51 be d7 a6 57 3c
       -0.05740466 -0.040634155 -0.20489483 0.013162336
000260 a8 ff 68 be c0 9d 63 bd 7b 49 a9 3d b2 97 9b 3d
       -0.22753775 -0.055570364 0.082659684 0.07597293
000270 5f 04 de bc b6 aa b9 3a ad d0 bc 3d 88 80 9f bd
       -0.027101694 0.0014165256 0.09219489 -0.07788187
000280 86 47 4a bc c3 a8 85 3d e1 4f 63 bc 00 f0 59 bd
       -0.012346154 0.06526329 -0.013874025 -0.053207397
000290 78 55 9b 3c 81 df 83 3d bd 92 82 3c 84 4d f7 bb
       0.018961653 0.06439114 0.01593911 -0.0075470824
0002a0 4b d1 b7 3c bc 93 36 3d 7d 4a 92 3d 69 1c e0 3b
       0.022438666 0.044574484 0.07143114 0.0068393243
0002b0 52 24 a0 bd cd e9 ea 3c 8b d4 30 be fd a0 b9 bc
       -0.078194275 0.028675938 -0.17268579 -0.022659773
0002c0 b2 e3 6b 3e 75 f9 81 be 8a cd 04 3c df 16 08 3d
       0.23036078 -0.25385633 0.008105645 0.033224937
0002d0 ab 5a 4f 3c fc d5 d7 3d d2 e3 09 be 38 6a 0b bd
       0.012655894 0.10538861 -0.13465813 -0.034036845
0002e0 0e 33 4b 3e b3 03 eb 3e 85 c6 02 3c 06 c5 09 3d
       0.19843695 0.4590126 0.007981901 0.03363516
0002f0 df 4a 51 3d a0 45 6f 3e 9a 10 d4 bc 70 16 ef 3a
       0.051096793 0.23366404 -0.025886822 0.001824094
000300 b0 25 47 3e 8a d7 8d 3d f6 68 e4 bc d0 43 8e 3d
       0.1944797 0.069258764 -0.02788208 0.06946528
000310 55 2c 61 3d 06 ac b5 3d 7a 8a cc bd b4 29 ef bd
       0.05497392 0.088707015 -0.0998735 -0.11677876
000320 42 2e d0 3d 04 b8 f5 3c f6 f9 85 bd 5d 6f 0d 3d
       0.10165073 0.029994972 -0.06541817 0.034530032
000330 50 a3 e2 bd e5 11 ba 3e 9f 55 d8 bd 71 f9 3f 3e
       -0.11066306 0.36341777 -0.10563206 0.18747498
000340 e3 18 31 bd 97 7a 94 be cd 99 39 be b3 87 bb 3a
       -0.043236624 -0.2899978 -0.18125077 0.0014307409
000350 86 dd c8 3d 89 03 cc bc 7e fc 0c bc ba 31 7e 3e
       0.09807877 -0.02490403 -0.008605121 0.24823657
000360 fc bd e5 bd 72 fa 8b 3e 21 f0 a8 3d a0 84 66 3e
       -0.11217877 0.27339512 0.08248926 0.2251153
000370 ea 8b 69 be 79 df 8a 3e d2 d6 36 3e 33 c3 bf 3d
       -0.22807279 0.2712362 0.17855385 0.09363403
000380 88 a4 83 bd f8 ec 27 bd 93 a0 16 3e 12 30 a4 3d
       -0.06427866 -0.040997475 0.14709692 0.08016981
000390 e9 4f ac bc 3e 16 68 3d dd b2 24 be ba fd 03 3d
       -0.021034198 0.056661837 -0.16083856 0.032224394
0003a0 cd 13 9e be ec 02 51 bd d0 65 e6 bd 18 93 f5 3d
       -0.30874482 -0.051028177 -0.11249888 0.119909465
0003b0 55 f7 98 3c 99 80 a9 ba 06 be 86 bc 80 f1 c5 bc
       0.018672625 -0.0012932002 -0.016448032 -0.024163008
0003c0 38 0a 23 bd c4 ab a3 be d8 de 1f be 38 c5 7c 3e
       -0.039804667 -0.31966984 -0.15612352 0.24684608
0003d0 e3 97 c9 3e ae f1 32 bd de c4 a6 be 41 9b e6 3c
       0.39373693 -0.043687515 -0.32572073 0.028150203
0003e0 08 a4 b7 3c a2 b4 21 3e be 6a b8 3d 11 94 82 be
       0.022417083 0.15791562 0.090047345 -0.2550359
0003f0 5a f3 56 be b9 6a 56 3e 98 e8 40 bd 58 3a 02 be
       -0.20991269 0.20939149 -0.04709682 -0.12717569

onnx::Conv_139 f4 [32]
000000 24 5a a2 3e 0b f9 44 3f 79 5f 77 bf 67 24 57 3f
       0.31709397 0.7694251 -0.96630055 0.8403992
000010 4b b1 92 be bd 60 d2 3e 66 ae 5b bf 30 b6 34 3e
       -0.2865089 0.4108943 -0.85812986 0.17647624
000020 17 16 2d c0 0c 5e a4 3f 83 01 b3 3e 3d 9d 90 bf
       -2.7044733 1.2841201 0.3496209 -1.1297985
000030 69 12 3d bf ad 89 70 bf 2b f6 6f 3f d8 8c ec 3e
       -0.73856217 -0.93960077 0.93735 0.46201205
000040 ec 1a e2 3d e0 15 17 40 d0 24 8c 3e 58 d5 31 3d
       0.11040291 2.3607101 0.27371836 0.04341635
000050 80 62 f6 ba 4d ef 82 bf b1 11 ef 3f ed 91 a3 3f
       -0.0018797666 -1.0229279 1.8677274 1.2778908
000060 de d9 51 bf 0c 41 13 bf 80 24 5d 3d ae cc b2 bf
       -0.81973064 -0.5752113 0.053989887 -1.3968713
000070 2c 25 93 be 36 a6 cf 3e 45 55 c4 be b8 09 80 3d
       -0.28739297 0.40556496 -0.38346305 0.06251854

onnx::Conv_141 f4 [64, 32, 1, 1]
000000 a9 d1 5b bd d7 66 b3 bd c1 e4 91 3d 58 59 03 3e
       -0.053666744 -0.087598495 0.071237095 0.1282705
000010 cc 60 15 3e e1 5a 0a be 9a 6c ca 3d a3 7a 24 3e
       0.14587706 -0.1351123 0.09883995 0.16062407
000020 21 57 32 3e 55 59 21 be 85 34 9d 3d db dd ae 38
       0.1741605 -0.15756734 0.07676033 8.33829e-05
000030 f4 a6 e0 3c ba a1 c3 3d 7b 4e a7 3d 3e 63 18 be
       0.02742336 0.09552331 0.08169266 -0.14881608
000040 12 8c 64 3c f5 ce 22 3e 08 a2 43 3d 43 f8 33 be
       0.013949411 0.1589926 0.047761947 -0.17575173
000050 41 a6 10 bd 5e 5e 09 3e 82 9e 66 3e 31 86 10 bd
       -0.035314802 0.13414904 0.22521403 -0.035284225
000060 b8 73 2d 3e 40 ab b4 bc 10 24 a9 bc a7 9e c6 bd
       0.16938674 -0.022054315 -0.020647079 -0.09698229
000070 72 06 ba 3e 14 94 fc bd 0e 75 9f 3d 01 fb d4 bc
       0.36333042 -0.12332931 0.07785998 -0.025998594
000080 0e f0 03 3e 61 a8 ce 3d 18 d9 24 bd 9a 4d a0 be
       0.12884542 0.100907095 -0.0402461 -0.31309205
000090 bd 27 32 bd e2 6e 78 3d 6f 29 10 bd db d9 99 be
       -0.04349493 0.06065262 -0.035195764 -0.30049023
0000a0 c0 db 21 3e 95 b8 15 3e d0 7f 5c 3d 33 4a 13 be
       0.15806484 0.14621194 0.05383283 -0.14383774
0000b0 b3 32 d9 3d f1 34 93 3c 47 aa d8 bd cb fd 0b 3e
       0.10605373 0.01796958 -0.10579353 0.13671033
0000c0 fd e6 d9 bd 3c 55 2a 3e 21 db fb 3d ac b7 c3 3c
       -0.10639761 0.16634077 0.12297655 0.023891293
0000d0 42 4c f5 bd c0 18 22 3e f5 25 68 be 72 04 d5 bd
       -0.11977436 0.15829754 -0.2267073 -0.104012385
0000e0 68 eb aa be 20 16 b0 3b cf e8 38 3e cb 09 ec 3d
       -0.33382726 0.0053737313 0.1805756 0.11525305
0000f0 f3 df 88 bc ef 33 10 3d 70 6c 6a 3d 02 b2 a0 bc
       -0.01670835 0.035205778 0.05723232 -0.01961613
000100 0d 69 34 bd cf 15 3a bd d4 31 6b 3b 37 5c 82 3e
       -0.044045497 -0.045430955 0.0035887854 0.2546098
000110 d8 a6 a2 bd af b5 93 3d 35 f6 98 3d 18 8c 13 bd
       -0.07941979 0.07212388 0.07468835 -0.036022276
000120 67 c5 b2 bd 12 d9 82 3e d4 d4 0d bd aa 79 9c bd
       -0.08729058 0.25556237 -0.034626797 -0.07640393
000130 8a 10 b8 bd f3 43 b0 3e 85 34 21 3d 2e 49 db 3d
       -0.089875296 0.3442684 0.039356727 0.10707317
000140 a2 bb 4c be a9 8e 95 3d b7 8a 28 bd 52 eb 87 bd
       -0.19993451 0.07302601 -0.041147914 -0.06636681
000150 bf bc eb 3d 2c b1 be 3d 0c 1e 63 3e 64 a9 47 bd
       0.1151061 0.093111366 0.2217943 -0.048745528
000160 58 ad d9 bb eb da 1e bc 6d 42 40 3d 5f 3f 2b 3c
       -0.0066429786 -0.009695749 0.04693835 0.010452121
000170 54 26 60 bb 45 f6 94 3d 6e e9 0d 3e e5 95 7e bd
       -0.0034202533 0.07273535 0.13858578 -0.06215467
000180 0b 2e 6d 3d a6 37 b0 3c e3 0c 83 3d 24 9c 12 be
       0.057905238 0.02151091 0.06398942 -0.14317375
000190 29 75 51 be 9c 30 dc be f7 99 d3 3e a1 a8 ae be
       -0.2045485 -0.43005836 0.41328403 -0.3411303
0001a0 1f 85 0f be b9 12 99 bd 2d 60 63 bd 95 13 8d bd
       -0.14015625 -0.07474274 -0.055511642 -0.068885006
0001b0 aa 19 30 3e 35 2d 9d be 62 27 07 3e 1e a0 02 3c
       0.1719729 -0.30698553 0.13198617 0.007972745
0001c0 83 89 09 3e e3 57 28 bd b1 85 17 3f d4 bc a0 bd
       0.13431363 -0.04109944 0.5918837 -0.07848516
0001d0 30 2d fa 3d dd 6c 12 3e 2d c6 80 be c5 9f 0f be
       0.1221565 0.1429934 -0.25151196 -0.14025791
0001e0 0e bb 1e 3e 7a 61 7d be e5 c4 21 3e ab a3 a9 bd
       0.15501043 -0.24744216 0.15797766 -0.0828317
0001f0 89 8b ad bd be 96 44 be a6 23 c2 bb 06 39 ab bd
       -0.0847388 -0.19198129 -0.00592466 -0.08360486
000200 8a b7 0e be 0d 85 d8 3e 16 7e c2 bd d2 85 ab 3d
       -0.13937202 0.4228901 -0.09496705 0.083751336
000210 87 eb bb bd c4 40 48 bd 5d 00 ac bd e6 79 58 3e
       -0.09175783 -0.04888989 -0.08398507 0.2114025
000220 e1 27 1f 3d 3a 8b 69 be 68 96 af 3e 33 84 fd 3c
       0.03885639 -0.22807017 0.34294438 0.030946827
000230 b2 ff 67 3d 05 2d 87 3e 99 63 8c be 17 12 b3 be
       0.056640334 0.26401535 -0.27419737 -0.3497474
000240 34 97 4c 3e c6 04 86 be d2 f1 84 bd 90 6d 8a 3e
       0.19979554 -0.26175517 -0.06491436 0.27036715
000250 0f 21 a9 be bc 94 e2 3e 25 91 99 bd 90 bf 53 be
       -0.33033034 0.442541 -0.07498387 -0.20678544
000260 9d 12 3d 3c a2 29 cf 3d 6f ca 1c 3e 80 f3 8d 3e
       0.011540082 0.10115363 0.15311597 0.27724838
000270 bd d1 8d be c6 4e 4a 3e b6 0f 7d bd 39 4f 17 bd
       -0.2769908 0.19756612 -0.06178256 -0.036940787
000280 84 33 73 3c 96 b8 6b be 97 2d d9 3d c2 74 83 be
       0.014843825 -0.23019633 0.10604399 -0.25675017
000290 3b 1c 61 3d ba 62 31 3e 39 79 0d be a9 d5 01 be
       0.054958563 0.17322817 -0.13815774 -0.12679161
0002a0 79 8a 04 3e 47 46 83 bd ae 3b 3a 3a f6 b3 af 3d
       0.12943448 -0.06409889 0.000710423 0.08579247
0002b0 58 45 37 3e 32 ec 9f 3d 96 0f d4 3d 48 6b b1 3e
       0.17897546 0.078087226 0.10354535 0.34652162
0002c0 77 96 49 3d 66 33 fe bd 9b 68 dc bc 55 e3 29 bd
       0.04921576 -0.12412147 -0.026905349 -0.041476566
0002d0 ab 09 0e 3e 2b 89 83 be 4d 80 28 be c0 27 cc bd
       0.13870876 -0.25690588 -0.16455193 -0.09968519
0002e0 9a 32 ce 3d 22 36 57 bd 9d 49 91 be 73 fe 75 bd
       0.10068245 -0.05254186 -0.28376475 -0.060057115
0002f0 12 58 83 3e f2 f9 18 3d 0d f4 8e 3e c7 ad 2b bd
       0.2565313 0.03734774 0.2792057 -0.041913774
000300 24 d7 de 3d 33 b5 1b 3e 1b 5b b3 3c ab 90 1f 3e
       0.108808786 0.15205841 0.021894028 0.1558253
000310 91 e8 b7 bb ea 82 62 be 80 aa 7d 3e 25 48 a7 bd
       -0.005612441 -0.22120252 0.24772072 -0.08168057
000320 8a 8f b1 bd 7c 9e 6e bb 89 37 65 3d f9 6d 87 bc
       -0.08669956 -0.0036410382 0.055961166 -0.016531931
000330 06 e3 77 be d9 a9 22 be 60 01 92 bd de 60 5c 3c
       -0.24207696 -0.15885104 -0.071291685 0.013450829
000340 fe 2f cc 3d 01 76 6e bd e7 f9 36 3e 9a cc 2a be
       0.09970091 -0.058218006 0.17868768 -0.16679612
000350 eb 3a eb bd aa f8 a9 bd 2d 3c 98 bd 51 79 e4 bd
       -0.11485847 -0.08299382 -0.074333526 -0.11155952
000360 97 c2 d4 bc ed ac 39 3d 02 0f 1d be 1a 65 85 be
       -0.025971694 0.04533093 -0.15337756 -0.26053697
000370 e7 83 0b bd d4 74 21 bd bb fb 1a 3b b0 7e d8 3d
       -0.03406134 -0.039418057 0.0023648578 0.10571039
000380 64 29 81 bd 71 6f 39 bd a4 d5 37 be 62 9a 02 3f
       -0.06306723 -0.045272294 -0.17952591 0.5101682
000390 5c 55 92 be ac f7 01 3d 9a de 8d be 44 5d 90 bd
       -0.2858075 0.03173034 -0.27708894 -0.07049039
0003a0 f0 3a 03 bd f9 ad fd 3d 0c 68 d4 bd 9c c8 51 3d
       -0.03203863 0.12386698 -0.10371408 0.051216707
0003b0 fa ad 0f 3e 6d e8 2d bd 07 5b 62 3d 73 59 2d 3e
       0.1403121 -0.042457987 0.05526259 0.16928653
0003c0 7d 3c 95 be 75 07 da 3c 20 5a ad bd 8b 83 13 be
       -0.2914771 0.026614884 -0.084644556 -0.14405648
0003d0 74 3b 4f 3d e9 a8 07 3d cf 9e ef 3d fe 4f 34 be
       0.05059381 0.03312007 0.11700212 -0.1760864
0003e0 05 18 18 bd e7 27 77 bd a6 a8 5f 3e a5 9e 09 3d
       -0.03713228 -0.06034079 0.21841678 0.03359856
0003f0 30 6e 8b 3d b3 69 1f 3e 66 27 64 be 51 84 0e 3e
       0.06808126 0.15567665 -0.22280654 0.13917662

onnx::Conv_142 f4 [64]
000000 f0 cb df 3e e4 97 86 bd ae 77 81 3f 06 67 98 be
       0.4371028 -0.065719396 1.0114648 -0.297661
000010 79 88 10 3d 28 92 92 3e f0 4d 50 bd da e9 ee 3e
       0.0352864 0.28627133 -0.050855577 0.4666279
000020 d7 22 e9 bd 1e a9 99 3f b1 c9 5b 3f e5 43 41 3f
       -0.11383598 1.2004735 0.8585463 0.75494224
000030 07 eb 84 3e 72 c3 98 3f ff d5 3a 3f d4 8e e1 3d
       0.25960562 1.1934645 0.7298278 0.110135704
000040 cf fa 84 3f bf 0d 09 3f d0 b3 70 3f 3a d5 30 3f
       1.0389041 0.535366 0.9402437 0.6907536
000050 cd 56 07 3e e1 30 19 3f 22 31 9e bf fc 4a b3 3e
       0.13216706 0.5984021 -1.2358744 0.35018146
000060 87 c7 3f 3f ff 08 9f 3e 84 01 5d be 03 2e 8a 3f
       0.7491383 0.3106155 -0.2158261 1.0795292
000070 28 95 df 3f 27 21 13 3e 98 9b 67 be dc 53 09 3f
       1.7467394 0.14368115 -0.22617948 0.53643584
000080 54 29 2b be 2a 01 1c 3f d5 0e c6 bd 04 5c ca 3e
       -0.16714984 0.60939276 -0.09670798 0.39523327
000090 d8 44 19 3d c3 c5 36 3f 58 7d d0 bd 60 58 8c 3e
       0.03741917 0.7139551 -0.101801574 0.27411175
0000a0 02 cb 4d bd fa 7a 5a 3f 2c 01 54 be ed d1 68 3e
       -0.05024243 0.853439 -0.20703572 0.2273633
0000b0 6b e9 d0 3f c5 e9 21 3f 3b a7 65 3f ed 5f 39 be
       1.6321234 0.6324733 0.897083 -0.18102999
0000c0 1d 57 3c bf d2 b2 62 3e 18 9a d4 3e 40 ac 1d bc
       -0.73570424 0.22138527 0.41523814 -0.009623587
0000d0 8a 08 6d 3f 33 66 33 3f c1 04 87 3e 7a c1 68 3f
       0.92591155 0.7007782 0.26370814 0.9092022
0000e0 14 ec 9a 3f 42 6a c4 bd 7e b8 97 3f 89 fd 20 3f
       1.2103295 -0.095905796 1.1853178 0.62886864
0000f0 ec f0 5f 3e f6 f2 c2 3f 00 c0 56 be 68 dc 60 bd
       0.21869248 1.5230396 -0.2097168 -0.054897696

onnx::Conv_144 f4 [64, 1, 1, 1]
000000 26 43 2a bf 7b 22 53 3f e5 47 25 bf ee bf cb be
       -0.6650871 0.8247449 -0.6456283 -0.39794868
000010 dc ec bc 3e 13 15 0c 3f d4 bd f8 be dd 33 28 be
       0.3689946 0.54719657 -0.48582327 -0.16426034
000020 3f 98 24 3f 4c 66 0f 3f 67 62 ec 3e f9 91 c7 3e
       0.6429481 0.5601547 0.46168825 0.38978556
000030 c8 6d 6d bd 3d 69 dd be 9f 52 03 3f a0 8f 1a 3f
       -0.057966024 -0.43244353 0.51297945 0.60375404
000040 3d bc 35 3f 5f 46 d6 3e 1e 7c 01 bf 63 eb ce 3e
       0.70990354 0.41850564 -0.5058001 0.4041396
000050 b0 78 14 bf f9 18 63 3f aa 20 14 3f 57 4a 05 bf
       -0.57996655 0.8870998 0.5786234 -0.5206656
000060 2e a6 fa 3e 2f 97 0c bf bc b8 db be 4d 8d d8 be
       0.4895491 -0.5491819 -0.4291438 -0.42295304
000070 53 28 eb 3e fa 7c 3b bf 74 11 78 be 2d aa de be
       0.45929202 -0.73237574 -0.24225408 -0.4348921
000080 7d 4f fd be 9a 85 4e 3f 47 ac 84 bf 12 00 1d bf
       -0.49474707 0.8067261 -1.0365075 -0.6132823
000090 00 0c dd 3e f4 ba cd 3e 44 b0 19 3f c0 e8 e8 3e
       0.43173218 0.40181696 0.60034585 0.45490074
0000a0 dd 32 fd 3e 7e 86 af 3e de d6 7b bf ed 79 46 bf
       0.49452868 0.34282297 -0.98374736 -0.77529794
0000b0 a4 f8 23 3f 1c 3e fa 3b e3 94 d3 3e 26 b1 39 3e
       0.6405127 0.0076367985 0.4132453 0.18133983
0000c0 7b 27 e5 be 31 09 36 be aa d2 34 3f d1 40 42 bf
       -0.44756684 -0.17776944 0.7063395 -0.7588015
0000d0 81 ea af 3e 4c 8e eb 3e e3 8d 52 bf 98 ba 19 bf
       0.343586 0.46007 -0.8224775 -0.60050344
0000e0 60 9d 26 bf ff 78 12 3f f7 ed d3 be e2 3e f5 3e
       -0.65083885 0.57215875 -0.4139249 0.47899538
0000f0 34 d4 92 be 79 f3 e9 be 91 fe 25 3f fa 5b 06 3f
       -0.28677523 -0.45693567 0.6484156 0.52484095

onnx::Conv_145 f4 [64]
000000 2c 06 04 3f 2d d7 5e bf cf 0d 29 3f 86 9f 30 3f
       0.5157192 -0.8704708 0.66036695 0.68993413
000010 47 a5 11 bf 50 76 c0 be ab 29 97 3f 36 87 2b be
       -0.5689282 -0.37590265 1.1809591 -0.16750798
000020 4e f0 ad be 06 68 58 bf 13 38 78 bf 10 8f 60 bf
       -0.339724 -0.8453373 -0.9696056 -0.87718296
000030 59 82 6b be 7a 30 3b 3f 00 24 6b bf 6c e9 65 bf
       -0.22998942 0.73120844 -0.91851807 -0.898093
000040 e3 73 97 bf 9a b1 80 bf 78 81 32 3f 1d 50 4d bf
       -1.1832241 -1.00542 0.69728804 -0.8020037
000050 e1 a3 95 3f 71 60 ac bf 9c 6f 1e be 4e 00 de 3e
       1.1690637 -1.3466932 -0.15472263 0.43359607
000060 38 d2 72 bf e2 ab ae 3f 01 14 7f 3f a4 ab 81 3f
       -0.9485202 1.3646204 0.996399 1.0130506
000070 e6 88 36 bf a3 a6 b5 3f a0 1f d8 bd 19 8f 54 3f
       -0.7130264 1.4191478 -0.10552907 0.8303085
000080 50 eb 6e 3f d5 7d 6c bf 67 ce 91 3f 18 8d 93 3f
       0.9332781 -0.92379504 1.1391114 1.1527433
000090 aa f1 3d bf 59 5d 19 bf 42 b7 1d bf cc ff 1b bf
       -0.74196875 -0.5990806 -0.61607754 -0.6093719
0000a0 34 69 72 be 96 c9 06 bf 46 f6 ba 3f 12 08 9a 3f
       -0.23672944 -0.52651346 1.4606407 1.2033713
0000b0 cb 27 96 bf cc b5 cb be f8 17 25 bf b0 ed fa be
       -1.1730894 -0.39787138 -0.644897 -0.49009466
0000c0 72 15 3c 3f 8a d8 73 be 47 f3 1c bf a7 5d 34 3f
       0.7347022 -0.23813072 -0.6130871 0.704554
0000d0 26 bf 21 bf fc f3 78 bf 36 20 9e 3f f8 9e 39 3f
       -0.63182294 -0.9724729 1.235358 0.7250819
0000e0 4f f4 4a 3f 03 62 38 bf 30 22 49 3f 43 33 0f bf
       0.79279035 -0.72024554 0.7856779 -0.55937594
0000f0 b6 fc 40 be c6 67 b8 3e da 88 d2 be d8 97 4f bf
       -0.18846402 0.36016673 -0.41120034 -0.8109107

onnx::Conv_147 f4 [64, 1, 1, 1]
000000 34 42 ec bd 80 8d 4a bc a3 6c f4 3e 9d 5f a2 bf
       -0.11536065 -0.012362838 0.47739133 -1.2685429
000010 ac 1a ab bf b0 29 9e bf 22 5c c7 bf 98 74 ab bf
       -1.3367515 -1.2356472 -1.5574992 -1.3394957
000020 ca bc 3a bf a0 0e 5c be 3a d9 ca bf c9 08 15 3f
       -0.7294432 -0.21489954 -1.5847542 0.5821653
000030 d7 0c f0 bf 1a 80 d5 bf aa b9 d8 bf 14 47 8e bf
       -1.8753918 -1.6679718 -1.693166 -1.1115441
000040 c2 af fd be c0 71 23 be 7a b2 2f bf 86 b5 0c bf
       -0.49548155 -0.15961361 -0.6863171 -0.5496448
000050 42 28 be bf 5b 62 00 c0 1c 86 9f bf ae 9e d3 bf
       -1.4856036 -2.0060031 -1.2462802 -1.65328
000060 d7 db 23 3e 4a 4d be bf 42 2e 35 3f 8b 08 ec 3e
       0.16001831 -1.4867337 0.7077371 0.46100268
000070 94 df 7f 3c 03 bb 03 c0 eb 9a 8a bf 78 f4 d0 bf
       0.01561727 -2.0582893 -1.0828527 -1.6324606
000080 1e de c9 bf b0 71 3f bf a3 4f 0d c0 27 85 6a bf
       -1.577091 -0.7478285 -2.2079856 -0.91609424
000090 7b 1b 9b 3e 05 b8 a4 bf b7 ea 43 bf f1 05 69 be
       0.30294403 -1.2868658 -0.7653002 -0.22756173
0000a0 c1 35 2d 3f 0f a6 70 bf 70 ee 0c c0 62 6f 1a c0
       0.67660147 -0.94003385 -2.202053 -2.4130483
0000b0 e9 fd 96 bf f3 d6 de bf e2 b3 8f bf 3d 53 b9 bf
       -1.1796237 -1.7409347 -1.1226771 -1.4478527
0000c0 19 5e f6 3e 80 24 9f 3e 81 bf f4 bf 5d fe e5 3c
       0.48118666 0.31082535 -1.9120942 0.028075391
0000d0 57 8a 5f bf a2 1a c8 bf ec 60 ea 3e 26 b4 45 c0
       -0.87320465 -1.5633128 0.4577707 -3.0891204
0000e0 4f 22 e0 bc 0d e9 91 bf 6c 5e 10 3f 81 7d b9 bf
       -0.02736011 -1.1399246 0.56394076 -1.4491426
0000f0 06 78 c9 bf 59 a9 f0 bf f7 96 76 bf 79 49 bd be
       -1.5739753 -1.8801681 -0.96324104 -0.36970118

onnx::Conv_148 f4 [64]
000000 0e 4a 0f 3e 7a a7 8d bb 7a 0b eb be 79 7f 84 3f
       0.13993093 -0.0043229433 -0.45907193 1.0351402
000010 5f 39 81 3f 10 25 93 3f 24 83 e0 3f 2e 0f 49 3f
       1.0095633 1.1495686 1.7540021 0.7853879
000020 eb 81 44 3f c0 d1 60 bd 44 d4 ee 3f 88 56 e3 be
       0.7676074 -0.054887533 1.8658528 -0.44401956
000030 3d 66 af 3f ca 2c b5 3f 68 6b 94 3f 3d c2 9b 3f
       1.3703076 1.4154294 1.1595278 1.2168652
000040 6b e1 e4 3e 39 f5 1d 3e 82 fe b2 3e dd ba cb 3e
       0.4470323 0.15425576 0.349598 0.39791003
000050 b7 3a ca 3f d9 e3 dc 3f e7 64 93 3f 86 17 77 3f
       1.5799168 1.7257034 1.1515168 0.9652027
000060 34 70 5a be aa f4 fc 3f 0d 1d 8c bf d4 f8 aa be
       -0.21331865 1.9762166 -1.0946366 -0.33392966
000070 e4 61 33 3c 36 1c ce 3f 2e 58 3a 3f 40 f1 a4 3f
       0.010948632 1.6102359 0.727908 1.2886124
000080 e3 2f df 3f 57 bf ae 3e 61 16 b5 3f 4f 88 98 3f
       1.7436489 0.34130356 1.4147455 1.1916598
000090 96 ca bf bd 3e b5 26 3f e7 39 35 3f 53 b3 08 3e
       -0.09364812 0.65120304 0.70791477 0.13349657
0000a0 b1 e1 e5 be 15 3a 37 3f 62 83 11 40 26 23 1a 40
       -0.4489875 0.71573 2.273644 2.4083953
0000b0 14 2f 72 3f 0e e6 97 3f ed 03 24 3f dc 07 39 3f
       0.94603086 1.1867082 0.6406849 0.7227762
0000c0 90 84 9e be 60 41 b1 bc e0 25 ab 3f 03 14 8a 3c
       -0.30960512 -0.021637619 1.3370934 0.016855245
0000d0 86 ec 45 3f 9c 68 7a 3f ea 94 f5 be 29 84 59 40
       0.7731403 0.9781587 -0.47965175 3.3986914
0000e0 36 05 28 bd b1 27 5c 3f fc 15 1a bf 8d 35 ba 3f
       -0.041020595 0.85998064 -0.60189795 1.4547592
0000f0 35 ad 4e 3f 33 09 fc 3f 2a e9 3e 3f a0 bc ff bb
       0.8073304 1.9690307 0.7457453 -0.0078044683
